cache/audio-audio/AM-b8P1yj9w_Stand By Your Man.npy (npy, 3200 bytes, 1 tensors)

array f4 [1, 768]
-0.77668977 -0.465409 0.3376468 -0.1283372 0.08978437 -0.0024310602 0.099151835 -0.55005133
-0.36079496 0.8220468 -0.609419 -0.21552393 -0.25017014 0.27377507 0.49821964 0.56274796
0.9512596 -0.050853822 -0.63722014 -0.027015822 0.11276752 -0.3392549 0.75959957 0.8251503
-0.1205083 -0.88215864 -0.6107445 -0.3110516 0.10143289 -0.5059252 0.19023941 -0.7343951
1.0495456 0.48179975 0.16454531 0.7690979 0.028303592 0.48354566 0.915496 0.8075213
0.3175116 0.44687465 0.35015228 -0.25459763 0.41689026 0.8502674 -0.307597 -0.054616142
-0.54241335 -0.040856503 -0.1131207 0.8036599 0.4625781 0.24602927 0.7067472 -0.06409095
-0.19459008 -0.4665682 0.09183606 -0.47130263 -0.06927699 0.88080317 -0.37701207 -1.3360988
-0.2511477 -0.77809983 -0.42702067 -0.8931567 0.19216408 -0.58908904 -0.09100977 0.9780088
0.633369 0.68718505 -0.094089895 0.3999704 0.55547786 0.877916 -0.42406356 -0.29918516
-0.39204547 -0.23838711 0.34768957 -0.8051622 0.13911048 -0.59259933 0.7358419 0.85900116
-0.044189923 0.9278922 0.70539486 -0.014309429 0.1549049 -0.7462761 0.18168537 0.10361463
-0.43716055 0.48107412 0.70361274 -0.2782692 -0.6216442 0.94803923 -0.17485553 0.07673965
0.083219975 0.7194405 0.028293796 -0.30878437 0.6551364 -0.15955631 0.05583121 0.4233041
-0.32978594 -0.8121887 -0.3121643 -1.1187544 0.543963 0.08771977 -0.42212626 -0.2657133
-0.27623123 -0.14128315 0.015962169 0.0285974 -0.49203554 0.55064064 0.3986988 -0.05987288
0.97951967 -0.33523107 -0.35881355 -0.04358867 0.1633042 0.34842205 -0.03171244 0.2063051
-0.15636866 0.124233276 0.43587315 -0.5899839 -1.1677012 0.62456566 0.36742884 -0.14509843
-0.4853523 -0.056447104 0.9115935 -0.26494697 -0.68864226 0.166502 -0.92193216 -0.092790194
-0.11599881 -0.31673858 -0.41138318 -0.17501539 -0.19272673 -0.4823743 -0.23980257 0.4759093
-0.05989042 0.13399346 0.5092726 0.27062598 0.5886181 0.3424213 0.45340866 -0.0448207
-0.017889196 -0.80407906 -0.559782 0.007195309 -0.2747514 0.6619247 0.06392142 1.419778
-0.13419078 0.34816158 -0.17315178 -0.7253924 -0.2541458 0.8291284 -0.71931374 -0.18831232
-0.6354854 -1.5981215 -0.058624268 -0.06977296 0.51448613 -0.18956693 0.3498124 -0.063862905
0.2319567 -0.14272381 -0.71435267 -0.07326453 0.3052436 -0.98437333 1.3416657 -0.6854956
-0.46258092 -0.4225594 1.209971 0.09571489 -0.12115429 -0.17226045 0.37611827 -0.5479428
-0.23457995 0.6846747 0.1865374 -0.5523689 1.2232978 1.1843792 -0.9182869 0.3393423
0.2152673 0.2880876 0.17534086 -0.23072082 -0.16663311 -0.2786245 -0.78648734 -0.5874187
0.25630274 -0.33955204 -0.07713383 0.6396484 0.5237377 0.82842404 -0.3956351 0.6052568
-0.55882424 -0.39847606 -0.85777056 -0.16766798 0.19635212 0.2138328 -0.22947979 0.7332994
-0.41481018 0.44609338 -0.051758677 -0.016660986 -0.9945052 -0.7141793 0.37586632 -0.16621459
-0.19011694 0.51837134 0.081601515 0.06577558 0.6428368 -0.5148365 0.047500595 -0.40027836
00000000: 24d5 46bf 174a eebe 0be0 ac3e d46a 03be
00000010: dee0 b73d 6c52 1fbb 1e10 cb3d 2ad0 0cbf
00000020: 1eba b8be a971 523f e202 1cbf 4eb2 5cbe
00000030: 4d16 80be 3f2c 8c3e a516 ff3e 4010 103f
00000040: c085 733f 194c 50bd dc20 23bf 4950 ddbc
00000050: a8f2 e63d d1b2 adbe 1e75 423f 0d3d 533f
00000060: 0ecd f6bd 26d5 61bf c059 1cbf 2842 9fbe
00000070: 0cbc cf3d 5084 01bf 1fce 423e 5101 3cbf
00000080: 8357 863f 75ae f63e 917e 283e 9ae3 443f
00000090: efdc e73c 4c93 f73e f25d 6a3f b7b9 4e3f
000000a0: e190 a23e c1cc e43e 2947 b33e 9f5a 82be
000000b0: a472 d53e 20ab 593f 5b7d 9dbe 2db5 5fbd
000000c0: 9adb 0abf 2659 27bd d3ab e7bd a8bc 4d3f
000000d0: 09d7 ec3e 19ef 7b3e 62ed 343f 1e42 83bd
000000e0: 9f42 47be 07e2 eebe 8b14 bc3d 944e f1be
000000f0: 18e1 8dbd 517c 613f ba07 c1be 4905 abbf
00000100: 6e96 80be 8d31 47bf 74a2 dabe eba5 64bf
00000110: a9c6 443e 8ace 16bf 5563 babd c95e 7a3f
00000120: 7924 223f 5ceb 2f3f 34b2 c0bd ecc8 cc3e
00000130: cc33 0e3f 1abf 603f dc1e d9be cc2e 99be
00000140: 2fba c8be c01b 74be 5e04 b23e 1c1f 4ebf
00000150: fa72 0e3e 97b4 17bf 2260 3c3f 80e7 5b3f
00000160: 7e00 35bd 588a 6d3f c294 343f 1872 6abc
00000170: 649f 1e3e f30b 3fbf bb0b 3a3e e833 d43d
00000180: 82d3 dfbe 594f f63e f71f 343f 4d79 8ebe
00000190: 1324 1fbf b3b2 723f 540d 33be ad29 9d3d
000001a0: 3c6f aa3d 412d 383f 64c8 e73c fc18 9ebe
000001b0: 05b7 273f bb62 23be 44af 643d 51bb d83e
000001c0: b4d9 a8be 99eb 4fbf 00d4 9fbe 5833 8fbf
000001d0: 2941 0b3f 6ca6 b33d ef20 d8be 930b 88be
000001e0: 2e6e 8dbe 88ac 10be 18c3 823c 1845 ea3c
000001f0: 15ec fbbe c9f6 0c3f 4022 cc3e 443d 75bd
00000200: cdc1 7a3f 68a3 abbe 69b6 b7be 098a 32bd
00000210: 3739 273e 6064 b23e e7e4 01bd a541 533e
00000220: 1b1f 20be 046e fe3d c42a df3e 2f09 17bf
00000230: 3c77 95bf 89e3 1f3f a21f bc3e af94 14be
00000240: 1980 f8be 1435 67bd 315e 693f 21a7 87be
00000250: dc4a 30bf 807f 2a3e bf03 6cbf c908 bebd
00000260: c990 edbd 8f2b a2be d1a0 d2be 3c37 33be
00000270: 285a 45be c4f9 f6be ce8e 75be 62aa f33e
00000280: a84f 75bd 9535 093e b05f 023f 7d8f 8a3e
00000290: adaf 163f d851 af3e 2e25 e83e e995 37bd
000002a0: 5d8c 92bc 20d8 4dbf e04d 0fbf a0c6 eb3b
000002b0: 37ac 8cbe e673 293f 3ce9 823d 49bb b53f
000002c0: 4f69 09be 3c42 b23e b34e 31be 51b3 39bf
000002d0: 661f 82be c241 543f f224 38bf f2d4 40be
000002e0: 2caf 22bf 3f8f ccbf 0020 70bd 20e5 8ebd
000002f0: 5db5 033f d51d 42be 9c1a b33e 8eca 82bd
00000300: 0f86 6d3e 3126 12be d1df 36bf b70b 96bd
00000310: e448 9c3e e4ff 7bbf b4bb ab3f a47c 2fbf
00000320: 68d7 ecbe b559 d8be 54e0 9a3f 2b06 c43d
00000330: be1f f8bd 0b65 30be 9392 c03e fb45 0cbf
00000340: ba35 70be d746 2f3f a903 3f3e 0c68 0dbf
00000350: 0695 9c3f bd99 973f da14 6bbf 46be ad3e
00000360: 086f 5c3e 3880 933e 8e8c 333e 1442 6cbe
00000370: dfa1 2abe dfa7 8ebe 3c57 49bf 1261 16bf
00000380: 1d3a 833e c4d9 adbe 57f8 9dbd ffbf 233f
00000390: ad13 063f 9913 543f af90 cabe 1cf2 1a3f
000003a0: 1b0f 0fbf 0e05 ccbe da96 5bbf 28b1 2bbe
000003b0: 8810 493e fcf6 5a3e c0fc 6abe 82b9 3b3f
000003c0: 0062 d4be 5a66 e43e e800 54bd 9f7c 88bc
000003d0: e597 7ebf 74d4 36bf 8d71 c03e 2834 2abe
000003e0: 04ae 42be fcb3 043f b21e a73d 59b5 863d
000003f0: f490 243f 53cc 03bf fc8f 423d 49f1 ccbe
