cache/audio-audio/B01SprdhOaw_The Man That Got Away.npy (npy, 3200 bytes, 1 tensors)

array f4 [1, 768]
0	0xbf3d5486	-0.739571
1	0xbf0b1be6	-0.54339445
2	0x3ea93a37	0.33052227
3	0xbdc4e546	-0.09614043
4	0x3e846c08	0.2586367
5	0x3c62c1e5	0.013840173
6	0x3e96acee	0.2942881
7	0xbf587958	-0.84560156
8	0xbe7ba4ae	-0.24574539
9	0x3f37ffcc	0.7187469
10	0xbf45dbb2	-0.77288353
11	0xbe69090a	-0.22757354
12	0xbeb8e9fa	-0.3611601
13	0x3e936657	0.28789017
14	0x3eaff283	0.3436471
15	0x3ef70046	0.48242396
16	0x3f53014c	0.82423854
17	0x3e80fc49	0.25192478
18	0xbf14a443	-0.58063143
19	0xbd13e2a0	-0.0361048
20	0xbd35e004	-0.04440309
21	0xbe960462	-0.2930022
22	0x3f6d12d6	0.92606866
23	0x3f802dc8	1.0013971
24	0xbcc572ea	-0.024102647
25	0xbf5da52f	-0.86580175
26	0xbe96d5a6	-0.29459876
27	0xbe0a00cd	-0.13476868
28	0x3e40468e	0.18776914
29	0xbed1edc5	-0.41001716
30	0x3e7ac38a	0.24488655
31	0xbed85f7f	-0.42260358
32	0x3f4e3009	0.80542046
33	0x3e88fb71	0.26754335
34	0x3e8bf8e2	0.2733832
35	0x3f62478f	0.8839044
36	0xbd84d454	-0.06485811
37	0x3f05c0db	0.522474
38	0x3f341a41	0.7035256
39	0x3f17a3eb	0.59234494
40	0x3e11c307	0.14234553
41	0x3ea42eb7	0.3206689
42	0x3ebec6ec	0.3726114
43	0xbdf7a67f	-0.120923035
44	0x3f19bd3e	0.60054386
45	0x3f45496f	0.77065176
46	0xbe9fc641	-0.31205943
47	0xbd7fb14d	-0.062424947
48	0xbf4b924c	-0.79520106
49	0xbe3fe28f	-0.18738769
50	0xbdff78fd	-0.124742486
51	0x3f50eadc	0.81608367
52	0x3f0c24c3	0.54743594
53	0x3f17a54e	0.5923661
54	0x3f140b14	0.57829404
55	0xbc1a512d	-0.009418768
56	0xbe3ebb98	-0.18626249
57	0xbf210385	-0.62895995
58	0x3e395f71	0.18102814
59	0xbe6e78cf	-0.23288272
60	0xbe1fbbb6	-0.1559895
61	0x3f843471	1.0328504
62	0xbe50d25a	-0.20392743
63	0xbfcf2db1	-1.6185819
64	0xbe38d786	-0.18050966
65	0xbf7786b4	-0.96689916
66	0xbe7281ec	-0.23682374
67	0xbf3f003a	-0.7460972
68	0x3ec90706	0.3926317
69	0xbf174994	-0.59096646
70	0x3d846391	0.06464303
71	0x3f74d2d3	0.9563419
72	0x3f1bfda9	0.6093393
73	0x3f6154c3	0.8801996
74	0xbe010288	-0.12598622
75	0x3e8f92d8	0.2804172
76	0x3f167543	0.5877268
77	0x3f31a968	0.6939912
78	0xbf1cf284	-0.6130755
79	0xbe29c072	-0.16577318
80	0xbf105efd	-0.5639494
81	0xbe76fe32	-0.24120405
82	0x3e0e0d64	0.13872296
83	0xbf782173	-0.9692604
84	0x3e00f936	0.12595066
85	0xbed5fc8f	-0.4179425
86	0x3f0b6562	0.5445157
87	0x3f7b9b36	0.9828371
88	0xbccf996d	-0.025341714
89	0x3f82cf65	1.0219542
90	0x3f659ad8	0.896894
91	0xbbf7160f	-0.0075404714
92	0x3e5ac2b4	0.21363336
93	0xbf57d498	-0.8430877
94	0x3d829441	0.063759334
95	0x3dadff9d	0.0849602
96	0xbeb63c6c	-0.35592973
97	0x3eb698f2	0.35663563
98	0x3f1fc747	0.6241345
99	0xbe64e95a	-0.22354642
100	0xbf29a733	-0.6627075
101	0x3f9065a7	1.1281022
102	0xbe4d5714	-0.20052749
103	0x3e13d4ea	0.14436689
104	0x3ebcc36a	0.3686784
105	0x3f22870f	0.63487333
106	0x3e17dc4a	0.14830127
107	0xbf0aeaf2	-0.5426475
108	0x3e934ea0	0.28770924
109	0xbe093e7b	-0.1340274
110	0xbd176bf4	-0.036968186
111	0x3f27995f	0.654684
112	0xbef2a714	-0.47393095
113	0xbf530165	-0.82424
114	0xbe55e75c	-0.20889038
115	0xbf8fbda5	-1.122975
116	0x3f079c3c	0.5297277
117	0xbd2af0d1	-0.041733567
118	0xbf1bdf4a	-0.6088759
119	0xbe39755d	-0.18111177
120	0xbed979f4	-0.42475855
121	0xbe816ec7	-0.2527983
122	0x3e02f111	0.12787272
123	0xbe4c4225	-0.19947107
124	0xbf14cd2c	-0.5812557
125	0x3f2a47a3	0.6651556
126	0x3e900e18	0.28135753
127	0x3e79253b	0.24330609
128	0x3f6898e6	0.90858305
129	0xbee0abe9	-0.43881157
130	0xbef8e57d	-0.48612586
131	0x3da563c3	0.08075669
132	0x3e20b1b5	0.1569279
133	0x3e7cd48c	0.24690455
134	0xbe163a66	-0.14670715
135	0x3dfa3d44	0.12218717
136	0xbe21116f	-0.15729307
137	0x3dd1e6cf	0.10249101
138	0x3ee1fefa	0.44139844
139	0xbf1e2ae3	-0.6178419
140	0xbf88e87a	-1.0695946
141	0x3f28480e	0.65734947
142	0x3f08cbe0	0.5343609
143	0xbcbda061	-0.023147764
144	0xbf099107	-0.5373692
145	0xbe7ed91a	-0.24887505
146	0x3f83b924	1.0290875
147	0x3ceda984	0.029011495
148	0xbef75cbb	-0.48312935
149	0x3eae331a	0.34023362
150	0xbf7835c3	-0.96957034
151	0xbdb22846	-0.08699088
152	0xbe0bf1ab	-0.13666408
153	0xbed8c5e9	-0.42338493
154	0xbed53e97	-0.41649315
155	0xbec9bb3d	-0.39400664
156	0xbe6c50f4	-0.23077756
157	0xbf0a3946	-0.5399364
158	0xbeeea464	-0.46609795
159	0x3ed7f4ec	0.42179048
160	0x3d8d1d52	0.06890358
161	0x3e24e25d	0.16101976
162	0x3efddebd	0.49583998
163	0x3e944a3c	0.28962886
164	0x3f0b1cc4	0.5434077
165	0x3edda50a	0.43289977
166	0x3ec64e0f	0.3873143
167	0x3d80b98f	0.062853925
168	0xbc75a70a	-0.0149934385
169	0xbf50d2fc	-0.81571937
170	0xbf24eb3d	-0.64421445
171	0xbbdb0b20	-0.006684676
172	0xbc734756	-0.014848551
173	0x3f24db53	0.6439716
174	0xbce39178	-0.027779326
175	0x3fac21d7	1.3447827
176	0xbe4e8781	-0.20168878
177	0x3e98f441	0.2987385
178	0x3d5b11f4	0.05348392
179	0xbf1eb1e9	-0.6199022
180	0xbe767c06	-0.24070749
181	0x3f166525	0.58748084
182	0xbf4541f4	-0.7705376
183	0xbe933694	-0.28752577
184	0xbeb7bf5c	-0.35888183
185	0xbfc1687f	-1.5110015
186	0x3d35b02e	0.04435747
187	0xbe66e2e1	-0.22547485
188	0x3f0979c7	0.5370144
189	0xbe5cf31f	-0.21577118
190	0x3ec2f764	0.3807937
191	0x3cacbc16	0.02108578
192	0x3e4b7745	0.19869716
193	0x3d7c6888	0.061623126
194	0xbf42f48f	-0.76154417
195	0xbdbe80b1	-0.0930189
196	0x3c8ef648	0.01745142
197	0xbf4af20f	-0.792756
198	0x3fb48e37	1.41059
199	0xbf16a0b3	-0.5883896
200	0xbf56bf94	-0.83886075
201	0xbf074797	-0.5284361
202	0x3f8ed260	1.1157951
203	0x3e8bb0fb	0.27283463
204	0xbd6ba7ef	-0.0575332
205	0xbd960552	-0.073252335
206	0x3f1cd45c	0.61261535
207	0xbee4f823	-0.44720563
208	0xbdca3fdf	-0.09875464
209	0x3ec5f863	0.38666067
210	0x3ece33a4	0.40273774
211	0xbec10205	-0.37696853
212	0x3f94bc0a	1.1619885
213	0x3f9bd4a8	1.2174273
214	0xbf538f43	-0.82640475
215	0x3ec1df96	0.37865895
216	0x3e0b2bf8	0.13590991
217	0x3eff6adf	0.49886224
218	0x3e3a3baa	0.18186823
219	0xbe40e6c6	-0.18838033
220	0xbe806661	-0.2507811
221	0xbe8b6d0d	-0.27231637
222	0xbf5ab0df	-0.85426134
223	0xbf01ba39	-0.5067478
224	0x3dc02ce3	0.093835615
225	0xbf2125c5	-0.62948257
226	0x3dd6a669	0.10480959
227	0x3f39a864	0.7252257
228	0x3ed05251	0.40687802
229	0x3f89ff2e	1.0781
230	0xbf03a193	-0.5141842
231	0x3f43403d	0.76269895
232	0xbf01535c	-0.5051782
233	0xbf085335	-0.53251964
234	0xbf5420ff	-0.8286285
235	0xbe09a740	-0.13442707
236	0x3edf2f41	0.4359074
237	0x3e31148f	0.17292999
238	0xbdfbb760	-0.122908354
239	0x3f19f10e	0.60133445
240	0xbed67d6c	-0.41892564
241	0x3f035733	0.5130493
242	0x3ce9d468	0.028543666
243	0xbd0f6cac	-0.035015747
244	0xbf4c3c98	-0.7977996
245	0xbf25e536	-0.64802873
246	0x3e4df79b	0.20113985
247	0x3b0a6f10	0.0021123327
248	0xbeaaa7e3	-0.33331212
249	0x3f19d682	0.6009294
250	0xbd06b203	-0.03288461
251	0x3dfab789	0.12242038
252	0x3f2f8a34	0.68570256
253	0xbee6a469	-0.4504731
254	0xbe4b2216	-0.19837222
255	0xbeb34f16	-0.35021275
