cache/audio-audio/b2nlbBE_l1Q_Serenade to Spring.npy (npy, 3200 bytes, 1 tensors)

array f4 [1, 768]
00000000: efa1 69bf 60d4 61bf ab1f 2b3f 96c6 a2be
00000010: a442 c4be 0b67 013f 1036 67be 3d6d b0be
00000020: d9b1 2dbf d49b 203f 5475 35bf 123f 13be
00000030: c700 e5be 7461 213e f329 573e 25ac ae3e
00000040: 1ff1 c13e 1f9a 373d 255b 563e e750 92be
00000050: e0c5 2c3f 636c afbe e9ea bb3e 9b1f 7e3f
00000060: 21be 41be 43ee 53be 7612 033e ab17 c8be
00000070: 07da 91be 7bab 1bbf 9b23 67be 7fbd 30bf
00000080: 495f aa3f 043c 223f abed 153f 896d 4a3f
00000090: 7668 003b 83c9 b73e 582e 6e3f 3c74 d93e
000000a0: 955b ac3c a90b 013f 4f75 333e fdf6 4abe
000000b0: cb55 2d3e f8d9 1a3f af1e a1bd e80b ff3d
000000c0: a354 2cbf 6c20 77be 00aa 01b9 d5f2 763f
000000d0: 68be d33e 22b2 9f3e 7942 383f 234a d5be
000000e0: d5a7 61be e7b4 cfbe 7dfb 353e 3890 1cbf
000000f0: 7f67 e53c acac 633f c34d 63bf 858f b9bf
00000100: 4728 a7be 6436 23bf 9282 0cbf 1d8d 4fbf
00000110: 4cdb 2cbc 7b27 bcbe fd1c 19bf d52d c13e
00000120: c84a 9b3e 9084 823f 7fc8 94be bb7c c13e
00000130: ab44 95bd 3321 c03e e9b9 e3be e0b9 4cbf
00000140: a927 83bf 1ec1 04bf 96ee 093f 12a3 23bf
00000150: 3922 86bb c5d1 00bf e490 023f ecc6 c43e
00000160: 0391 5bbe 4507 4f3f 009a 1c3e 8626 033e
00000170: 7b71 273e e4d9 b13d 7217 0e3e 9fa0 463e
00000180: 0b21 35bf 2a58 9c3e 5ba0 0a3f d0cf 47be
00000190: 13f1 06bf 1b34 543f c021 eebd 3a06 093d
000001a0: eda7 853e 053f e43e fc34 9c3e a9de 43be
000001b0: a905 123f 1872 35bd e3e5 523c 86c4 1b3e
000001c0: fed3 85be 4b57 fdbe af91 d13d 7947 1dbf
000001d0: 378c 263f ebdf a43e 8043 49bf f78a a5be
000001e0: 1343 e5bd 5530 adbe 26b5 093d 30cc 353d
000001f0: 7b76 c0be 4bb9 043f a417 e03e 93b1 c33d
00000200: f4b7 9a3f 47f7 12bf cbeb c6be 7898 02bf
00000210: 0bfc 5ebe e9a9 943e ad21 afbe 28a4 993e
00000220: 9f06 36bf a3a1 923e 740a a13e aa4f 9abe
00000230: d2c8 a5bf 98f0 4b3f b5d4 543e 7999 3f3e
00000240: 434b c1be ed33 05be 2d44 1d3f 38bf 44be
00000250: 11f9 8cbe 21c3 8ebe 1fe1 0ebf 551f 6ebe
00000260: 8dde ae3c 1d1e fdbe a347 2cbf ecda 4ebe
00000270: eee7 13bd de66 20bf 4d11 e1bd ab69 c93d
00000280: 6bda 46be 87f6 37be bddb 663f 1940 4e3e
00000290: 54d0 a63f 9417 a43c ae64 013f 3858 7b3c
000002a0: bfb1 a43c ebe5 63bf 3f87 f9be f711 193e
000002b0: d1be 1cbe f041 893f 0725 a53d 3932 983f
000002c0: 04e2 03bf 4371 933e 3546 bebd 0587 cebe
000002d0: b567 51be 3dff 483f ac69 64bf f84c 91be
000002e0: 0d47 8dbe 5c7c 58bf efdf 4fbc b5b9 dfbe
000002f0: 5fdf 053f 1d3b 05bd 362f 293f e407 fbbe
00000300: 617f 633e 305b 94be 3b9f d7be fc10 103d
00000310: 8d4d 613e bcb2 8abf b5ac 943f cb8c 33bf
00000320: 2dca 5bbf 82bd 8cbe f6b6 9f3f 5dd1 b9be
00000330: 7d46 a7be 03d0 74bd e3e7 aa3e e02c 96be
00000340: 9fed 9ebe 234e 293e 998d bc3e 1db5 febe
00000350: 07a6 523f 65c3 703f 6945 49bf 4503 093f
00000360: bdfb d43d ac2b 9e3e 904c b8be 3443 a4be
00000370: 6b70 c63e d933 d33e 48a0 93be 33f7 debe
00000380: 78ba a83d 13ed 24bf f9d6 af3d 48bc cd3e
00000390: e40c 183f 4541 c93e 4d87 dfbe 9f83 fa3e
000003a0: 7331 d8be a33f bdbe cdf1 f8be 42ca 253d
000003b0: bcb4 2dbb b8b0 2f3d 8144 52be 2b0e 6a3f
000003c0: f0cb 2cbf b98a dd3e 8349 89be e0f4 f73d
000003d0: cbf4 3abf ccb3 cdbd d07c 6d3e 84e1 25be
000003e0: 288a 92be 8e6c a93e 66fe 87be fae4 133e
000003f0: 012a 423f b6f3 a4be 2dc0 003d 2a0d 8bbe
-0.91262716 -0.88214684 0.66845196 -0.31792134 -0.38332093 0.50547856 -0.22579217 -0.34458342
-0.678495 0.62737775 -0.70882154 -0.14379528 -0.44727156 0.15759832 0.21012096 0.3411571
0.37879273 0.044824716 0.20933206 -0.2857735 0.67489433 -0.3426238 0.3670266 0.99266976
-0.18920185 -0.20696358 0.12800011 -0.39080557 -0.28486654 -0.60808533 -0.22572176 -0.6903915
1.3310329 0.63372827 0.5856578 0.7907339 0.0019593514 0.3589593 0.93039465 0.42471492
0.021039763 0.50408417 0.17525218 -0.19820781 0.16927259 0.60488844 -0.078671806 0.12453443
-0.67316645 -0.24133462 -0.00012365729 0.9646428 0.41356206 0.31190592 0.7197643 -0.41658124
-0.22036679 -0.40567705 0.17771716 -0.6115756 0.028003452 0.8893535 -0.8879053 -1.4496924
-0.32647917 -0.6375487 -0.54886734 -0.81074697 -0.010550331 -0.3674887 -0.5980986 0.3773028
0.3033049 1.0196705 -0.29059216 0.37790474 -0.07288488 0.3752533 -0.44477776 -0.7997112
-1.0246478 -0.51857173 0.5387968 -0.639207 -0.004093435 -0.5032008 0.51002336 0.38433015
-0.21442036 0.8087047 0.15293121 0.12807664 0.16351883 0.086841375 0.13876131 0.1939721
-0.70753545 0.30536014 0.54150933 -0.19512868 -0.527116 0.82892007 -0.11627531 0.033453204
0.2610468 0.4457933 0.30509174 -0.19127907 0.57039887 -0.04429826 0.012872192 0.15211686
-0.261383 -0.49480662 0.10232865 -0.61437184 0.650577 0.32202086 -0.7861862 -0.32332584
-0.11194434 -0.33825937 0.033620022 0.04438418 -0.37590393 0.51845235 0.43768036 0.09555354
1.2087388 -0.57408565 -0.3885177 -0.510139 -0.21775834 0.2903588 -0.3420538 0.30008054
-0.71103853 0.28638944 0.31453288 -0.30138904 -1.295191 0.7966399 0.20784266 0.18710889
-0.37752733 -0.1300809 0.61432153 -0.19213569 -0.27533773 -0.27883247 -0.5581226 -0.2325414
0.021346355 -0.49437037 -0.6729681 -0.202007 -0.036109857 -0.6265696 -0.10989628 0.09834608
-0.19419257 -0.17965136 0.90179044 0.20141639 1.3032327 0.020030774 0.5054425 0.015340857
0.020104287 -0.890227 -0.48735997 0.1494826 -0.15307166 1.0723248 0.08063703 1.1890327
-0.5151675 0.2879735 -0.09290735 -0.40337387 -0.20449717 0.7851446 -0.8922374 -0.28379035
-0.2759327 -0.8456476 -0.012687667 -0.4369637 0.5229396 -0.032527078 0.66087663 -0.49029458
0.2221656 -0.2897582 -0.4211367 0.035172448 0.2200224 -1.0835795 1.1615206 -0.7013671
-0.8585537 -0.27488333 1.247771 -0.36292544 -0.32670966 -0.059768688 0.3338004 -0.29331112
-0.31040666 0.16533713 0.3682678 -0.49747553 0.8228459 0.9404815 -0.78621536 0.53520614
0.10399578 0.30892694 -0.35995913 -0.32082522 0.38757643 0.41250494 -0.28833222 -0.43547973
0.08238691 -0.64424247 0.08585925 0.4018271 0.5939467 0.3930761 -0.43657914 0.48928544
-0.42225227 -0.36962613 -0.4862198 0.04047609 -0.002650543 0.04289314 -0.20533945 0.9142787
-0.67498684 0.432699 -0.26813897 0.12107253 -0.73029774 -0.10044059 0.23192143 -0.16199309
-0.2862103 0.33090633 -0.26561278 0.14442816 0.7584534 -0.32217187 0.031433273 -0.2715848
