cache/audio-audio/B34qwRrkSvQ_Early Mornin' Rain.npy (npy, 3200 bytes, 1 tensors)

array f4 [1, 768]
0	0xbf8c754b	-1.0973295
1	0xbf2aadec	-0.66671634
2	0x3ef76c56	0.4832484
3	0xbe51eb32	-0.20499876
4	0x3e9ebfea	0.31005794
5	0x3b4e3953	0.0031467273
6	0x3e42b2ce	0.19013521
7	0xbf5e942d	-0.8694485
8	0xbec01fee	-0.3752436
9	0x3f255c83	0.64594287
10	0xbf38a21a	-0.7212235
11	0xbe37fd31	-0.17967679
12	0xbf03e525	-0.5152152
13	0x3ecf451b	0.4048241
14	0x3e5a3aaa	0.21311441
15	0x3f255fcb	0.64599293
16	0x3f442bc1	0.76629263
17	0x3e47a7aa	0.19497553
18	0xbee4d17e	-0.4469108
19	0xbe21e28e	-0.1580908
20	0xbe7e6fea	-0.2484738
21	0xbf040ab6	-0.51578844
22	0x3f6cb37e	0.92461383
23	0x3f3b9e8f	0.73288816
24	0x3b1f05b2	0.002426487
25	0xbf3a3bf4	-0.7274773
26	0xbf15932f	-0.5842771
27	0x3e26a1ac	0.1627261
28	0xbb3b378f	-0.002856705
29	0xbf021803	-0.5081789
30	0x3ea405e3	0.3203574
31	0xbee67ad0	-0.45015574
32	0x3f85c59f	1.0450934
33	0x3e621e58	0.22081888
34	0x3eb8493d	0.35993376
35	0x3f56621b	0.8374345
36	0x3abc7cec	0.0014380491
37	0x3f108e52	0.56467164
38	0x3f1f4ba3	0.6222479
39	0x3ea6a989	0.3255122
40	0xbc4eac96	-0.01261439
41	0x3eba8ff8	0.36437964
42	0x3e9a325a	0.3011654
43	0x3d3ccc36	0.04609319
44	0x3f3d2f48	0.7390027
45	0x3ef77e83	0.48338708
46	0xbf1a9eee	-0.6039876
47	0xbdfee0a8	-0.124451935
48	0xbf0114bb	-0.5042226
49	0xbe70e8e6	-0.23526344
50	0xbe37c908	-0.17947781
51	0x3f0f8fa8	0.5607858
52	0x3ee8ef12	0.45494896
53	0x3eaf3f63	0.34228048
54	0x3e8c3e02	0.27391058
55	0xbe9ca1da	-0.30592233
56	0xbe1c9151	-0.15289809
57	0xbedbf9ad	-0.42963925
58	0xbc274508	-0.010209329
59	0xbc318496	-0.010834834
60	0xbe65b586	-0.22432527
61	0x3f8465bc	1.0343547
62	0xbeccc5cd	-0.3999466
63	0xbfc4d462	-1.5377314
64	0xbd2c5882	-0.042076595
65	0xbf4d1102	-0.80104077
66	0xbf080246	-0.5312847
67	0xbeffd3d5	-0.49966303
68	0x3ec2f24d	0.38075486
69	0xbec2ff37	-0.38085338
70	0x3e2dbbd4	0.16966182
71	0x3f84d451	1.0377294
72	0x3eec964a	0.4620841
73	0x3f330e8c	0.6994407
74	0xbe661df0	-0.22472358
75	0x3eb35cfc	0.3503188
76	0x3ed13b92	0.4086576
77	0x3f060859	0.5235649
78	0xbed41375	-0.41421095
79	0xbebe5c41	-0.3717976
80	0xbed2c702	-0.41167456
81	0xbead3ac5	-0.338339
82	0x3ea211a7	0.31654093
83	0xbf51362e	-0.81723297
84	0x3e5ab766	0.21359023
85	0xbf36e585	-0.7144397
86	0x3ef7d4c2	0.4840451
87	0x3f65b353	0.8972675
88	0xbe35252e	-0.17689964
89	0x3f170715	0.5899518
90	0x3f492035	0.7856477
91	0x3ebade1f	0.3649759
92	0x3ea75074	0.32678568
93	0xbf6e037d	-0.9297407
94	0x3daacd6d	0.08339963
95	0x3da5acfe	0.08089636
96	0xbebabb80	-0.36471176
97	0x3ebdcd12	0.3707052
98	0x3f2d7285	0.6775287
99	0xbe8476af	-0.25871798
100	0xbf4a9165	-0.79128104
101	0x3f514743	0.8174936
102	0xbeb675ef	-0.3563685
103	0x3e13953c	0.14412397
104	0x3eb3b864	0.35101616
105	0x3efeda73	0.4977604
106	0x3ceb4050	0.02871719
107	0xbf2aafca	-0.6667448
108	0x3e851831	0.2599502
109	0xbf07e8cc	-0.53089595
110	0xbd17ecb4	-0.037090972
111	0x3eff4523	0.49857435
112	0xbe8cde42	-0.2751332
113	0xbf3d283f	-0.73889536
114	0xbeff47be	-0.49859422
115	0xbf1b5b4d	-0.6068619
116	0x3ebd0236	0.3691575
117	0x3e0e2bee	0.13883945
118	0xbf046b24	-0.51725984
119	0xbe0d12fd	-0.13776775
120	0x3c84d121	0.016213002
121	0xbdec1a1e	-0.11528419
122	0x3e45f4dd	0.19331689
123	0xbe6eb006	-0.23309335
124	0xbec1c456	-0.37845105
125	0x3f3f8e7f	0.74826807
126	0x3ea7e71c	0.3279351
127	0x3e65f3fd	0.22456355
128	0x3f4dc436	0.8037752
129	0xbf03e2cc	-0.5151794
130	0xbe98beb8	-0.29833007
131	0xbde56935	-0.11201707
132	0x3e17ad1b	0.14812128
133	0x3d85f2b6	0.06540434
134	0x3e0d5b0e	0.13804266
135	0x3efb1b06	0.49044055
136	0xbe6fcac6	-0.23417196
137	0x3e6241be	0.22095391
138	0x3ea633ac	0.32461298
139	0xbf2975b4	-0.66195226
140	0xbf55d498	-0.8352752
141	0x3f30fcc2	0.6913568
142	0x3ea0dcf0	0.31418562
143	0x3dad4886	0.084610984
144	0xbf0252c0	-0.50907516
145	0x3df0d4be	0.11759327
146	0x3f962cb4	1.1732392
147	0xb9002a00	-0.00012222677
148	0xbf3cad4f	-0.7370195
149	0x3ed6c1be	0.4194469
150	0xbf4cff5e	-0.8007716
151	0x3ddf8cf5	0.10915557
152	0xbe47815d	-0.19482942
153	0xbe4f856e	-0.20265743
154	0xbf149fb5	-0.58056194
155	0xbe88c95f	-0.26716134
156	0xbe8e2e97	-0.2776992
157	0xbeadeb54	-0.33968604
158	0xbeec2dc3	-0.46128663
159	0x3f06ffe6	0.5273422
160	0xbf041f81	-0.5161057
161	0x3d935852	0.0719458
162	0x3edd130a	0.43178588
163	0x3ebe03ef	0.37112376
164	0x3f0a60c2	0.5405389
165	0x3ece738a	0.40322524
166	0xbd6d869e	-0.05798971
167	0x3d9256f3	0.071454905
168	0x3d882d74	0.066492945
169	0xbf4fb8ea	-0.8114153
170	0xbec5ed31	-0.38657525
171	0x3e55713d	0.20843978
172	0xbd1c6c9e	-0.038189523
173	0x3f2e9f2d	0.6821163
174	0xbe2fdb4d	-0.171735
175	0x3facea74	1.350905
176	0xbe99ffc8	-0.30077958
177	0x3ec80dbb	0.39072976
178	0xbb30782c	-0.0026927097
179	0xbebbee91	-0.3670545
180	0xbe21df23	-0.15807776
181	0x3f034a35	0.51285106
182	0xbf6e2c92	-0.9303676
183	0xbe68c3b5	-0.22730906
184	0xbe66a768	-0.22524798
185	0xbfc7c8f7	-1.5608205
186	0xbde626cb	-0.11237868
187	0xbe83d2db	-0.25746807
188	0x3edec7ee	0.4351191
189	0xbc108074	-0.008819688
190	0x3ed7499d	0.4204835
191	0x3e82beec	0.25536287
192	0x3db26cd9	0.08712167
193	0x3d1cf8a4	0.03832306
194	0xbf4ca570	-0.7993994
195	0xbde3d02a	-0.111236885
196	0x3e365ee2	0.17809632
197	0xbf89b612	-1.0758688
198	0x3fa99de6	1.3251312
199	0xbf0e24c8	-0.55524874
200	0xbf40a981	-0.7525864
201	0xbeb7e78c	-0.35918844
202	0x3f8e710d	1.112825
203	0x3cbe0acd	0.02319851
204	0x3d5437f2	0.051811166
205	0x3dfb20e2	0.12262131
206	0x3f38420d	0.71975785
207	0xbf1b1051	-0.6057177
208	0x3e70aa20	0.23502398
209	0x3eb3b94d	0.3510231
210	0x3f0a9cae	0.54145324
211	0xbe2bfe68	-0.16796267
212	0x3f8d00f6	1.1015918
213	0x3f9a35f7	1.2047719
214	0xbf15fe5c	-0.58591247
215	0x3ed08dfa	0.4073332
216	0xbd16bcb1	-0.036801044
217	0x3ec5d889	0.38641766
218	0x3e09bc66	0.13450775
219	0x3c85d0a8	0.016334847
220	0xbef88113	-0.48535976
221	0x3d6b8f6e	0.057509832
222	0xbf80eafd	-1.0071713
223	0xbeef8635	-0.4678208
224	0x3ebb1a26	0.36543387
225	0xbf16d3dd	-0.5891703
226	0x3a44eca0	0.00075120665
227	0x3f30fd31	0.6913634
228	0x3eb221ac	0.34791315
229	0x3f3c8e71	0.7365485
230	0xbe893171	-0.26795533
231	0x3f06670f	0.52501005
232	0xbf1eeeab	-0.6208293
233	0xbed3fc15	-0.4140326
234	0xbf50cce3	-0.8156263
235	0xbe142480	-0.14467049
236	0x3e89b3a7	0.26894876
237	0x3e4c749d	0.1996636
238	0xbe5a9f35	-0.21349795
239	0x3f17720a	0.59158385
240	0xbedfbc9a	-0.4369858
241	0x3f318f62	0.6935941
242	0xbe38242a	-0.17982545
243	0x3e3ea51a	0.18617669
244	0xbf65983d	-0.8968542
245	0xbf0cb4d7	-0.5496344
246	0x3efa2fce	0.48864597
247	0x3e919b27	0.28438684
248	0xbea14e13	-0.31504878
249	0x3ea72512	0.3264547
250	0xbd14f0d3	-0.03636248
251	0x3e83e9d3	0.2576433
252	0x3ebb23d6	0.36550778
253	0xbd2d163a	-0.042257525
254	0xbe7d8bfe	-0.24760434
255	0xbe901b10	-0.28145647
