cache/audio-audio/B4-OxOmsqR0_Can't Pretend.npy (npy, 3200 bytes, 1 tensors)

array f4 [1, 768]
00000000: 8976 7dbf 4015 13bf 9cab c53e 6218 a6bd
00000010: 3cdc 003f d3aa 8cbd aee0 dd3e 6f93 5dbf
00000020: e3ae 02bf e2e0 4b3f eb48 6cbf 4ccd 8dbe
00000030: 63cc 3fbe 362b 003f 5726 a03e f5bd 013f
00000040: 5b5f 453f af41 be3e f640 42bf 691c c9bd
00000050: 8c9c debe 55a7 a1be a506 9b3f e9ba 6d3f
00000060: 5af4 bf3d 1d14 52bf e525 1cbf 90bc 063e
00000070: f418 c63d 5f9e f4be 2366 4a3e 0aa5 ffbe
00000080: b91e 5e3f 32a2 fe3d 51b4 653e ecef 7e3f
00000090: 2391 90be 2176 1c3f ae34 2a3f a110 203f
000000a0: df01 743e 8a6c a43e c333 b0bd 09e6 4abe
000000b0: 1036 d03e 42d9 1f3f 0f0e 22bf 970e 49be
000000c0: 80ce 67bf 0e84 9b3b 9ab0 73bd 2aa7 2c3f
000000d0: 0923 373f 2fe3 363f 17b1 bb3e b6b9 f1bc
000000e0: e9d7 273c d72f 03bf f7c9 b63d ad7d a2bd
000000f0: f008 0bbd 540e 823f a3e2 a7be a93b e1bf
00000100: aaaa 3dbe 67b7 7bbf 8c29 0bbf 6683 0dbf
00000110: 76aa ed3e 03d3 3abf 0bbe df3e 6b13 5f3f
00000120: b217 643e 302d 4c3f d0af a1be 0a2a d53e
00000130: dd07 2f3f 3cea e93e cb36 9abe 72b4 7e3c
00000140: 499a ffbe d23c f2bd 33f4 a13e 242f 85bf
00000150: 72e7 b23c 61a8 c7be 571e 3c3f c167 863f
00000160: 1db1 cf3d 5728 4b3f 2466 743f b23c 503d
00000170: 157d ec3e a318 1fbf f6c7 85bb 2931 e73d
00000180: 4127 c2be 14c0 103e d9f7 3e3f 0079 29be
00000190: dc5e e4be cbc9 4a3f 51f8 8dbe 526b 833e
000001a0: 6bd4 e83e 3477 293f f21a 063e 1997 24bf
000001b0: 9715 2c3f ff80 c7be f83c 823d 833e 3c3f
000001c0: 877a b7be 7ed7 4ebf 27f5 edbe a227 93bf
000001d0: 9706 063f a241 febc 3252 c8be 0231 343e
000001e0: 30f9 6abe 1939 0dbf e291 fc3d 8b99 82be
000001f0: ea21 29bf 3c53 293f 7678 653e 2903 b23e
00000200: 6bb9 673f 590f e6be 2e38 81be 55d3 543e
00000210: d7cc 103e 57e2 3f3e 95ec e43d 937f 503e
00000220: 5ee5 01bd 007b dc3d 4519 6d3d 7585 85be
00000230: 9712 8abf d2ec 363f 91a7 603e e21d 49be
00000240: fcd0 edbe c774 99be 4fe7 853f 19da 89bd
00000250: e336 40bf 452f fe3e 257d 55bf c5d6 323e
00000260: d4ca ccbd 608e 3ebd b811 02bf 0fc4 72be
00000270: ad6e aabe 747e 5abe 0983 c0be 3619 a63e
00000280: 503e a5bd 35ad 943e ff4d 1d3f b27e e23e
00000290: 1dce 663e 304d 1c3f 031a b3bd 1e1d 283d
000002a0: 6128 c6bc dd24 26bf bee9 e1be dd70 003e
000002b0: 179c 17be 9754 293f f283 abbd cadb a53f
000002c0: 9be5 a1be 4084 053f d146 803e fad9 38bf
000002d0: 0b49 19be 550b 113f 9cbf 38bf 3081 093d
000002e0: e02d 0cbf c628 d3bf 70b5 e3bd 2ffe 80be
000002f0: 9ea1 ec3e 4269 cebd e2c0 1b3e 8ac1 a43e
00000300: 6579 f23d dcd2 16bd 3309 01bf 8338 8abe
00000310: a31d 723e 762a 92bf 237e 973f 69fc 16bf
00000320: e922 3dbf c94f 09bf 2049 5e3f 5cfd 8c3e
00000330: 0fd3 51bd 564a e6bc 3407 653f 61ad 11bf
00000340: 1dcb a53d a994 143f 601d 003f 45d1 80be
00000350: 59e0 b13f c79f 693f 67f5 05bf 7af4 de3e
00000360: 3dd6 0a3e d9a8 9e3e 1321 823e 2311 5dbe
00000370: a1e0 8fbe 1e84 0dbc e198 79bf 7a53 0ebf
00000380: 7e1d 123e 3b74 94be b28c 463d 70bc 583f
00000390: 2160 bd3e 1225 8a3f a6e8 b7be 0db4 223f
000003a0: d22a e0be 45ae d3be de6d 1cbf cae2 58be
000003b0: f4b3 923e 323a 633e 31ce 6cbe 1efa 553f
000003c0: 4575 07bf a90a a33e 727e 1ebd c9b4 af3e
000003d0: 5f7e 45bf 37de 3cbf a09c 0f3f ae1f 0abe
000003e0: acc1 ccbe 5755 dd3e 9e9b ecbd c6a7 253e
000003f0: 4980 b23e 8979 16be 4395 49be 1cc3 b8be
-0.99008995 -0.574543 0.3860749 -0.081101194 0.5033605 -0.0686852 0.4333548 -0.8655309
-0.51048106 0.7964002 -0.92298764 -0.27695692 -0.18730311 0.50065935 0.3127925 0.50680476
0.77098626 0.37159488 -0.7588037 -0.09819872 -0.4347881 -0.31572977 1.2111403 0.9286333
0.09372778 -0.8206194 -0.6099532 0.13157868 0.09672728 -0.47777078 0.19765525 -0.49930602
0.8676563 0.1243328 0.22432067 0.9958484 -0.2823573 0.6111775 0.6648663 0.62525374
0.23828839 0.3211406 -0.08603623 -0.19814314 0.40666246 0.62440884 -0.633027 -0.19634472
-0.9054947 0.0047459668 -0.059494592 0.6744257 0.71537834 0.71440405 0.36658546 -0.0295075
0.010244348 -0.5124487 0.089252405 -0.07934127 -0.03394407 1.0160623 -0.32790098 -1.7596332
-0.18522134 -0.98326725 -0.5436027 -0.55278623 0.46419114 -0.7297823 0.4369968 0.87139004
0.22274664 0.7975645 -0.31579447 0.41633636 0.68371373 0.4568652 -0.3011993 0.015545951
-0.49922398 -0.11828007 0.31631622 -1.0405011 0.021838877 -0.3899565 0.73483795 1.0500413
0.101412036 0.7935843 0.95468354 0.050839134 0.4618918 -0.6214697 -0.004082675 0.112886734
-0.37920573 0.14135772 0.74596936 -0.16550064 -0.44603622 0.7921416 -0.27728513 0.25667816
0.45474562 0.66197515 0.13096216 -0.64293057 0.67220443 -0.38965604 0.06359285 0.73532885
-0.35835668 -0.80797565 -0.464761 -1.149647 0.52353805 -0.031037156 -0.3912521 0.1759682
-0.2294662 -0.5516525 0.123325124 -0.2550777 -0.66067374 0.6614263 0.22409233 0.34768036
0.905173 -0.44933584 -0.25238174 0.20783742 0.1414064 0.18738686 0.11177937 0.20361166
-0.031712882 0.10765648 0.057885427 -0.26078382 -1.0786923 0.7145511 0.21938922 -0.19640306
-0.46448505 -0.29971907 1.0461215 -0.06731052 -0.7508375 0.4964544 -0.8339408 0.1746474
-0.09999624 -0.046522498 -0.50808287 -0.23707603 -0.33287564 -0.213373 -0.37599972 0.3244111
-0.08068526 0.29038396 0.6144714 0.44237286 0.22539563 0.6105528 -0.08745196 0.041043393
-0.024189176 -0.649 -0.44123644 0.12543054 -0.14805637 0.661447 -0.08374776 1.2957699
-0.31620488 0.5215492 0.2505403 -0.72207606 -0.1496927 0.56657916 -0.7216737 0.03357047
-0.547575 -1.6496818 -0.11118591 -0.25193927 0.46217054 -0.1007867 0.15210298 0.3217891
0.118395604 -0.036822185 -0.5040466 -0.2699624 0.23644118 -1.1419208 1.1835369 -0.589789
-0.73881394 -0.5363737 0.8683033 0.27537048 -0.05122667 -0.028111618 0.89464116 -0.5690518
0.080953814 0.5803934 0.5004482 -0.2515966 1.389659 0.91259426 -0.5232758 0.43545896
0.13558288 0.30988196 0.2541586 -0.21588568 -0.28101066 -0.008637456 -0.974989 -0.55596125
0.14269063 -0.28994927 0.04847402 0.8466253 0.36987403 1.0792563 -0.35919684 0.63555986
-0.4378267 -0.41343895 -0.61105144 -0.21180263 0.28652918 0.22190168 -0.23125531 0.83584774
-0.52913314 0.3184407 -0.038694806 0.34317616 -0.7714595 -0.7377657 0.56098366 -0.13488647
-0.3999151 0.43229172 -0.11553119 0.16177282 0.348635 -0.146948 -0.19685845 -0.36086357
