cache/audio-audio/rdpBZ5_b48g_Wake Me Up When September Ends.npy (npy, 3200 bytes, 1 tensors)

array f4 [1, 768]
000000 54 41 a9 be 7d c9 6f bf 0e 7d 0a 3f a7 e8 17 bf
       -0.33057654 -0.9366682 0.5409707 -0.59339374
000010 9e a4 40 bd a0 1c 93 39 9b a2 88 be 9b 75 8c be
       -0.04703199 0.00028059352 -0.26686558 -0.27433476
000020 96 f0 b4 be ff 15 2a 3f fe 41 2f bf 82 f7 4b 3d
       -0.35339803 0.66439813 -0.6846007 0.04979659
000030 49 70 0f 3d 72 3c f0 3e 82 2d 7b 3e 3a 46 e1 3e
       0.035019193 0.46921116 0.24529079 0.4399889
000040 85 a5 c6 3e d8 e6 a8 3e 8d a6 b1 bd 41 ae 84 be
       0.38798156 0.3298862 -0.08674345 -0.25914195
000050 f7 58 b5 3e 49 c3 bd be e1 25 0f 3e 9f 77 36 3f
       0.35419437 -0.37063053 0.13979293 0.7127628
000060 8e a9 88 be 75 64 2c bf dc 64 92 bc fd cc 1f be
       -0.2669186 -0.67340785 -0.01787036 -0.1560554
000070 08 d5 fb bd 66 83 84 bf a2 73 83 be 22 10 ee be
       -0.12296492 -1.03526 -0.25674158 -0.46496683
000080 0d 7c 77 3f 3b e1 4a 3e dd b9 26 3f b3 30 c9 3e
       0.9667366 0.19812481 0.65127355 0.39294967
000090 c5 0e c9 be 1d ad 1e 3f 8e 6a 31 3f 84 87 25 3f
       -0.3926908 0.619829 0.69303215 0.64659905
0000a0 19 fc 0a be 41 28 8d 3f ee 1a d9 be 36 cf 6c be
       -0.1357273 1.102791 -0.42403358 -0.2312592
0000b0 61 37 39 3e 91 a9 1a 3f 32 29 f3 3d cd ff c2 be
       0.18087532 0.6041499 0.11873092 -0.38085786
0000c0 ad c2 56 bb 8b 0d 1d be 12 b6 4a 3e 34 9b 85 3f
       -0.0032769844 -0.15337197 0.19796017 1.0437989
0000d0 67 36 91 3f 09 d3 2b bd 38 2e 26 3f 6f ad 95 be
       1.1344727 -0.041949306 0.64914274 -0.29233882
0000e0 92 a4 a9 bd 1d 33 f3 bd 2d bd d9 be 30 40 6f be
       -0.082833424 -0.118749835 -0.42527142 -0.2336433
0000f0 78 56 16 be 4a 6b ef 3e 62 82 2a be 7c 10 8f bf
       -0.14681423 0.46761543 -0.166513 -1.1176906
000100 4c 45 26 bf da 77 1c bf db ce 26 bf 13 33 26 bf
       -0.6494949 -0.6112038 -0.65159386 -0.64921683
000110 e1 36 c2 be 02 c5 eb bd a8 ee e4 be bc 40 1e 3f
       -0.37932494 -0.11512186 -0.4471333 0.61817527
000120 68 ab 74 bc aa b8 47 3f f8 a6 a2 be fc 72 26 3f
       -0.014933445 0.7801615 -0.31768012 0.650192
000130 cb 41 2d 3e 41 3f 16 3f 7c da 47 bf 75 25 86 bf
       0.1691963 0.5869027 -0.78067756 -1.0480181
000140 8f ba 18 bf 41 6d 96 be 40 0a 52 3e d9 7d 2e bf
       -0.59659666 -0.2938023 0.20511723 -0.6816078
000150 bd 29 7f 3e a5 36 be be aa cb 0e 3f 42 64 35 3e
       0.24918266 -0.37151065 0.55779517 0.17714027
000160 0a ad 38 be 62 63 43 3f 2e ab 01 be 3b 8d ce 3d
       -0.18034759 0.7632352 -0.12662956 0.10085531
000170 06 58 7a 3e 62 1c 6d be 35 d5 fa 3d 96 6f 7a 3d
       0.24447641 -0.23155358 0.12247697 0.061141573
000180 9b b5 1b bf ee 0e bb 3e dd 5d f1 3e 64 c6 35 be
       -0.6082398 0.36534828 0.47141925 -0.17751461
000190 4e 01 c8 be 13 36 11 3f e8 0d 25 bf ee 71 8a be
       -0.39063495 0.56723136 -0.64474344 -0.27040046
0001a0 25 81 e7 bc 6e ea f6 3e 1d 45 e6 bd 03 ff d7 be
       -0.028259823 0.4822573 -0.11243651 -0.42186746
0001b0 e2 ab 69 3f b2 e1 4d bd ce 2e 7e be 2b fe 04 3f
       0.912779 -0.050264068 -0.24822542 0.5195033
0001c0 56 d8 76 be 78 d8 3f bd d3 d6 83 3e 50 1c 99 be
       -0.24105963 -0.0468373 0.25749835 -0.29904413
0001d0 7b 5f 73 3f d8 58 20 3e 6e 4e aa bd 0a 30 bb be
       0.95067567 0.15658891 -0.083157405 -0.36560088
0001e0 0c 0a a5 bd 82 6d a7 3d b6 31 ec bd 33 52 08 3e
       -0.08058557 0.08175184 -0.11532919 0.13312607
0001f0 92 e1 33 be 71 40 1a 3f 5a 51 f3 3e 07 ff 9c be
       -0.17566517 0.6025458 0.47523004 -0.3066332
000200 ca e0 5b 3f c9 42 ab be 52 0d 60 3d 14 f6 00 bf
       0.85889876 -0.3344939 0.054700203 -0.50375485
000210 5e 82 b5 3d 00 ef 62 3e 1d f4 b4 bd 7e 9a 85 3e
       0.08862756 0.22161484 -0.088356234 0.2609443
000220 a3 27 2e bf 27 ae b4 3e 4b a7 02 3f 90 d2 37 3e
       -0.6802923 0.35289118 0.5103652 0.17951417
000230 c0 12 e4 bf 23 28 4d 3f e9 82 cb 3e 62 c8 af bd
       -1.7818222 0.8013937 0.39748314 -0.08583142
000240 27 89 4a bf 1b a7 aa be 6c b0 15 3f bb b1 03 bf
       -0.7911553 -0.33330616 0.58472323 -0.5144307
000250 81 80 07 bf 40 a4 96 3d 9d a4 87 bf 1b 3f 74 3e
       -0.52930456 0.07355547 -1.0597111 0.23852198
000260 7c 6a 3d 3e df 87 07 bf 5d 36 7a be a6 02 45 be
       0.18497652 -0.529417 -0.244348 -0.19239292
000270 ab db 43 be 01 5e 1b bf ee 6a 25 be 76 ab c6 3e
       -0.19126765 -0.60690314 -0.16154072 0.3880269
000280 a0 d5 28 3d 24 e2 42 be fb 1f 6e 3f b2 80 59 3e
       0.041219354 -0.19031578 0.9301755 0.212405
000290 7e 30 62 3f 13 c2 c8 bd 3d a9 93 3d 13 10 fb be
       0.88355243 -0.09802642 0.07210014 -0.490357
0002a0 b8 9b 0d bf 56 d8 02 bf 35 30 e6 be ca d8 d6 3e
       -0.5531573 -0.5111135 -0.44958654 0.41962272
0002b0 e6 c4 10 bf 1d b4 93 3f 20 25 bc 3e 04 e0 bc 3f
       -0.56550443 1.1539341 0.36747074 1.4755864
0002c0 ea 1d ac be 6d 90 6f 3d c7 71 47 bf 4d 13 e2 bd
       -0.33616573 0.058487345 -0.77907985 -0.110388376
0002d0 9b 66 10 be d5 5d 49 3f 3d 50 f5 be d2 77 06 bf
       -0.14101641 0.786588 -0.4791278 -0.5252658
0002e0 f0 62 4f be d1 c4 96 bf 35 ae 3a 3e 5b 3a 98 bc
       -0.20252585 -1.1778814 0.18230517 -0.018582514
0002f0 3e b7 bd 3e 09 66 13 be af 5b bd 3d ee b1 9a be
       0.37053865 -0.14394392 0.09246003 -0.30213875
000300 bd 4b 9a 3e f6 82 e7 be 0a 64 01 bf a4 96 28 3d
       0.3013591 -0.45217103 -0.5054327 0.041159287
000310 18 1b 59 bd 62 56 2a bf 0d 82 68 3f b4 c5 19 bf
       -0.053004354 -0.6653806 0.9082344 -0.60067296
000320 65 c8 3b bf 03 46 4d be 02 e1 90 3f 53 97 ed be
       -0.7335265 -0.20046239 1.1318667 -0.46404514
000330 cd 2d d1 bd cb 50 45 be b8 68 5b be ca 70 71 be
       -0.10213814 -0.19269101 -0.21426666 -0.23578182
000340 e1 f7 3a 3d 0f 3c ba 3e 30 6c 1d 3b 5d 5c 54 bf
       0.045646552 0.36373946 0.0024020784 -0.82953435
000350 a2 d8 53 3f 80 1e 64 3f 23 88 54 bf 4b 44 1a 3e
       0.8275243 0.8910904 -0.8302023 0.15065114
000360 6b 04 42 3e aa 91 9d 3e 90 74 8e be ba 10 0b be
       0.18946998 0.30775195 -0.27823305 -0.135806
000370 40 95 a5 3e 0a 2a 07 3f 48 a8 ad be 01 d1 85 bf
       0.3234043 0.5279852 -0.3391745 -1.0454408
000380 af c3 a1 3c 72 d0 1a bf 71 fd c1 be 66 1b 5e bd
       0.01974663 -0.6047431 -0.37888673 -0.054225348
000390 6a 06 4d 3e 2b d1 ba 3e c0 b0 c8 be dd 3d 64 be
       0.20021978 0.36487707 -0.3919735 -0.22289224
0003a0 01 cb 24 bf e2 91 86 3d e2 b8 df be 5c c6 3e 3e
       -0.6437226 0.06570794 -0.43695742 0.18630356
0003b0 b1 44 4c 3e d8 5c 48 bd 45 cb 70 be 8a a4 5d 3f
       0.19948079 -0.048916668 -0.23515041 0.8657919
0003c0 d5 96 4c bf a6 8c 5a 3f e0 0f 91 3d fa be ef be
       -0.7991765 0.8537086 0.07083106 -0.4682539
0003d0 72 74 6f bf 92 9f a1 be 3e 49 21 3d f5 21 7d bd
       -0.93537056 -0.31567055 0.03937649 -0.061799962
0003e0 a8 5e d9 3e 6c 05 23 3f 46 60 c2 be 43 b0 7c be
       0.4245503 0.6368015 -0.37964076 -0.24676614
0003f0 c2 79 2a 3f 16 ab e3 be d0 4c a5 3e c6 f2 e0 be
       0.6659204 -0.44466466 0.32285166 -0.4393522
