cache/audio-audio/rX-b1Ksetcc_Miss Otis Regrets.npy (npy, 3200 bytes, 1 tensors)

array f4 [1, 768]
000000 2e f0 1b bf fc e4 df be 1c 53 0b 3f 6b ee be bd
       -0.6091336 -0.4372939 0.5442369 -0.09322818
000010 67 a5 af 3e 0d a8 37 3e 38 3f ad 3e de 75 8a bf
       0.3430588 0.179352 0.33837295 -1.081722
000020 69 3b 19 be 05 20 32 3f 9d b3 2c bf 69 75 50 3e
       -0.1496407 0.6958011 -0.6746157 0.20357288
000030 34 db 5c be 83 48 16 3f 7d 18 d5 3e 93 8a 18 3f
       -0.21567994 0.58704394 0.41620246 0.5958645
000040 75 1b 5e 3f 75 e1 68 3e a3 13 6d bf 45 44 2d 3e
       0.86760646 0.22742255 -0.9260809 0.16920574
000050 d8 dc 87 bc 3c d5 93 be 78 c2 8c 3f 87 b9 76 3f
       -0.016584799 -0.28873622 1.0996847 0.9637684
000060 c5 d1 1c bd 9b df 68 bf a3 ba d7 be 10 97 16 bc
       -0.03828599 -0.90966195 -0.4213458 -0.00919129
000070 cb ae 50 3e 3c 47 13 bf 3b 90 ab 3e 7c dd de be
       0.20379178 -0.5753057 0.33508477 -0.43528354
000080 db 8a 43 3f e4 0f 6a 3d 97 73 8e 3e f7 0e 3f 3f
       0.7638375 0.05714406 0.27822563 0.7463221
000090 66 fe 22 be 01 9f 25 3f af 47 31 3f d3 1d 11 3f
       -0.15917358 0.64695746 0.69250005 0.56686133
0000a0 a5 54 c3 3d 4b c3 cd 3e 67 96 6e 3e 3d 8f 41 bd
       0.09537629 0.4018806 0.23299561 -0.047255743
0000b0 80 c2 39 3f 7d 68 57 3f 2e 00 0a bf 88 78 69 be
       0.7256241 0.8414381 -0.53906524 -0.22799885
0000c0 bc 9a 3d bf e1 e7 ab bd be 9d 0a be b5 68 11 3f
       -0.7406423 -0.08393837 -0.13536736 0.56800395
0000d0 bf c7 51 3f d1 e6 1d 3f 71 a0 df 3e 34 3f 16 be
       0.81945413 0.6168032 0.43677095 -0.14672548
0000e0 c8 25 83 3d f0 38 27 bf 34 7a 38 3e c7 9f 14 be
       0.064036906 -0.65321255 0.18015367 -0.14514075
0000f0 03 81 c9 be 3d 5f 70 3f 4b 01 92 bd b0 72 da bf
       -0.3935624 0.9389532 -0.07129153 -1.706625
000100 89 0a a1 be 0b 20 7a bf 1b 0f e2 be 20 89 17 bf
       -0.3145335 -0.97705144 -0.4415215 -0.5919361
000110 cd cd c4 3e bb 4b bc be 57 c3 ad 3e d9 1a 8c 3f
       0.38438264 -0.36776528 0.33938095 1.0945693
000120 99 45 30 3f fb f5 4d 3f d0 04 55 be c9 32 db 3d
       0.688562 0.8045346 -0.20802617 0.10703046
000130 7c 4c 23 3f ed d5 3f 3f 90 ee 1e bf 31 c5 c9 be
       0.6378858 0.749358 -0.6208277 -0.39408258
000140 cf b1 d4 be e5 8c c5 bd b6 58 24 3d dc 06 96 bf
       -0.41541907 -0.09646014 0.040123664 -1.1720843
000150 31 fe 40 3e 35 be d4 be f8 50 16 3f 3d d6 60 3f
       0.18846966 -0.41551366 0.587173 0.878269
000160 80 1d 69 be ad 24 77 3f d4 f7 6e 3f 13 7e 36 3e
       -0.2276516 0.9654034 0.93346906 0.17821531
000170 0b 04 0b 3f e0 e4 30 bf e1 c7 c2 3d ee 80 a1 3d
       0.54303044 -0.69099236 0.0951078 0.078859195
000180 54 e4 27 be b6 e4 8a 3e 13 b8 23 3f 4a 88 85 be
       -0.16395694 0.27127618 0.6395275 -0.26080543
000190 1d dc 0c bf a0 8d 67 3f a5 0d ea be 65 41 7c 3d
       -0.55023366 0.9045048 -0.45713535 0.061585803
0001a0 e3 08 a2 3e 4d b2 2e 3f 34 b4 24 3e 7b 46 47 bf
       0.31647405 0.68240815 0.16084367 -0.7784192
0001b0 ff ca f8 3d 83 cd b8 be fb 59 c7 bd 7b 10 56 3f
       0.121480934 -0.36094293 -0.09733959 0.836189
0001c0 5f cc 17 bf d3 67 37 bf 38 32 64 be a0 dc 86 bf
       -0.5929622 -0.716428 -0.22284782 -1.053608
0001d0 06 ca 01 3f 78 db 36 be 1e 55 8b be 0a 9d 26 be
       0.5069889 -0.17857158 -0.27213377 -0.16270843
0001e0 51 75 86 be 37 57 28 be af bd 19 3e 8a 37 97 bd
       -0.2626138 -0.1643952 0.15013765 -0.0738364
0001f0 5c 5f 73 be fd c4 4d 3f 7b 2d 73 3e fb 62 80 3e
       -0.23766845 0.80378705 0.23747818 0.25075516
000200 e3 fd 0d 3f ad e5 14 bf 0f a4 0e bf fa 36 0e 3e
       0.55465525 -0.5816296 -0.55719084 0.1388816
000210 bd 0b 47 3d 1c c1 4a 3e e7 a3 07 bd e0 c7 90 3e
       0.04859518 0.19800228 -0.033115294 0.28277493
000220 c7 0b 5d be d5 19 8e 3e 1d 05 a5 3e e8 38 15 bf
       -0.21586524 0.27754083 0.32230464 -0.5828996
000230 68 43 60 bf f5 58 42 3f 7b 78 e9 3e 11 85 2a be
       -0.87602854 0.7591699 0.45599732 -0.16652323
000240 90 59 19 bf ff d7 9b be c9 67 41 3f 7f e5 93 3d
       -0.59902287 -0.3043823 0.7554899 0.07221507
000250 8d ff 21 bf 1d f4 08 3f 84 7f 86 bf c5 86 4f be
       -0.63280565 0.5349749 -1.0507665 -0.20266254
000260 ed ab df bc 25 1f eb be ad f4 22 bf f7 ae 09 bf
       -0.02730366 -0.459222 -0.63654596 -0.537826
000270 4d ed a8 be 55 f2 05 bf 09 0d f9 be bd 57 e0 3e
       -0.32993546 -0.52322894 -0.48642758 0.4381694
000280 9d 8f 2f bd f0 c6 ef 3d 97 cf 26 3f 22 b6 09 3f
       -0.04286157 0.11707866 0.65160507 0.5379354
000290 35 2b d9 3e a6 aa 0e 3f 1a ca 07 3d 2d 0b 7d bd
       0.42415777 0.5572914 0.033151723 -0.061778236
0002a0 b8 df 03 be 9c 4b 3f bf 55 ea 47 bf e4 50 a5 3c
       -0.1287831 -0.74724746 -0.7809194 0.020180173
0002b0 eb c3 a3 bc 30 5c c5 3e 30 70 b5 bd 12 65 a9 3f
       -0.019990882 0.38546896 -0.08859289 1.3233969
0002c0 58 ed 96 be d5 74 12 3e c5 19 14 3e 2f 74 0b bf
       -0.29477954 0.1430238 0.14462955 -0.5447416
0002d0 45 72 a3 bd c3 61 20 3f ab 99 27 bf e5 58 b6 be
       -0.079807796 0.6264917 -0.65468854 -0.35614696
0002e0 d8 3c c4 be 40 91 b6 bf e0 6f ac 3d b6 0b 87 bd
       -0.3832767 -1.4263077 0.08419776 -0.065940306
0002f0 28 fb f5 3e de c6 a7 bd 04 1d 8a 3e 71 f0 18 3e
       0.4804318 -0.08192228 0.26975262 0.14935471
000300 35 e6 10 3e 04 00 d4 3d f4 4c 19 bf f0 5b 81 3c
       0.14150317 0.103515655 -0.59883046 0.01579091
000310 13 9c be bd db fd 2e bf bf e0 9c 3f 58 1f eb be
       -0.093071125 -0.683561 1.2256087 -0.4592235
000320 2b 8c 3f bf 0b b0 c6 be 20 af 81 3f f8 e2 79 3e
       -0.74823254 -0.38806185 1.0131569 0.24402988
000330 a1 88 62 3d 78 c0 8f bd a0 6c 1e 3f d5 f4 6b be
       0.05530608 -0.070191324 0.618845 -0.23042615
000340 53 fc 92 bd d4 f6 e1 3e 55 90 05 3f 5f 6e a0 be
       -0.07177033 0.44133627 0.5217336 -0.31334206
000350 c4 0b 9f 3f 31 c1 a0 3f 38 f5 64 bf bc 4d 00 3f
       1.2425466 1.2558957 -0.89436674 0.50118613
000360 88 b7 99 bd 57 fb 05 3f 23 cb 6d 3e a4 44 9e be
       -0.07505709 0.5233664 0.23222022 -0.30911744
000370 dd 84 bc be 00 a4 05 be 9e 54 88 bf 12 da 17 bf
       -0.36820117 -0.13050842 -1.0650823 -0.59317124
000380 e7 ce f7 3c 47 d4 25 bf 45 f2 ea bd f1 29 2f 3f
       0.030250026 -0.64777035 -0.114719905 0.6842337
000390 40 e6 c3 3e 73 f3 73 3f d2 62 16 bf bb 2e e8 3e
       0.38261604 0.9529335 -0.5874454 0.45348153
0003a0 0b ce 64 bf 34 35 d9 be 35 f2 6a bf 85 b6 b8 bd
       -0.89376897 -0.42423403 -0.9177583 -0.09019188
0003b0 e7 df 03 3f 87 13 b0 3e 50 9b f7 bd c8 62 38 3f
       0.5151352 0.34389898 -0.120901704 0.7202573
0003c0 c6 9f 8c be 22 3b 16 3f c4 43 bc bd 6e 37 08 be
       -0.27465647 0.5868398 -0.09192613 -0.13302395
0003d0 6d 3d 4b bf e5 d0 48 bf d1 b9 a4 3e 4c 10 8e 3e
       -0.79390603 -0.7844375 0.32173017 0.2774681
0003e0 d4 3b fe be fc 60 10 3f 30 d0 32 bb fd 6e a0 3e
       -0.4965502 0.56397986 -0.0027284734 0.31334677
0003f0 90 1d 0a 3f 65 a1 d1 be 45 f1 dd be ed 57 ff be
       0.5395136 -0.40943447 -0.43348137 -0.4987177
