cache/audio-audio/w3TMe98FJDw_Bags' Groove.npy (npy, 3200 bytes, 1 tensors)

array f4 [1, 768]
00000000: 42c3 4fbf fe2e e7be 4b74 0c3f 2d52 d3bd
00000010: 2d85 ab3e d109 3d3e 77ce c13e 486b 45bf
00000020: 3c09 94be 0010 183f 269c 5ebf 075f f0bc
00000030: 84ff 15bf e9cf af3e 696c 9b3e ee86 163f
00000040: 4eca 4a3f 7f91 833e 897c 00bf 7042 8a3a
00000050: a288 9d3d a941 e3be 02a5 433f 1873 633f
00000060: 3e47 83be bbb9 3dbf 9d72 ddbe abc0 e53d
00000070: 149f f33d 17c2 21bf 1797 883e 2ad3 89be
00000080: 6448 563f 82d5 0f3e 4f87 963e dcf7 573f
00000090: 174b 703d 64f2 ee3e 245a 0b3f 5c03 e93e
000000a0: ed6a d93d 289a 573e 951d c43e 6f73 3a3e
000000b0: 1edf 343f 1686 533f 0bb3 a1be 2cdd 14ba
000000c0: a1b2 5abf 1248 c3be b833 4dbe b06c 083f
000000d0: 13b2 443f ba39 dd3e 878d 6c3e 22a3 8fbe
000000e0: 16b4 83bd ebf9 c1be dc3d e53d 9342 b5bc
000000f0: eeee f1be eb11 5b3f 70d9 7abd 7eee b4bf
00000100: 74a8 6abe b70d 53bf bffb 44be 25cc c3be
00000110: 8082 9f3e 47cf 6fbe 6c4a 863e 2b5f 973f
00000120: 3232 3e3f f6cc 043f 4ed4 01be a4b8 903e
00000130: f664 133f 3fb0 343f 3ef0 3cbf acb8 99be
00000140: e0f3 b2be b01a 43be 08bc 023d 6aef 32bf
00000150: 6be3 5b3e 99af 2fbf c680 003f 1b76 733f
00000160: 1a20 3ebe 741a 243f 4506 7a3f b0e3 233e
00000170: 84d0 da3e 0c9b 65bf 5294 243e 0419 3d3e
00000180: ecdd 75be 86d0 b53e d3cc 193f 6dc9 c1be
00000190: 3b4e 49bf 0ac8 493f 9bed eabe 653a ee3d
000001a0: b7b6 c83e 663b 333f f627 273e 0b83 1ebf
000001b0: 0bec e63d 658c 08bf fef7 aebd 4676 313f
000001c0: 530b 25bf 0536 17bf e26f 8ebe 9777 5ebf
000001d0: 529f cc3e e715 473d a613 58be 108d b7bc
000001e0: 378d 56bd 1cc1 93be c4eb 543b 615a 3abe
000001f0: 3012 77be 6bd0 203f dbaf 7b3e 5f96 3d3e
00000200: d30b 353f c134 13bf cdc6 31bf 53fc 8bbc
00000210: d8ac 97bb ebb9 643e 0e3c 24be 3592 ee3e
00000220: 6e38 19bd efe2 823e f13e 093f 9386 2bbf
00000230: 9f59 41bf b487 243f f95c 723e 9fd2 b33c
00000240: 36c4 cabe c965 34be ce08 6a3f 6c55 d33e
00000250: 7b96 18bf 0cb9 cb3e 85df 43bf a8bd 18be
00000260: 6838 38bd f73f eabe db67 f7be d21a aabe
00000270: c1f5 a4be 4224 0cbf bba4 a3be 8358 113f
00000280: 147f 45be 01b5 0c3e 6b70 1f3f 7496 f03e
00000290: 4a00 cc3e 5c20 f63e 21c0 e13d c6b6 53bd
000002a0: d96d f0bd 0069 58bf b594 aabe 2518 b33d
000002b0: 926e 343d ec7b 853e 80df 17bd 86be ab3f
000002c0: 1625 9dbe b529 843e 6f24 2b3e f76c d7be
000002d0: 2ab1 81be c53e 193f cd1d 4cbf 5fbb bfbe
000002e0: f214 4abe 5490 b7bf beef 3e3e b1b7 18be
000002f0: fcac 173f 40dc f9bd 32a3 553e 6106 a73e
00000300: df61 503e 80cf 39bd c075 58bf 8d1a 103e
00000310: 6aa4 95bd 894f 2cbf f3f0 a23f 57a4 0dbf
00000320: 42f2 4abf 80aa 65be 1a50 9c3f 0256 993e
00000330: de7d eebc ee16 a4bc 5e4d 0a3f 4664 e3be
00000340: 8e7c 143e 56d3 ad3e 1e90 e73e 24fc 08be
00000350: 3a57 a23f 08f9 963f 1b99 17bf 9594 e53e
00000360: ccf6 64be 9696 1d3f ec8a da3d 5315 a2be
00000370: c87e c5be 5457 b13b 6503 82bf fb1c debe
00000380: ac3a 783e 61fa 30bf 5382 bfbc 76f5 303f
00000390: ecbf 8a3e f743 643f 5c01 fbbe 294d 043f
000003a0: 53ac 0cbf 402c dfbe b183 2dbf 7e8b 50bd
000003b0: 247e 203f 2431 453e 6deb cfbe c80b 1f3f
000003c0: d70a 8dbe 7748 0d3f 1c7a 04be ba06 d4bd
000003d0: 4203 48bf a855 2ebf 6f12 963e ec85 ac3e
000003e0: c2ea fbbe e9da 9c3e 2703 1fbe 108a 3c3e
000003f0: bf8b c23e 21db 58be cb44 bbbe 9d15 a7be
-0.81157315 -0.4515304 0.5486495 -0.10318408 0.33500043 0.18460776 0.37852833 -0.77116823
-0.28913295 0.59399414 -0.86957014 -0.029342188 -0.5859301 0.3433831 0.30356148 0.58799636
0.7921494 0.25696942 -0.50190026 0.0010548364 0.07692076 -0.44386032 0.76423657 0.88847494
-0.2564029 -0.7411153 -0.43251505 0.11218389 0.11895576 -0.6318678 0.26677772 -0.26918918
0.8370421 0.1404629 0.29400107 0.8436258 0.05866536 0.46669304 0.5443442 0.45510375
0.106160976 0.210549 0.3830382 0.18208097 0.7065295 0.82626474 -0.3158191 -0.0005678709
-0.85428816 -0.38140923 -0.2003926 0.53290844 0.7683422 0.43208104 0.23100863 -0.28054148
-0.06430833 -0.37885985 0.11193439 -0.022126472 -0.472526 0.85574216 -0.06124252 -1.4135282
-0.22915822 -0.824428 -0.19236659 -0.38241687 0.3115425 -0.23418914 0.26228654 1.1825918
0.7429534 0.51875246 -0.12678644 0.2826587 0.5757593 0.7058143 -0.7380408 -0.30023706
-0.34951687 -0.19053149 0.0319176 -0.69896567 0.21473472 -0.68627316 0.5019649 0.9510209
-0.18566933 0.64102864 0.97665817 0.16004825 0.4273721 -0.8968971 0.16072205 0.18466574
-0.24010438 0.35510653 0.6007816 -0.37848988 -0.78634995 0.7882086 -0.45884404 0.116322316
0.392019 0.7001251 0.16323838 -0.61918706 0.112754904 -0.53339225 -0.085433945 0.69321096
-0.64470404 -0.590668 -0.27819735 -0.8690123 0.39965302 0.048604872 -0.21101245 -0.022406131
-0.052380767 -0.28858268 0.003248916 -0.1819854 -0.24128032 0.6281802 0.24578802 0.18514393
0.7072117 -0.5750237 -0.6944397 -0.017088091 -0.004628759 0.22336547 -0.16038534 0.46595922
-0.03740733 0.25563762 0.53611666 -0.6700222 -0.75527376 0.64269567 0.23668279 0.021951018
-0.39602822 -0.17616953 0.91419685 0.4127611 -0.59604615 0.39789617 -0.7651294 -0.14916098
-0.04497567 -0.45751926 -0.48321423 -0.33223587 -0.32218745 -0.54742825 -0.31961617 0.56775683
-0.19286758 0.13740923 0.6228091 0.46989787 0.3984397 0.48071563 0.11022974 -0.05168798
-0.11739702 -0.8453522 -0.3331658 0.087448396 0.04405076 0.26071107 -0.03707838 1.3417518
-0.30692357 0.2581307 0.16713117 -0.4207532 -0.25330478 0.59861404 -0.7973297 -0.3744764
-0.19734553 -1.434092 0.18646142 -0.14913823 0.5924833 -0.122002125 0.20863035 0.32622054
0.20349835 -0.045363903 -0.8455467 0.14072628 -0.0730675 -0.6730886 1.2729782 -0.5532889
-0.79275906 -0.22428322 1.2211945 0.2994843 -0.029112753 -0.020030465 0.540243 -0.4441244
0.14500639 0.339503 0.4522714 -0.13377434 1.268287 1.1794748 -0.59217995 0.44839922
-0.2235977 0.615579 0.106710285 -0.31656894 -0.3857329 0.0054120217 -1.0157286 -0.43381485
0.24241132 -0.6913205 -0.023377573 0.69124544 0.2709955 0.89166206 -0.49024475 0.5168024
-0.54950446 -0.43588448 -0.6777907 -0.05091428 0.62692475 0.19257027 -0.40609303 0.6212735
-0.27547333 0.551887 -0.12937206 -0.103528455 -0.7812997 -0.6809945 0.2931094 0.33695924
-0.49202543 0.30635765 -0.15528546 0.18412042 0.37997243 -0.21177341 -0.36575922 -0.32633677
