cache/audio-audio/W4ga_M5Zdn4_Turn! Turn! Turn!.npy (npy, 3200 bytes, 1 tensors)

array f4 [1, 768]
-0.85498255 -0.61272925 0.23162492 -0.08835081 0.20522442 0.072788455 0.111781254 -0.66673267
-0.371363 0.6121735 -0.7025584 -0.3309466 -0.24330528 0.36682686 0.41315156 0.47517148
0.8891616 -0.004782919 -0.6920492 -0.03561598 -0.06564213 -0.29523844 0.68246233 0.8752771
-0.05547901 -0.9713812 -0.5311459 -0.17293708 0.19291231 -0.456868 0.28611523 -0.6202058
1.0835615 0.3126653 0.33901098 0.9349565 0.12361876 0.38682875 0.80907154 0.62038225
0.26639327 0.34436497 0.32778594 -0.16772798 0.5023979 0.8615266 -0.40858307 0.112430155
-0.7851211 -0.124672405 -0.17825434 0.89462745 0.35303587 0.4160786 0.6517366 -0.028991234
-0.27887577 -0.49031454 0.026987562 -0.3615505 -0.08329409 1.1392658 -0.36277547 -1.4644083
-0.041068427 -0.85702425 -0.41441542 -0.87041664 0.36462116 -0.5354798 0.059277616 0.91805935
0.7568317 0.60478055 -0.09341848 0.3200374 0.60285664 0.7116338 -0.4485438 -0.10339519
-0.38154984 -0.23480971 0.20902419 -0.8322049 0.14933975 -0.54203635 0.52000725 0.82405823
-0.17975156 0.97365695 0.6595775 -0.08101622 0.17296197 -0.81175584 0.21357422 0.011811078
-0.49425873 0.3158269 0.82205236 -0.32238528 -0.48523122 0.99296254 -0.27621824 0.11234144
0.38225773 0.51896614 0.16296089 -0.3338087 0.5285886 -0.20260341 -0.014248682 0.44114688
-0.27412295 -0.8495102 -0.2782945 -1.1326628 0.64797944 0.035264548 -0.52560437 -0.2440258
-0.27840915 -0.10845399 0.124205425 -0.045317084 -0.5696424 0.52386725 0.36530253 -0.040743392
0.9743926 -0.35354838 -0.34894925 0.124633186 0.14351098 0.38390374 -0.032772925 0.28746462
-0.120962866 0.10797627 0.34508023 -0.56402636 -1.2104025 0.6698583 0.46360868 -0.09186144
-0.5625916 0.008155508 0.99394506 -0.004073374 -0.5858265 0.2888867 -0.83288586 -0.019498238
-0.20428117 -0.1860095 -0.34953228 -0.045888554 -0.23468713 -0.4627202 -0.31366342 0.420723
-0.054670293 0.22590207 0.44667834 0.20370376 0.5487411 0.22057088 0.46502894 0.08527441
0.05476995 -0.82867604 -0.534358 -0.029355416 -0.12418402 0.6371633 -0.06101895 1.2810885
-0.235112 0.35318074 0.054669518 -0.5852375 -0.1844732 0.70848674 -0.76228 -0.055397302
-0.5168652 -1.6400975 -0.13760124 -0.15841994 0.63187987 -0.32300583 0.3725306 0.15150249
0.2645838 -0.17003758 -0.752976 -0.13563006 0.14604266 -0.9854621 1.4173927 -0.7747446
-0.6983355 -0.37144867 1.2084686 0.29410425 -0.16055599 0.021145958 0.5135444 -0.6068153
-0.061132517 0.60610753 0.12873714 -0.5024877 1.0318959 0.98418605 -0.85295 0.2692542
0.20406614 0.36378828 0.10966452 -0.17766795 -0.19540474 -0.2059698 -0.82768553 -0.3240587
0.13798079 -0.45410967 0.110102616 0.5947779 0.43367797 1.0868535 -0.4721664 0.798757
-0.513499 -0.63814574 -0.6557948 -0.11063074 0.22295299 0.2402575 -0.18967582 0.43908986
-0.3427081 0.40204617 -0.20120536 0.07938596 -0.92593235 -0.620936 0.26311868 -0.031595666
-0.3590081 0.4742458 0.17625998 0.04407031 0.6522115 -0.35935062 -0.028556328 -0.3434451
00000000: 23e0 5abf d3db 1cbf 152f 6d3e 45f1 b4bd
00000010: 5a26 523e 1d12 953d 92ed e43d feae 2abf
00000020: 4b23 bebe 67b7 1c3f deda 33bf d571 a9be
00000030: 0525 79be bbd0 bb3e 9a88 d33e ad49 f33e
00000040: 18a0 633f 08ba 9cbb 232a 31bf 10e2 11bd
00000050: 626f 86bd 7e29 97be dab5 2e3f 2912 603f
00000060: f53d 63bd 70ac 78bf 2df9 07bf 6b16 31be
00000070: ce8a 453e 9aea e9be b27d 923e cfc5 1ebf
00000080: 25b2 8a3f ab15 a03e d992 ad3e 4f59 6f3f
00000090: d52b fd3d 6b0e c63e 501f 4f3f 5fd1 1e3f
000000a0: b364 883e 9b50 b03e 8fd3 a73e e2c0 2bbe
000000b0: 269d 003f 028d 5c3f cd31 d1be c841 e63d
000000c0: b2fd 48bf 3f54 ffbd 4e88 36be 4e06 653f
000000d0: 1ec1 b43e 4108 d53e 36d8 263f 067f edbc
000000e0: cec8 8ebe 820a fbbe 0515 dd3c 261d b9be
000000f0: 1896 aabd 76d3 913f b5bd b9be bb71 bbbf
00000100: 5e37 28bd f165 5bbf 422e d4be a0d3 5ebf
00000110: a0af ba3e 3415 09bf 16cd 723d f005 6b3f
00000120: b9bf 413f e6d2 1a3f 3052 bfbd f1db a33e
00000130: d054 1a3f a22d 363f 88a7 e5be dbc0 d3bd
00000140: 805a c3be f571 70be 700a 563e 610b 55bf
00000150: 85ec 183e e5c2 0abf 321f 053f 7bf5 523f
00000160: cb10 38be 9541 793f 12da 283f d5eb a5bd
00000170: f11c 313e 3bcf 4fbf 33b3 5a3e 4083 413c
00000180: 7b0f fdbe 10b4 a13e 0672 523f af0f a5be
00000190: 3a70 f8be cb32 7e3f 7a6c 8dbe 4513 e63d
000001a0: 49b7 c33e f7da 043f 38df 263e f9e8 aabe
000001b0: 9551 073f 4577 4fbe 4e73 69bc 01de e13e
000001c0: d859 8cbe 8079 59bf 9e7c 8ebe 18fb 90bf
000001d0: fbe1 253f 8f71 103d 028e 06bf e6e1 79be
000001e0: a58b 8ebe 201d debd 6a5f fe3d 689e 39bd
000001f0: 16d4 11bf 2a1c 063f ef08 bb3e 8be2 26bd
00000200: cb71 793f 4b04 b5be 7aa9 b2be af3f ff3d
00000210: 8bf4 123e 088f c43e e73c 06bd 902e 933e
00000220: 61bb f7bd aa22 dd3d 5bae b03e 0864 10bf
00000230: 78ee 9abf d57b 2b3f 1e5e ed3e da21 bcbd
00000240: 0106 10bf ae9e 053c 2f73 7e3f f079 85bb
00000250: baf8 15bf f5e8 933e 0238 55bf c5ba 9fbc
00000260: 152f 51be 4679 3ebe e5f5 b2be a3f5 3bbd
00000270: d351 70be a9e9 ecbe 7e98 a0be 0169 d73e
00000280: f5ed 5fbd df52 673e 06b3 e43e b897 503e
00000290: 4c7a 0c3f 55dd 613e 4618 ee3e 5aa4 ae3d
000002a0: 7556 603d 1d24 54bf b0cb 08bf c57a f0bc
000002b0: 3154 febd 221d 233f 02ef 79bd b5fa a33f
000002c0: 33c1 70be 1bd4 b43e 25ed 5f3d 20d2 15bf
000002d0: 8be6 3cbe 635f 353f c824 43bf 48e8 62bd
000002e0: 4751 04bf b7ee d1bf 57e7 0cbe d638 22be
000002f0: e1c2 213f 0561 a5be 55bc be3e 7823 1b3e
00000300: 8777 873e 551e 2ebe 09c3 40bf 9be2 0abe
00000310: 358c 153e 3f47 7cbf 206d b53f a955 46bf
00000320: 1ec6 32bf 852e bebe 19af 9a3f d594 963e
00000330: ca68 24be 4a3a ad3c a577 033f 3f58 1bbf
00000340: 1766 7abd dd29 1b3f abd3 033e 09a3 00bf
00000350: 2a15 843f 9ef3 7b3f ee5a 5abf b0db 893e
00000360: b7f6 503e 7542 ba3e cb97 e03d 96ee 35be
00000370: 2e18 48be bfe9 52be 33e3 53bf 06eb a5be
00000380: d64a 0d3e 1081 e8be 7b7d e13d 5d43 183f
00000390: 0a0b de3e 041e 8b3f cbbf f1be 577b 4c3f
000003a0: ac74 03bf 855d 23bf 2be2 27bf 5f92 e2bd
000003b0: ca4d 643e 1006 763e 613a 42be 63d0 e03e
000003c0: 7077 afbe ffd8 cd3e c708 4ebe 1b95 a23d
000003d0: e709 6dbf a9f5 1ebf 7eb7 863e 756a 01bd
000003e0: e9cf b7be 58d0 f23e 7f7d 343e 1283 343d
000003f0: 55f7 263f cefc b7be f6ee e9bc 09d8 afbe
