cache/audio-audio/W4jaNWQUeRU_Get Out And Get Under The Moon.npy (npy, 3200 bytes, 1 tensors)

array f4 [1, 768]
000000 74 57 76 bf 65 3a 0e bf d7 c9 f5 3e db 42 9a bd
       -0.9622719 -0.55557853 0.48005554 -0.07532283
000010 3b 07 14 3e 73 c0 b4 bd 65 6f 2c 3e 0f e7 46 bf
       0.14455883 -0.08825769 0.16839369 -0.7769632
000020 d8 e9 ad be fb 98 20 3f bd 10 29 bf 7b a6 23 be
       -0.3396747 0.6273343 -0.66041166 -0.15981476
000030 1d 56 b1 be df 22 92 3e e5 db ac 3e 78 35 28 3f
       -0.34636012 0.2854223 0.33761516 0.65706587
000040 3f 2d 72 3f bf 2e c9 3c 27 32 1a bf 90 07 de bd
       0.9460029 0.024558423 -0.60232776 -0.10841286
000050 af da 2d be 5a e1 9c be c1 f4 6f 3f a9 1e 59 3f
       -0.16977952 -0.3064068 0.9373284 0.8481241
000060 f1 a7 ce bd 63 06 5f bf 5f 07 f3 be c2 30 b1 be
       -0.10090626 -0.8711912 -0.4746656 -0.34607512
000070 ef 5b d8 3c bc 9c db be 49 3b 9d 3e ff 1d 41 bf
       0.026411025 -0.42893016 0.30709293 -0.75436395
000080 f8 02 90 3f b4 52 cc 3e 0d c9 17 3e 61 5d 5f 3f
       1.1250906 0.39906847 0.14822789 0.8725186
000090 64 ab bd bd e9 4e 28 3f 40 e2 46 3f 71 62 2f 3f
       -0.09261206 0.6574541 0.7768898 0.68509585
0000a0 cf ee 6b 3e 6c 0c 26 3f ad a9 a1 3e 09 c2 f7 bd
       0.23040317 0.64862704 0.31574765 -0.12097556
0000b0 97 3f 14 3f 3f bd 4e 3f 81 fd f7 be ef fb 89 3c
       0.5790953 0.80757517 -0.48435596 0.016843764
0000c0 22 e7 1e bf 67 5b 5e 3c 2e 60 1f be 20 de 43 3f
       -0.6207143 0.013571597 -0.15564033 0.7651081
0000d0 7c 49 d3 3e c4 a2 f2 3e 9c 21 d0 3e 74 18 db bd
       0.41267002 0.47389805 0.40650642 -0.106980234
0000e0 fc 25 12 bd e6 4d f0 be b3 5a 91 3e 37 e0 66 be
       -0.035680756 -0.46934432 0.2838951 -0.22546469
0000f0 8c ff eb bd ee e1 80 3f 06 5e d0 be 80 d5 c3 bf
       -0.11523351 1.0068948 -0.40696734 -1.529953
000100 11 cc 71 be 21 20 4a bf 57 af f7 be ae 14 32 bf
       -0.23613001 -0.78955275 -0.4837596 -0.69562805
000110 24 88 ba 3e 50 cd 08 bf 14 25 fb bd 2f 5d 60 3f
       0.36431992 -0.5343828 -0.122629315 0.87642187
000120 c9 38 2a 3f 99 20 52 3f f4 21 44 be 54 d5 af 3e
       0.664929 0.8208099 -0.19153577 0.34342444
000130 f8 8e 13 3f 8b 05 19 3f c3 f8 0a bf 80 28 91 be
       0.5764003 0.5977408 -0.5428583 -0.28351212
000140 3f 29 c9 be a6 80 5e be d1 ab 95 3e e0 04 58 bf
       -0.3928928 -0.21728763 0.29232648 -0.8438244
000150 83 8c 52 3e 9e 48 19 bf ba bc 08 3f e3 42 72 3f
       0.20561413 -0.5987643 0.53412974 0.9463331
000160 4e d5 10 be 94 1a 69 3f 9f 27 6b 3f d6 3f 76 3e
       -0.1414387 0.9105618 0.9185733 0.24047789
000170 90 5f 1f 3e 3d d5 64 bf 6c 20 09 3e c0 cb b4 bb
       0.15563798 -0.89387876 0.13391274 -0.005517453
000180 41 55 dc be 13 6d 9d 3e 67 a8 6d 3f 5a 3c 53 be
       -0.43033794 0.3074728 0.92835087 -0.20628491
000190 90 c9 4c bf 53 bc 5f 3f ce 29 25 be d1 22 7b 3d
       -0.7999506 0.87396735 -0.16129228 0.0613125
0001a0 cb 4c aa 3e bc 3b d6 3e a4 1f b4 3d b6 fd fc be
       0.33261713 0.4184245 0.087950975 -0.49412316
0001b0 23 98 af 3e 28 7c ad be 57 c3 75 bb c8 4a 03 3f
       0.3429576 -0.33883786 -0.0037500465 0.5128598
0001c0 81 d8 b3 be c4 72 4a bf 04 03 58 be ed 86 80 bf
       -0.35126117 -0.7908137 -0.210949 -1.0041176
0001d0 da 63 06 3f a8 66 a4 bd 10 2f f3 be 88 ab 0c bd
       0.5249611 -0.080273926 -0.47496843 -0.034343272
0001e0 df f7 11 bd fc 59 c9 bd 33 23 46 3e d2 a8 80 be
       -0.03563678 -0.09831616 0.19349365 -0.251288
0001f0 ec 51 d6 be b6 d9 f6 3e 5f c9 20 3e 6c c7 e2 3d
       -0.41859376 0.48212975 0.15701817 0.11073193
000200 14 fb 6e 3f 00 3f ce be d7 70 f2 be ae 01 05 3d
       0.93351865 -0.4028244 -0.47351715 0.032472305
000210 da 39 db 3d 0c 4d c5 3e af e5 a7 bd a1 e6 5c 3e
       0.10704394 0.38535345 -0.081981055 0.21572353
000220 58 b7 ac be 34 c6 d7 3d 23 d2 c2 3e c9 44 15 bf
       -0.3373363 0.10535851 0.38050947 -0.5830808
000230 1c 7a 6d bf 94 a2 29 3f 8b 1a 9e 3e f9 14 83 bc
       -0.9276445 0.662637 0.30879626 -0.016001211
000240 b4 05 02 bf 32 36 b3 bd 1b 7a 8a 3f af cf 7f 3d
       -0.5078995 -0.08750571 1.0818514 0.062453922
000250 ff c1 05 bf 1b cc a5 3e 21 9b 61 bf f4 1f 07 3e
       -0.5224914 0.32382283 -0.8812733 0.13195783
000260 17 ec f8 3b 8d 41 99 be 7c 6b e0 be 6e 46 83 be
       0.0075965035 -0.29932824 -0.43832004 -0.2563967
000270 67 8d 53 be e1 c2 e8 be aa 64 bd be 9f 4c bc 3e
       -0.2065941 -0.4546118 -0.36990863 0.36777207
000280 9c 7e 59 be a4 c3 8b 3d d5 14 37 3f 41 ab b0 3e
       -0.21239704 0.06824425 0.7151616 0.34505656
000290 64 07 a3 3e 4e 74 81 3e 35 e8 82 3e e1 28 bc 3d
       0.31841576 0.25284046 0.25567785 0.091874845
0002a0 f8 39 07 3d 81 d4 4f bf ed 04 24 bf dc ea bf 3d
       0.033014268 -0.8118363 -0.64070016 0.09370968
0002b0 13 ad a0 bd a3 ea 4a 3f b3 fd 32 be a1 e3 ce 3f
       -0.07845511 0.7926428 -0.17479591 1.6163217
0002c0 68 19 8c 3b 40 10 bc 3e 77 52 83 3e 0f fd 1e bf
       0.0042754896 0.36731148 0.25648853 -0.62104887
0002d0 b0 ef 54 be e4 4d 3c 3f 27 a3 49 bf ea 0f 1a be
       -0.20794559 0.7355635 -0.78764576 -0.15045133
0002e0 0d af f9 be 3c 5f c6 bf 80 ed a9 3d ff 16 6e be
       -0.48766366 -1.5497813 0.08297253 -0.2325096
0002f0 0f 88 18 3f 36 a9 db bd 3f 04 fd 3e a4 92 61 bd
       0.5958261 -0.10725634 0.49417302 -0.055071488
000300 4f 76 ab 3e 1f 2a ac bc 62 e0 26 bf 84 c6 b7 bd
       0.334887 -0.021016179 -0.6518613 -0.08973411
000310 6a 95 bf 3e 92 83 8f bf 13 fc ac 3f df c0 36 bf
       0.3741868 -1.1212027 1.3514427 -0.7138805
000320 9b ad 01 bf 9c ba 00 bf b0 a3 8f 3f 33 f7 d1 bc
       -0.50655526 -0.50284743 1.1221828 -0.02563057
000330 17 c8 03 bd 36 43 ac bd c9 d8 2b 3f 4d 74 02 bf
       -0.032173242 -0.08411257 0.6712766 -0.5095871
000340 17 06 44 bd 0f 95 0b 3f c2 1b 2a 3f dd 67 ba be
       -0.04785737 0.5452432 0.66448605 -0.36407366
000350 a1 9c 8e 3f b9 80 95 3f 74 6f 3e bf 29 98 d4 3e
       1.1141549 1.1679908 -0.74388814 0.4152234
000360 e6 94 b0 bc 25 5b 97 3e 77 7a 6b 3e 09 57 7a be
       -0.021555375 0.29561725 0.22995935 -0.24447264
000370 b0 cf 94 be 2a 29 77 be 84 27 6d bf 91 8d 0b bf
       -0.29064703 -0.24136797 -0.9263842 -0.5451289
000380 ab 9c 81 3e 6f d6 c4 be 1f ee ff 3d 1c 15 51 3f
       0.2531484 -0.3844485 0.1249659 0.81672835
000390 c0 ef d7 3e d7 2a 4e 3f c6 17 ed be 86 ef 0a 3f
       0.42175102 0.8053412 -0.463072 0.54271734
0003a0 81 12 17 bf 28 35 a8 be 7a 17 71 bf 8c d3 cf bd
       -0.5901261 -0.32853055 -0.9417645 -0.10147771
0003b0 70 e2 12 3e 4c 6d fe 3d 7f 18 09 be a6 4a 38 3f
       0.14344192 0.124231905 -0.13388251 0.71988904
0003c0 c3 cb c4 be 43 60 14 3f fe 15 a7 3d 2f 84 26 3e
       -0.38436708 0.57959384 0.081584916 0.16261362
0003d0 11 f3 66 bf 83 f3 15 bf c9 5a 97 3e a9 86 7a bc
       -0.9021464 -0.58574694 0.2956145 -0.015290895
0003e0 d8 e9 8d be 41 fc db 3e 29 de c4 3b a1 47 a1 3e
       -0.2771747 0.42965892 0.006007929 0.3149996
0003f0 8f bd 35 3f 6c e7 c8 be a3 58 3c be 75 15 b3 be
       0.7099237 -0.3923906 -0.18393187 -0.34977308
