cache/audio-audio/W7aPp-4z-uw_Y Viva Espana.npy (npy, 3200 bytes, 1 tensors)

array f4 [1, 768]
-0.67728096 -0.5573138 0.55202025 -0.1651492 0.26168692 0.07284657 0.014272187 -0.42999113
-0.45568416 0.83117485 -0.60511225 -0.05667533 -0.16329464 0.31113198 0.4346014 0.6091488
0.7546574 0.08400667 -0.4071 -0.07923281 0.24378319 -0.31594372 0.57519966 0.81839865
-0.19257535 -0.6280681 -0.46971813 -0.35453266 0.02769592 -0.6266561 -0.0954444 -0.7274525
1.1326283 0.57597584 0.14700435 0.80261475 -0.086980015 0.4712899 1.081642 0.83048755
0.22725509 0.55489665 0.34401426 -0.2378601 0.3395993 0.9005089 -0.099406816 -0.119229555
-0.41107666 -0.053517826 -0.053292446 0.7987608 0.5120471 0.12011494 0.8415525 -0.14308983
-0.24025889 -0.37800762 -0.048863847 -0.43392664 -0.070322394 0.6203934 -0.3188583 -1.231525
-0.41851377 -0.7603583 -0.43276742 -0.8325066 0.057578865 -0.52727413 -0.16993424 0.84150606
0.48493865 0.7060035 -0.00680539 0.37390295 0.46332672 0.94791305 -0.4455712 -0.678259
-0.32172605 -0.24988684 0.3498705 -0.6957527 0.19125225 -0.60720307 0.7851013 0.67197573
-0.016359622 0.7713949 0.44468266 -0.09447045 0.18729119 -0.5064417 0.23747267 0.23583184
-0.25887266 0.53902173 0.5733728 -0.41108367 -0.64369553 0.89653283 -0.23856224 -0.018632345
0.1449329 0.7906061 0.03261996 -0.32158414 0.75108635 -0.21905236 0.070719786 0.44579965
-0.41660422 -0.6062615 -0.21427304 -0.92506415 0.6868662 0.043406393 -0.33037618 -0.3480015
-0.29758775 -0.086576134 -0.15432705 0.028500289 -0.4213704 0.7381194 0.578982 -0.07750759
0.7754418 -0.3316897 -0.36781856 -0.11268694 0.085481405 0.08567912 -0.10495298 0.18397737
-0.19720215 0.36254087 0.45068997 -0.5252891 -1.2159878 0.66197073 0.42774862 -0.17753774
-0.572224 -0.116745844 0.7570222 -0.42457467 -0.9086148 0.01213626 -1.070027 -0.1310211
-0.07111584 -0.40568545 -0.37383828 -0.1862867 -0.17494513 -0.3846454 -0.05126253 0.5479317
0.010094985 -0.0066320878 0.7838789 0.35956302 0.67507637 0.3133459 0.2537738 -0.21914575
-0.15024404 -0.7663406 -0.49243888 0.030195504 -0.48868904 0.48552945 0.2691539 1.3693761
-0.20949243 0.2557294 -0.31739077 -0.597493 -0.3131003 0.8215526 -0.756932 -0.37057516
-0.5100564 -1.5657592 -0.064732 -0.016443638 0.46694514 -0.123628035 0.30362624 -0.11734994
-0.03799542 -0.268386 -0.6529189 0.09411612 0.19434729 -0.95089 1.1876148 -0.64340466
-0.44483143 -0.41726267 1.2505867 -0.067357905 -0.122044444 -0.307993 0.2768174 -0.43491304
-0.16022971 0.7018438 0.22276475 -0.58747905 1.3247398 1.1893315 -0.9571793 0.46386182
0.12187227 0.50749266 0.039466124 -0.33950183 -0.033688553 -0.15996715 -0.7401011 -0.79072094
0.24638581 -0.38113695 -0.2979321 0.40187082 0.47064248 0.5632374 -0.3522334 0.41315106
-0.61402255 -0.28517947 -0.6682093 -0.22031838 0.24691127 0.13382469 -0.19183443 0.8288501
-0.5546462 0.5809964 -0.03586248 -0.21923755 -0.8701872 -0.60202575 0.25325963 -0.1521059
-0.15547587 0.44364846 -0.108892515 -0.051995866 0.65894544 -0.44880524 0.09498317 -0.38107455
00000000: 4962 2dbf 1eac 0ebf 3351 0d3f df1c 29be
00000010: d4fb 853e 9530 953d e4d5 693c cc27 dcbe
00000020: 6f4f e9be e0c7 543f a3e8 1abf 6424 68bd
00000030: b636 27be b14c 9f3e 1384 de3e 2df1 1b3f
00000040: 3a31 413f b00b ac3d 696f d0be d044 a2bd
00000050: 4da2 793e 60c3 a1be 4940 133f 9382 513f
00000060: 7932 45be 12c9 20bf e57e f0be 4e85 b5be
00000070: 8ee2 e23c 896c 20bf 5b78 c3bd 543a 3abf
00000080: f7f9 903f 2773 133f 4f88 163e 2978 4d3f
00000090: 9422 b2bd e94c f13e 3f73 8a3f d59a 543f
000000a0: 8fb5 683e b50d 0e3f a322 b03e 9991 73be
000000b0: f6df ad3e c087 663f cd95 cbbd a02e f4bd
000000c0: a478 d2be 8235 5bbd 2e49 5abd 967b 4c3f
000000d0: 8515 033f d2fe f53d fc6f 573f 2486 12be
000000e0: 6d06 76be 378a c1be 7525 48bd a22b debe
000000f0: 3005 90bd 1ad2 1e3f 6541 a3be 9ca2 9dbf
00000100: 7047 d6be d7a6 42bf b193 ddbe 271f 55bf
00000110: d1d7 6b3d 70fb 06bf 3e03 2ebe f16c 573f
00000120: e149 f83e a5bc 343f c0ff debb 3570 bf3e
00000130: 2939 ed3e 6eaa 723f e921 e4be 62a2 2dbf
00000140: 47b9 a4be 56e2 7fbe 3a22 b33e d91c 32bf
00000150: a1d7 433e a971 1bbf 66fc 483f 9a06 2c3f
00000160: 9d04 86bc 237a 453f 72ad e33e b979 c1bd
00000170: 43c9 3f3e 2aa6 01bf 092c 733e e77d 713e
00000180: f58a 84be 54fd 093f 8fc8 123f 8f79 d2be
00000190: 3bc9 24bf 2d83 653f a949 74be dca2 98bc
000001a0: 4a69 143e 2965 4a3f 829c 053d ada6 a4be
000001b0: 3247 403f 434f 60be 89d5 903d da3f e43e
000001c0: 264d d5be f433 1bbf 646a 5bbe 01d1 6cbf
000001d0: 77d6 2f3f e7ca 313d 1127 a9be 412d b2be
000001e0: 6c5d 98be d44e b1bd e907 1ebe 7079 e93c
000001f0: dcbd d7be 65f5 3c3f 2a38 143f 4dbc 9ebd
00000200: 5b83 463f 3bd3 a9be b752 bcbe 69c8 e6bd
00000210: e010 af3d 8978 af3d 97f1 d6bd 9064 3c3e
00000220: 5cef 49be f59e b93e d6c0 e63e 5979 06bf
00000230: 7da5 9bbf ea76 293f de01 db3e 74cc 35be
00000240: 467d 12bf 7218 efbd 35cc 413f da61 d9be
00000250: fb9a 68bf 2ad7 463c a5f6 88bf 652a 06be
00000260: 2ea5 91bd 01b6 cfbe bb67 bfbe f1c1 3ebe
00000270: d124 33be 3ef0 c4be a9f8 51bd 4045 0c3f
00000280: 7065 253c fc51 d9bb 4aac 483f a518 b83e
00000290: ced1 2c3f e06e a03e a4ee 813e be67 60be
000002a0: 93d9 19be e62e 44bf f320 fcbe 905c f73c
000002b0: 7335 fabe 5197 f83e 8ace 893e b747 af3f
000002c0: 2f85 56be f7ee 823e 0b81 a2be 4df5 18bf
000002d0: af4e a0be 4551 523f 4cc6 41bf 07bc bdbe
000002e0: 0e93 02bf cc6a c8bf 3692 84bd cfb4 86bc
000002f0: 6f13 ef3e b230 fdbd e674 9b3e 2a55 f0bd
00000300: 16a1 1bbd e469 89be b125 27bf f4bf c03d
00000310: fa02 473e 876d 73bf c303 983f 2bb6 24bf
00000320: f2c0 e3be 74a3 d5be 3a13 a03f f1f2 89bd
00000330: 70f2 f9bd 42b1 9dbe 03bb 8d3e ecac debe
00000340: 4213 24be 09ac 333f 711c 643e 0765 16bf
00000350: 1391 a93f 043c 983f b409 75bf 4c7f ed3e
00000360: 2b98 f93d 0aeb 013f 3ba7 213d 2fd3 adbe
00000370: 02fd 09bd 6ece 23be 4477 3dbf b06c 4abf
00000380: 904c 7c3e 6224 c3be 8e8a 98be 03c2 cd3e
00000390: 0df8 f03e 5430 103f f057 b4be 8988 d33e
000003a0: 9530 1dbf 0b03 92be c40f 2bbf 249b 61be
000003b0: 4fd6 7c3e 5709 093e 3f70 44be 852f 543f
000003c0: 4bfd 0dbf 2ebc 143f 89e4 12bd cf7f 60be
000003d0: 97c4 5ebf 5c1e 1abf 3fab 813e a6c1 1bbe
000003e0: 1135 1fbe e425 e33e 0a03 dfbd 9ef9 54bd
000003f0: a6b0 283f cdc9 e5be 8986 c23d 341c c3be
