cache/audio-audio/w7zn1r_bvaU_A Tree in the Meadow.npy (npy, 3200 bytes, 1 tensors)

array f4 [1, 768]
-0.89245844 -0.6345993 0.29595056 -0.124764375 0.28908798 0.026522849 0.23282754 -0.76237524
-0.3706325 0.5129359 -0.6573895 -0.32885364 -0.30422816 0.44739726 0.30668232 0.5612231
1.0747848 0.15300871 -0.7258488 0.0037258845 -0.19063507 -0.3293063 0.7002196 0.86676604
-0.07303001 -0.98489296 -0.47437772 -0.18270047 0.2151537 -0.5247914 0.19721223 -0.58566064
0.9812725 0.10212402 0.31980106 0.93526804 0.05492797 0.5495351 0.7824129 0.5656454
0.20848851 0.38682196 0.2120854 -0.09493438 0.5757371 0.8814469 -0.47227284 0.09867497
-0.7618071 -0.053184696 -0.18188588 0.7934294 0.3729445 0.5709779 0.4152429 0.036155943
-0.1188059 -0.43053642 0.004732065 -0.15533741 -0.14981052 1.1212277 -0.27404222 -1.4534166
-0.06699137 -0.972935 -0.4223241 -0.7032557 0.45903733 -0.5897245 0.122272454 0.99909765
0.87855923 0.5766881 -0.190882 0.3476024 0.70743626 0.6802107 -0.5007428 0.021951618
-0.30362368 -0.2240847 0.19815838 -0.89781827 0.1398423 -0.6119315 0.48298448 0.8656108
-0.11037322 0.92682177 0.82467794 -0.0229776 0.1926231 -0.9698335 0.19091845 -0.04412824
-0.4463622 0.30088234 0.8752182 -0.21703622 -0.5779969 0.8958258 -0.27557102 0.10197701
0.4131671 0.53952044 0.08951944 -0.50741434 0.40589347 -0.3097464 -0.009633219 0.6292226
-0.3112385 -0.77962893 -0.24891606 -1.1854827 0.7067565 -0.11876484 -0.45061707 -0.104498036
-0.14550765 -0.08739523 0.12213053 -0.25028196 -0.5230939 0.45232788 0.27806714 -0.002861942
0.8512973 -0.38285822 -0.37125993 0.15094543 0.14464171 0.33423492 0.0091093825 0.18598083
-0.16565028 0.14056824 0.35392103 -0.59251606 -1.0588529 0.64265287 0.3686563 -0.150618
-0.4753651 -0.08574875 0.9747258 0.16120923 -0.5452084 0.36496046 -0.8162349 0.11748179
-0.10072676 -0.21380155 -0.39929724 -0.16376717 -0.27243263 -0.38697284 -0.39392456 0.38483524
-0.026170835 0.2519694 0.56889874 0.18868479 0.30783316 0.2365895 0.28877345 0.12771502
-0.029041374 -0.7961664 -0.58383703 -0.03664305 -0.13935779 0.57901305 -0.1880645 1.336167
-0.10230847 0.3791589 0.1185578 -0.649533 -0.1982288 0.6201249 -0.7958552 -0.17784028
-0.49966064 -1.5830908 0.07281058 -0.1833703 0.5515539 -0.20796485 0.32402542 0.11133035
0.3161519 -0.10208553 -0.60406196 -0.15310858 0.19636612 -1.0096055 1.4209176 -0.66165227
-0.8403779 -0.5166841 1.1688358 0.27938983 -0.05772465 -0.06148539 0.6984574 -0.48446593
0.016283875 0.614922 0.31452212 -0.46653673 1.130879 0.9537055 -0.759219 0.25089085
0.10473225 0.34469917 0.13302669 -0.261061 -0.30075717 -0.29849342 -0.9697711 -0.31772342
0.17931673 -0.41806176 0.15493008 0.6524455 0.36088055 1.0683411 -0.4063116 0.73645633
-0.58178693 -0.6471085 -0.75370675 -0.0014276505 0.27494058 0.17029719 -0.10284491 0.5547013
-0.30793437 0.5377495 -0.06748316 0.094759665 -0.9324165 -0.6374356 0.1996479 0.05334955
-0.2898218 0.48099795 0.03507792 0.14483054 0.6793098 -0.25913143 -0.16889982 -0.39051524
00000000: 2878 64bf 1a75 22bf d586 973e 7784 ffbd
00000010: 5703 943e 7246 d93c 586a 6e3e 062b 43bf
00000020: 8bc3 bdbe c44f 033f ae4a 28bf 815f a8be
00000030: cbc3 9bbe 4111 e53e 7705 9d3e 51ac 0f3f
00000040: 8c92 893f 51ae 1c3e 3ad1 39bf f82d 743b
00000050: d735 43be d69a a8be 9741 333f 61e4 5d3f
00000060: c290 95bd f221 7cbf a3e1 f2be d515 3bbe
00000070: 4051 5c3e bb58 06bf 01f2 493e dbed 15bf
00000080: ad34 7b3f 6626 d13d f7bc a33e ba6d 6f3f
00000090: 27fc 603d 55ae 0c3f 364c 483f 23ce 103f
000000a0: 037e 553e 870d c63e ea2c 593e f56c c2bd
000000b0: 8263 133f 81a6 613f bfcd f1be 1a16 ca3d
000000c0: ca05 43bf 32d8 59bd 4b40 3abe 301e 4b3f
000000d0: 95f2 be3e 9c2b 123f b89a d43e 4118 143d
000000e0: 8250 f3bd 456f dcbe 700f 9b3b c510 1fbe
000000f0: ee67 19be 6484 8f3f 434f 8cbe 8e09 babf
00000100: c532 89bd 4512 79bf dd3a d8be 9108 34bf
00000110: f106 eb3e 2ff8 16bf fb69 fa3d ddc4 7f3f
00000120: 42e9 603f d5a1 133f 9276 43be f1f8 b13e
00000130: 8b1a 353f 4a22 2e3f ae30 00bf e1d3 b33c
00000140: 9074 9bbe 7676 65be 08ea 4a3e 6bd7 65bf
00000150: d232 0f3e 8ba7 1cbf be49 f73e ab98 5d3f
00000160: 5b0b e2bd 3144 6d3f 181e 533f 853b bcbc
00000170: fd3e 453e 0247 78bf 2080 433e d0bf 34bd
00000180: 9689 e4be 400d 9a3e 4d0e 603f be3e 5ebe
00000190: 9bf7 13bf d754 653f a517 8dbe 53d9 d03d
000001a0: a38a d33e 031e 0a3f f855 b73d e8e5 01bf
000001b0: 45d1 cf3e 1597 9ebe a6d4 1dbc bb14 213f
000001c0: a75a 9fbe c395 47bf dae3 7ebe e6bd 97bf
000001d0: feed 343f fb3a f3bd 48b7 e6be 1103 d6bd
000001e0: f5ff 14be 45fc b2bd 921f fa3d f524 80be
000001f0: 7be9 05bf 8597 e73e d15e 8e3e 6b8f 3bbb
00000200: 9fee 593f fe05 c4be c815 bebe 7091 1a3e
00000210: f51c 143e d720 ab3e 853f 153c c271 3e3e
00000220: 3aa0 29be 1ff1 0f3e 2335 b53e 22af 17bf
00000230: 7e88 87bf e684 243f 85c0 bc3e 9b3b 1abe
00000240: 0e63 f3be 0a9d afbd a187 793f 0814 253e
00000250: c792 0bbf 19dc ba3e c5f4 50bf 4b9a f03d
00000260: d549 cebd cbee 5abe b070 ccbe 95b2 27be
00000270: 4a7c 8bbe 4e21 c6be 7bb0 c9be 2009 c53e
00000280: 3864 d6bc 2202 813e 59a3 113f 9636 413e
00000290: 4f9c 9d3e 8544 723e 1dda 933e bac7 023e
000002a0: 2de8 edbc 90d1 4bbf 5876 15bf 0617 16bd
000002b0: cfb3 0ebe 333a 143f fb93 40be 8507 ab3f
000002c0: 1a87 d1bd 1e21 c23e 6fce f23d cb47 26bf
000002d0: 7efc 4abe 81c0 1e3f 2bbd 4bbf c31b 36be
000002e0: 85d3 ffbe b8a2 cabf b71d 953d 6dc5 3bbe
000002f0: a332 0d3f bdf4 54be a9e6 a53e 2b01 e43d
00000300: a9de a13e 3812 d1bd cea3 1abf 7fc8 1cbe
00000310: 3314 493e c13a 81bf a1e0 b53f 0b62 29bf
00000320: 0223 57bf 6945 04bf 699c 953f 2f0c 8f3e
00000330: af70 6cbd 1bd8 7bbd 1bce 323f eb0b f8be
00000340: c365 853c 876b 1d3f 0b09 a13e e7dd eebe
00000350: a5c0 903f 0b26 743f 2d5c 42bf c474 803e
00000360: dd7d d63d 697c b03e 2638 083e caa9 85be
00000370: d8fc 99be 21d4 98be eb42 78bf a5ac a2be
00000380: ce9e 373e 310c d6be fea5 1e3e ab06 273f
00000390: 56c5 b83e 67bf 883f 1308 d0be 6788 3c3f
000003a0: fdef 14bf e7a8 25bf edf2 40bf 0020 bbba
000003b0: 03c5 8c3e 6362 2e3e 5aa0 d2bd e800 0e3f
000003c0: 93a9 9dbe f4a9 093f 9c34 8abd 5b11 c23d
000003d0: d9b2 6ebf fb2e 23bf 8070 4c3e 0f85 5a3d
000003e0: 8663 94be 5d45 f63e ddad 0f3d 754e 143e
000003f0: 3fe7 2d3f e0ac 84be 13f4 2cbe 9df1 c7be
