cache/audio-audio/W9FiUwC-LX0_Empty Arms.npy (npy, 3200 bytes, 1 tensors)

array f4 [1, 768]
-0.66650915 -0.3962303 0.49210754 -0.15112743 0.009360183 0.19385444 0.2445521 -0.7107748
-0.24819377 0.6086737 -0.7307416 -0.08815922 -0.3135824 0.17785935 0.41880053 0.61263126
0.9135769 0.03847992 -0.41526088 -0.0033549685 -0.002621456 -0.5186456 0.6648472 0.8556822
-0.25894687 -0.838511 -0.318509 -0.25564253 0.104346015 -0.5268921 0.16111389 -0.60765463
0.90618056 0.3552421 0.3179277 0.80387294 0.14826962 0.42759228 0.8110525 0.7532272
0.1353058 0.4621355 0.41434637 -0.08403409 0.64546317 0.8587947 -0.3723379 -0.08904636
-0.7315006 -0.20884852 -0.22750135 0.7993306 0.5198901 0.47258073 0.6902461 -0.10243942
-0.15496321 -0.5684799 0.1896084 -0.32020155 -0.2521188 1.0565945 -0.33126083 -1.3609803
-0.081902616 -0.8379531 -0.15459593 -0.7678353 0.062521994 -0.42310005 -0.054154523 0.969273
0.7067499 0.84431255 -0.46834213 0.40213045 0.58703434 0.7283449 -0.6023569 -0.25243932
-0.44031924 -0.28869426 0.08159492 -0.76008254 0.13538736 -0.64789057 0.563081 0.9898807
-0.15963557 1.0204715 0.66365695 -0.1434016 0.29702753 -0.84632427 0.044581357 0.052651454
-0.4274481 0.4946614 0.58061093 -0.30722058 -0.71233445 0.95567876 -0.11571393 0.09593227
0.17275026 0.60462457 0.09079444 -0.32894894 0.3294383 -0.30725196 -0.09428218 0.41346115
-0.27674398 -0.96530163 -0.17560062 -1.1596743 0.5475237 -0.003936801 -0.43711406 -0.39699313
-0.25436795 -0.12339828 0.1316941 0.055108596 -0.46563745 0.58909947 0.4112169 0.05507446
0.93224925 -0.62346315 -0.59365684 -0.14697573 0.30447504 0.45438138 -0.18290454 0.11233677
-0.09898033 0.17180371 0.63174903 -0.69047236 -0.95439947 0.53622174 0.37779444 0.1738475
-0.42186537 -0.022574322 0.7235579 0.16076523 -0.4927577 0.2896925 -0.80773866 -0.09675052
-0.12770559 -0.6195602 -0.40801468 -0.2797144 -0.020481935 -0.58705956 -0.45459384 0.53151184
-0.09782861 0.09994729 0.4959033 0.3729063 0.6565749 0.4585487 0.4846963 0.103064574
-0.02303485 -0.75297403 -0.8327861 -0.07576744 0.07788279 0.6085909 -0.092017524 1.3232605
-0.11903562 0.30703303 -0.09804765 -0.50533485 -0.22281127 0.5963153 -0.7815731 -0.31321275
-0.4207255 -1.4058688 0.2592642 -0.34913757 0.45903546 -0.10158752 0.41650525 0.006602805
0.1564015 -0.20170395 -0.7991097 -0.017473534 0.15317765 -0.663171 1.4423283 -0.7278459
-0.66259766 -0.25395885 1.1135882 0.057937466 -0.080228746 -0.15174149 0.30426648 -0.35606682
-0.19774273 0.51306444 0.4329854 -0.2713145 1.2004089 1.0350684 -0.94809276 0.2997592
0.11264386 0.35936555 0.09966798 -0.19350734 -0.39424157 -0.23857224 -0.7410976 -0.6637108
0.21630237 -0.395286 0.034284584 0.5695715 0.48948455 0.81882495 -0.45901784 0.63599527
-0.69538647 -0.53080297 -0.86254233 -0.17940599 0.19244988 0.22144425 -0.17942287 0.69142264
-0.32953125 0.6616916 -0.06197253 -0.13523805 -0.8376104 -0.7543191 0.16474126 0.11784802
-0.4700791 0.46966654 -0.05152629 0.32844606 0.5067906 -0.42492574 -0.24654122 -0.57708985
00000000: 58a0 2abf b3de cabe 85f5 fb3e 26c1 1abe
00000010: 745b 193c c781 463e de6b 7a3e 56f5 35bf
00000020: 8226 7ebe 0ad2 1b3f e211 3bbf d28c b4bd
00000030: df8d a0be c320 363e 066d d63e 67d5 1c3f
00000040: 2de0 693f 1f9d 1d3d 139d d4be 08df 5bbb
00000050: bccc 2bbb f5c5 04bf 6d33 2a3f fd0d 5b3f
00000060: af94 84be a8a8 56bf 9d13 a3be 94e3 82be
00000070: 5db3 d53d 67e2 06bf 0afb 243e 418f 1bbf
00000080: 73fb 673f 4be2 b53e 6bc7 a23e 9eca 4d3f
00000090: fed3 173e 60ed da3e 23a1 4f3f 7fd3 403f
000000a0: 9b8d 0a3e 069d ec3e 3525 d43e 111a acbd
000000b0: 133d 253f f8d9 5b3f 13a3 bebe f05d b6bd
000000c0: a043 3bbf 63dc 55be 1df6 68be eea0 4c3f
000000d0: 8517 053f 1af6 f13e f8b3 303f c2cb d1bd
000000e0: adae 1ebe e687 11bf b428 423e 75f1 a3be
000000f0: b715 81be 7d3e 873f 059b a9be 9a34 aebf
00000100: 8fbc a7bd 1884 56bf 654e 1ebe db90 44bf
00000110: 880b 803d 92a0 d8be 22d1 5dbd 4622 783f
00000120: 90ed 343f de24 583f 8aca efbe 0be4 cd3e
00000130: e247 163f d074 3a3f 1034 1abf ba3f 81be
00000140: 8671 e1be bccf 93be 3d1b a73d c594 42bf
00000150: fca2 0a3e 28dc 25bf 1426 103f d268 7d3f
00000160: 8277 23be cf9e 823f 6ce5 293f ded7 12be
00000170: fe13 983e b5a8 58bf f19a 363d 0da9 573d
00000180: 7ada dabe 4244 fd3e eba2 143f 044c 9dbe
00000190: 8d5b 36bf 5da7 743f 6dfb ecbd 2378 c43d
000001a0: 72e5 303e adc8 1a3f 6ff2 b93d ff6b a8be
000001b0: 23ac a83e 2150 9dbe 0417 c1bd 2eb1 d33e
000001c0: 63b1 8dbe 021e 77bf a6d0 33be 3570 94bf
000001d0: 832a 0c3f 4800 81bb 6acd dfbe af42 cbbe
000001e0: 843c 82be 3db8 fcbd d1da 063e 8db9 613d
000001f0: 0868 eebe 39cf 163f 068b d23e c295 613d
00000200: e3a7 6e3f 489b 1fbf e5f9 17bf ce80 16be
00000210: 27e4 9b3e ada4 e83e 544b 3bbe d210 e63d
00000220: 33b6 cabd 50ed 2f3e 4eba 213f ccc2 30bf
00000230: 8653 74bf d445 093f 466e c13e 1405 323e
00000240: bdfe d7be c9ed b8bc 173b 393f a49f 243e
00000250: bd4a fcbe 9352 943e f6c7 4ebf 2325 c6bd
00000260: 41c5 02be 7f9b 1ebf 4de7 d0be ba36 8fbe
00000270: bbc9 a7bc 8949 16bf 86c0 e8be 2911 083f
00000280: 5e5a c8bd 2ab1 cc3d 0ae7 fd3e 93ed be3e
00000290: 4b15 283f e5c6 ea3e 1d2a f83e 8513 d33d
000002a0: 95b3 bcbc e8c2 40bf 7831 55bf f62b 9bbd
000002b0: 0381 9f3d 9dcc 1b3f af73 bcbd 9a60 a93f
000002c0: f2c8 f3bd 6f33 9d3e 35cd c8bd a05d 01bf
000002d0: a328 64be 1fa8 183f 2d15 48bf 6c5d a0be
000002e0: 5569 d7be 82f3 b3bf 47be 843e 29c2 b2be
000002f0: b206 eb3e 1e0d d0bd 2d40 d53e 585c d83b
00000300: b727 203e 7b8b 4ebe 7492 4cbf a824 8fbc
00000310: 9ada 1c3e 93c5 29bf 379e b83f 1c54 3abf
00000320: 00a0 29bf e506 82be 0f8a 8e3f d64f 6d3d
00000330: f84e a4bd 1f62 1bbe d1c8 9b3e 644e b6be
00000340: 127d 4abe 3158 033f 43b0 dd3e bce9 8abe
00000350: 00a7 993f 1f7d 843f 35b6 72bf 0a7a 993e
00000360: d3b1 e63d c3fe b73e ba1e cc3d ca26 46be
00000370: 08da c9be 484c 74be 93b8 3dbf f3e8 29bf
00000380: 5e7e 5d3e ed62 cabe fe6d 0c3d 70cf 113f
00000390: b89d fa3e 839e 513f 6304 ebbe 96d0 223f
000003a0: d904 32bf b4e2 07bf 93cf 5cbf 34b6 37be
000003b0: 9511 453e 48c2 623e a1ba 37be 1301 313f
000003c0: 52b8 a8be 9f64 293f e8d6 7dbd d87b 0abe
000003d0: a36d 56bf 0e1b 41bf efb1 283e 4d5a f13d
000003e0: 35ae f0be 2278 f03e 3b0d 53bd 152a a83e
000003f0: 07bd 013f de8f d9be 4d75 7cbe 29bc 13bf
