cache/audio-audio/W9S3YMmIFdw_Ein bichen Frieden.npy (npy, 3200 bytes, 1 tensors)

array f4 [1, 768]
0	0xbf5ab19d	-0.85427266
1	0xbed316c6	-0.41228312
2	0x3f0c9c8e	0.54926383
3	0xbdff6d57	-0.12472027
4	0xbe681b2f	-0.2266662
5	0x3e346156	0.17615256
6	0x3e1fe1bc	0.15613455
7	0xbf1b5404	-0.6067507
8	0xbec8d04a	-0.39221412
9	0x3f31796f	0.6932592
10	0xbf0029c6	-0.5006374
11	0xbe735713	-0.23763685
12	0xbecedb8d	-0.4040188
13	0x3d973b2c	0.07384333
14	0x3efbf43f	0.49209782
15	0x3ef7a3d4	0.48367178
16	0x3f46b65f	0.77622026
17	0xbe49321d	-0.19648023
18	0xbe81beef	-0.25340983
19	0xbe3219e1	-0.17392685
20	0x3d6b18dc	0.057396755
21	0xbe97e3f8	-0.29666114
22	0x3f5340f0	0.8252096
23	0x3f7c670f	0.98594755
24	0xbe2eb6dd	-0.17061944
25	0xbf0e1b1c	-0.55510116
26	0xbf1f5f58	-0.6225486
27	0xbee36a60	-0.44417095
28	0xbd86c064	-0.06579664
29	0xbeefedc3	-0.46861085
30	0x3e9a8aa4	0.301839
31	0xbf6dafd4	-0.9284642
32	0x3fbe9781	1.4889985
33	0x3f0f87a6	0.5606636
34	0x3e8ea5f3	0.27860984
35	0x3f22afe2	0.63549626
36	0xbd034089	-0.032043967
37	0x3edba654	0.42900336
38	0x3f7af636	0.9803194
39	0x3f29df97	0.66356796
40	0x3e253cbb	0.16136448
41	0x3f3eaca6	0.7448219
42	0x3ea6a8b0	0.32550573
43	0xbe703fbc	-0.23461813
44	0x3ee6eb07	0.45101187
45	0x3f5a5bd4	0.8529637
46	0xbeab0d15	-0.33408418
47	0x3d832a66	0.06404571
48	0xbf0c71d0	-0.54861164
49	0xbcef7180	-0.029228926
50	0x3d8ba441	0.06818438
51	0x3f65f176	0.89821565
52	0x3e716f69	0.23577656
53	0x3e5f5484	0.21809584
54	0x3f18a89a	0.59632266
55	0xbe824f4e	-0.2545113
56	0xbdb357dc	-0.08756992
57	0xbf1a66eb	-0.6031329
58	0x3e5f30c9	0.21795954
59	0xbefa4acf	-0.488852
60	0xbdd034d7	-0.101663284
61	0x3f74291f	0.95375246
62	0xbf2727f7	-0.65295357
63	0xbf9a4570	-1.2052441
64	0xbeb2c0d3	-0.34912738
65	0xbf219b2a	-0.63127387
66	0xbeb98f23	-0.36242017
67	0xbf66c52f	-0.9014463
68	0x3de08c8c	0.10964307
69	0xbf1b7ae4	-0.6073439
70	0xbea43bbb	-0.3207682
71	0x3f13a921	0.57679945
72	0x3f073ba0	0.52825356
73	0x3f3b9b9d	0.7328432
74	0xbef35abd	-0.47530165
75	0x3e71d991	0.23618151
76	0x3e9f02a0	0.3105669
77	0x3f06d142	0.5266305
78	0xbf083e20	-0.53219795
79	0xbeaeec3a	-0.34164602
80	0xbf00bfa8	-0.50292444
81	0xbee4a7dc	-0.44659317
82	0x3e937966	0.28803557
83	0xbf34d69d	-0.70639974
84	0x3de0a47d	0.10968874
85	0xbf347f07	-0.7050633
86	0x3f3a5d9d	0.7279909
87	0x3f564890	0.8370447
88	0xbe87e413	-0.26541194
89	0x3f83d70d	1.0300003
90	0x3f28ec5b	0.6598565
91	0x3d80e2e7	0.06293278
92	0x3d9dd358	0.07706326
93	0xbf416abf	-0.75553507
94	0xbdab2017	-0.0835573
95	0xbde57971	-0.11204804
96	0xbf094ffa	-0.5363766
97	0x3edc0404	0.42971814
98	0x3f5a1ed7	0.8520331
99	0xbd839bc5	-0.06426195
100	0xbf4841f9	-0.78225666
101	0x3f882860	1.0637321
102	0xbe6b4afc	-0.22977823
103	0xbe1b23da	-0.15150395
104	0x3e36274e	0.17788431
105	0x3e88c5f0	0.26713514
106	0x3d90b1f2	0.070651904
107	0xbe433987	-0.19064914
108	0x3ef0c047	0.47021696
109	0xbe177c8f	-0.14793609
110	0x3d613f49	0.054991994
111	0x3d80d7d7	0.06291168
112	0xbeeea6c9	-0.46611622
113	0xbf25a76e	-0.647086
114	0xbd970a27	-0.07374983
115	0xbf536a31	-0.8258391
116	0x3e9ebcb4	0.31003344
117	0xbd22edf9	-0.03977773
118	0xbee652f0	-0.4498515
119	0xbe7c104c	-0.24615592
120	0xbde05fc0	-0.10955763
121	0xbe96fe5c	-0.29490936
122	0x3eb39c02	0.35079962
123	0x3d6ae109	0.057343516
124	0xbe8ae120	-0.27124882
125	0x3ed64427	0.4184887
126	0x3e1cd8cb	0.15317075
127	0xbe4c09b1	-0.19925572
128	0x3f8b1eaa	1.0868733
129	0xbed8d9d3	-0.42353687
130	0xbec99cb6	-0.39377373
131	0xbe7f9ee6	-0.24962959
132	0x3e318c10	0.17338586
133	0x3f24b07c	0.64331794
134	0xbe85ccd5	-0.26132837
135	0x3e2fb3b0	0.17158389
136	0xbeeec877	-0.46637318
137	0x3da5e180	0.08099651
138	0x3edb233c	0.4280032
139	0xbf1854c6	-0.59504354
140	0xbf9256d4	-1.1432748
141	0x3f654eff	0.89573663
142	0x3e69ceec	0.2283284
143	0x3e4e1b00	0.20127487
144	0xbede4fff	-0.43420407
145	0x3e572b44	0.21012598
146	0x3f51fc44	0.8202555
147	0xbeb46af9	-0.35237864
148	0xbeb02d4b	-0.34409556
149	0x3daba07a	0.08380218
150	0xbf4a0994	-0.78920865
151	0xbcd284f0	-0.025698155
152	0x3e593fe3	0.21215777
153	0xbef30ead	-0.47472134
154	0xbedf0877	-0.43561146
155	0xbdc6a711	-0.09699834
156	0xbd1476b0	-0.036246
157	0xbf05202f	-0.52002233
158	0xbe736956	-0.23770651
159	0x3ec50101	0.38477328
160	0xbe89f99c	-0.2694825
161	0xbd966b74	-0.07344714
162	0x3f279edb	0.6547677
163	0x3e569311	0.20954539
164	0x3f2f2026	0.6840843
165	0x3e634e9c	0.22197956
166	0x3e9b3f4b	0.30321726
167	0x3e12495c	0.14285797
168	0xbd94f802	-0.07273866
169	0xbf4790a9	-0.7795511
170	0xbf429f57	-0.76024383
171	0x3dfec856	0.12440555
172	0xbdad7dd7	-0.08471268
173	0x3f81a262	1.012768
174	0xbd9cf72e	-0.07664333
175	0x3fc364fc	1.5265193
176	0xbe05a92f	-0.1305282
177	0x3e91fc25	0.28512684
178	0x3da19257	0.0788924
179	0xbefe573a	-0.49675924
180	0xbe82b647	-0.25529692
181	0x3f38d346	0.7219738
182	0xbf506341	-0.8140145
183	0xbe8dc98f	-0.2769284
184	0xbf2e4a7c	-0.68082404
185	0xbfce7ec9	-1.6132442
186	0x3d7cd660	0.06172788
187	0xbe783e40	-0.24242496
188	0x3f0a22d3	0.5395939
189	0x3dc55a21	0.09636331
190	0x3f22ee4b	0.63644856
191	0xbe2161c5	-0.15759952
192	0x3e960822	0.2930308
193	0xbe2a0c60	-0.16606283
194	0xbf475f91	-0.778802
195	0xbe05bd39	-0.13060464
196	0x3ef91f36	0.48656625
197	0xbf843c3f	-1.0330886
198	0x3faa54e4	1.3307157
199	0xbf7cb2af	-0.9871015
200	0xbe996d7e	-0.29966348
201	0xbeae155e	-0.34000677
202	0x3f8bfbfb	1.0936273
203	0xbe81b6c1	-0.25334743
204	0xbdb421f4	-0.087955385
205	0xbe0783d8	-0.13233888
206	0x3eed7870	0.4638095
207	0xbedc35ec	-0.4300989
208	0xbe140406	-0.1445466
209	0x3f0b314b	0.5437209
210	0x3f0a22b2	0.5395919
211	0xbecc2241	-0.39869884
212	0x3f80b274	1.005446
213	0x3f874e86	1.0570838
214	0xbf648c54	-0.89276624
215	0x3efe59f1	0.49677995
216	0x3df80193	0.12109675
217	0x3e706021	0.2347417
218	0x3e235614	0.15950805
219	0xb9bf0bf0	-0.00036439253
220	0xbea8e510	-0.3298726
221	0x3b2f2ba8	0.0026728902
222	0xbf43745f	-0.76349443
223	0xbf25c2fc	-0.6475065
224	0x3e891a49	0.26777866
225	0xbee95493	-0.45572338
226	0x3dc9677c	0.09834191
227	0x3f167679	0.58774525
228	0x3f06f956	0.52724206
229	0x3f13001d	0.5742205
230	0xbebb2290	-0.36549807
231	0x3edc63ff	0.4304504
232	0xbf08b84d	-0.5340622
233	0xbee27bfc	-0.44235218
234	0xbf62db4f	-0.8861589
235	0xbdfc7f81	-0.12329007
236	0x3e0a160c	0.13484973
237	0x3e36651f	0.17812012
238	0xbe069aa1	-0.13144924
239	0x3f2f4310	0.68461704
240	0xbecdd09c	-0.4019822
241	0x3f28f9ac	0.6600597
242	0xbd9730dc	-0.07382366
243	0xbd99a532	-0.07502212
244	0xbf4a5f97	-0.7905211
245	0xbf30309a	-0.6882416
246	0x3ecdb231	0.40175012
247	0x3c611f3c	0.013740357
248	0xbe26b500	-0.16279984
249	0x3ee978b6	0.45599908
250	0x3d4da9bd	0.050210703
251	0x3e90a589	0.28251293
252	0x3f43bf91	0.7646418
253	0xbed8dfb1	-0.42358163
254	0xbd262383	-0.04056121
255	0xbeca73c1	-0.39541438
