cache/audio-audio/yqM0cjN-b3o_She Wears Red Feathers.npy (npy, 3200 bytes, 1 tensors)

array f4 [1, 768]
00000000: e5b7 30bf e909 09bf 6d91 f33e 0fdf 4fbd
00000010: 8773 283e 2e00 ca3e b0e1 453e bfb5 6fbf
00000020: 58fc a6be 486f 3d3f f3be 2abf d9f5 183e
00000030: d5da 93be 678f fd3e 06f2 dc3e ffbb 143f
00000040: ffd1 333f a436 ca3d 4322 46bf 3845 8d3d
00000050: b81f c13c 2855 a0be 9b18 693f db90 843f
00000060: 92ad c0bd 50ea 52bf bb76 eebe 6165 14be
00000070: 0c49 c03d 18ff 16bf 8115 bc3e 6c77 03bf
00000080: 939a 833f db0c 6b3e c25b 893e 5866 433f
00000090: fce2 c6bd 1ecb fe3e d600 423f 5607 163f
000000a0: 03f5 313e b8d3 eb3e d780 763e 12e0 00bd
000000b0: 1189 1c3f cdf4 513f 9566 c3be 2b06 3bbe
000000c0: ab0f 33bf f9dd 62bc fa15 37bd 8247 2b3f
000000d0: bda8 1b3f 4c93 073f 7b40 2d3f e3e4 67be
000000e0: d897 db3c 6132 37bf 583a ce3d bed0 d5be
000000f0: e743 bdbe 1417 683f b3be b2be d39f d0bf
00000100: 523d 80be c610 60bf ceed f3be d3d9 38bf
00000110: 6768 5b3e 528f c5be d8d1 823e 681b 8b3f
00000120: 34b7 2e3f 0a4c 2c3f 5299 98be d634 243e
00000130: 2e41 023f d0e5 473f ef85 1bbf d5fb b8be
00000140: 1317 9ebe 2c95 8bbe 4801 7c3c 05da 70bf
00000150: 7302 053e 1612 02bf ca4e 1b3f 2594 543f
00000160: d093 6fbe 7d7f 663f c3c0 423f 8a4f 283e
00000170: 7d75 0f3f 9479 17bf 3a42 563e b840 4d3d
00000180: bda8 cfbe 9a08 573e 9530 2f3f f992 99be
00000190: 8255 05bf 3ac7 693f a3ec f4be 657c a33d
000001a0: 95a5 983e 388d 0b3f 66f6 4c3e 95ce e4be
000001b0: 6328 ad3e 28df ddbe a0d2 b9bd 2d86 ec3e
000001c0: d1b2 10bf 5f52 36bf 6fe5 edbd 33a1 71bf
000001d0: 984e f93e 91f6 7abd cc71 d9be a812 8cbe
000001e0: 50f4 47be 4cb9 66be 610d 043e 8031 6dbb
000001f0: be2a 45be b72e 343f 8034 ab3e 1176 6b3e
00000200: 1155 443f 0eb8 1abf 8ef2 f7be c21b 62bd
00000210: 94aa 603c dbd8 d03e 833e 9abd 8821 7b3e
00000220: 0912 47be 2132 583e 1e40 973e 370d 12bf
00000230: e88c 66bf 76a9 623f 9eb4 e33e 06f6 77bd
00000240: c093 03bf 8296 c3bd 8f68 2c3f 5ae3 0a3d
00000250: 09f1 16bf 044b b23e fb44 7bbf dc44 89be
00000260: 9c43 4d3c df19 d2be 9b85 17bf e87f 8bbe
00000270: fd46 7cbe 7eeb 14bf 43a2 cbbe bed3 f63e
00000280: 0d1a 05be 2ef8 0c3e 7511 0f3f 9b89 dc3e
00000290: e2f0 133f 1804 fc3e 49dc ef3d abbf a0bd
000002a0: 4c86 27be faa9 52bf 42fb 5fbf 42ef 2e3d
000002b0: 6a6d 533d 6537 de3e 440c 92bd 950c 9d3f
000002c0: 868b bebe ac50 423d cb9e 54bc 8135 03bf
000002d0: d973 41be 5b4e 163f 1102 29bf 5c7d 9fbe
000002e0: 4864 b3be a05f b0bf c005 eb3c ba70 28be
000002f0: f066 153f 76db b5bd 03f1 c03e a4d9 e83d
00000300: d511 ee3d c270 b53d d0aa 0dbf 4e3f b33d
00000310: 5cf7 0a3d 61af 54bf 9474 a13f daf4 06bf
00000320: 7d8a 1abf b493 9cbe 4a0b 883f aad0 143e
00000330: dc86 28bc 96c9 d8bd ed88 043f 7abd cabe
00000340: 4080 12be 2cb4 fc3e a3b7 f83e c627 d6be
00000350: 385d 963f 36af 933f 182a 76bf e288 ff3e
00000360: 0330 29bd 7b16 eb3e 2cf1 403e 947f e5bd
00000370: 8eec c2be 2cbf 97bb 6781 67bf bb66 d6be
00000380: 004f bd38 19b4 1cbf c927 953d f3fe 293f
00000390: 05fa f53e 5905 4c3f 5218 ddbe 1238 093f
000003a0: 66c9 43bf 091b 1cbf a5ff 59bf 282a 51be
000003b0: 43f4 e03e d1cf 873e b508 56be fbc9 1c3f
000003c0: 8214 8ebe d2ad de3e a14c 7bbe 37f8 c7bc
000003d0: 61ce 46bf 341b 57bf 1dd3 943e aa5a 983e
000003e0: a7d3 e7be 23dc 003f 7470 723c 68f5 803e
000003f0: 6fce 193f c71a cbbe 989c b2be 935c ecbe
-0.690306 -0.53530747 0.4757189 -0.050749835 0.1645032 0.39453262 0.19324374 -0.936367
-0.32614398 0.73997927 -0.66697615 0.14937533 -0.28877893 0.4952347 0.431534 0.5809936
0.70242304 0.09873703 -0.7739603 0.06897968 0.023574695 -0.3131497 0.9105317 1.0356706
-0.09408106 -0.8238878 -0.4657496 -0.14491798 0.093889326 -0.5898299 0.36735156 -0.513541
1.0281547 0.22954123 0.26827818 0.7632804 -0.097112626 0.4976434 0.75782526 0.58604944
0.17378621 0.46059966 0.24072586 -0.03146369 0.61146647 0.8201416 -0.381642 -0.18264072
-0.6994578 -0.013846868 -0.044698693 0.6690599 0.6080435 0.5295913 0.67676514 -0.22645907
0.026805803 -0.7156125 0.10069722 -0.4176082 -0.36965868 0.90660214 -0.34911117 -1.6298774
-0.25046784 -0.87525594 -0.47642368 -0.72207373 0.21426545 -0.38585907 0.25550723 1.0867739
0.68248296 0.67303526 -0.29804474 0.1603578 0.50880706 0.7808504 -0.6075124 -0.36129633
-0.3087698 -0.27262247 0.015381165 -0.9408267 0.12989216 -0.50808847 0.606671 0.8303855
-0.2339623 0.9003828 0.7607538 0.16436592 0.5603865 -0.5916989 0.20923701 0.05011055
-0.40558425 0.20999375 0.68433505 -0.29994944 -0.520836 0.9131962 -0.4783679 0.07982711
0.2981383 0.5451236 0.20015869 -0.4468886 0.33819875 -0.43334317 -0.09073377 0.46196118
-0.5652285 -0.7121944 -0.116160266 -0.94386595 0.48692775 -0.0612703 -0.42469633 -0.27357984
-0.19526792 -0.22531623 0.12895729 -0.0036192834 -0.19254586 0.7038378 0.33438492 0.22994258
0.766923 -0.60437095 -0.48427242 -0.055202253 0.013712544 0.40790448 -0.075314544 0.2452451
-0.19440474 0.21112873 0.29541105 -0.57051414 -0.90058756 0.88539827 0.44473737 -0.06053736
-0.51397324 -0.095501915 0.67347044 0.033908226 -0.5896154 0.34822857 -0.9815213 -0.26810348
0.012528326 -0.41035363 -0.5918824 -0.27246022 -0.24636455 -0.5817183 -0.39772233 0.4820842
-0.12998219 0.13766548 0.5588601 0.43073735 0.57789433 0.49221873 0.11711938 -0.07849058
-0.16359824 -0.82290614 -0.87492764 0.042708643 0.051618017 0.43401638 -0.07131246 1.2269465
-0.37215823 0.047440216 -0.012977312 -0.51253515 -0.18891849 0.5871331 -0.6601878 -0.3115033
-0.35037446 -1.3779182 0.028689265 -0.16449252 0.58360195 -0.088797495 0.37683877 0.11369637
0.11624495 0.088593975 -0.55338764 0.08752309 0.033927307 -0.83080107 1.2613702 -0.52717364
-0.60367566 -0.3058144 1.0628445 0.14532724 -0.010286059 -0.105853245 0.5177143 -0.39597684
-0.14306736 0.4935621 0.48577604 -0.4182722 1.1747198 1.1537845 -0.9615798 0.4990912
-0.041305553 0.4591559 0.18842 -0.11205974 -0.38071102 -0.0046309438 -0.9043183 -0.41875252
9.026937e-05 -0.6121231 0.07282979 0.66404647 0.48042312 0.7969566 -0.43182617 0.5360118
-0.76479185 -0.6097875 -0.8515571 -0.20426238 0.43936357 0.2652574 -0.20901759 0.612457
-0.2775002 0.4349199 -0.2454095 -0.02441035 -0.7765866 -0.84025884 0.29067317 0.2975667
-0.45278665 0.503359 0.014797319 0.2518723 0.6008062 -0.39668867 -0.34885097 -0.4616438
