cache/mid-midi/AM-b8P1yj9w_Stand By Your Man.npy (npy, 3200 bytes, 1 tensors)

array f4 [1, 768]
-0.12022781 -0.1277045 -0.13344932 0.5422833 0.30143002 -0.17780182 0.5517045 0.43455625
-1.1267964 0.6241594 0.18167962 -0.5406011 0.32975063 0.5649701 -0.18224145 -1.3994178
-0.2546352 -1.0132232 -0.5108307 0.07680343 -0.5903013 0.04006692 -0.15373477 -0.3329062
0.8626331 0.004365625 0.37511992 0.81529444 0.31843415 -0.28399342 0.67474025 0.45110506
0.3554435 0.037148733 -0.1713658 -0.23300228 -0.027245933 1.2996111 -0.16810659 0.103646554
0.40301684 1.5628802 0.5101153 -0.37531427 -0.02310815 -0.8547391 0.5742776 0.40602365
-0.044609983 0.4342238 -0.28531244 0.4260542 0.18877612 -0.17300722 -0.615782 0.15510374
-0.13911626 0.665853 0.0072338437 -0.11591155 0.2916083 0.2530852 -0.106937595 -0.7009743
-0.2957583 -0.016048884 0.8117437 -0.57560647 0.3265927 -0.089793526 -0.28871137 0.76626414
0.95144147 -1.2160532 0.24029431 -0.14637738 -0.107028574 0.77224123 -0.44143608 -0.08369878
0.23919097 -1.0303711 0.018107168 -0.4165412 0.6433622 0.19014558 0.26461324 -0.02386115
-0.22133249 0.7689401 1.0462197 1.2132874 -0.14941034 0.17628452 -0.9149379 -0.5122669
0.20470804 1.0467279 0.14510602 -0.49577135 -0.70006484 0.28345045 0.27186233 -0.45243526
0.366197 -0.07499941 0.74863166 0.01141954 -0.13927989 -0.567835 -0.043440253 1.1359626
0.36884624 -0.24131897 0.062966295 -0.33193153 -0.55109125 0.41110614 0.61668676 -0.5942538
-0.0212138 0.25156465 -0.8312949 0.16760026 0.33864206 0.5319965 -0.3362315 0.4672358
0.042321477 0.7038591 -0.16456385 0.86995083 -0.38848448 0.19577926 -0.16606922 0.18763073
0.091657124 -0.27704307 0.055570684 0.52729946 0.33149868 -0.33985958 -0.4391336 0.323373
0.5988029 -0.10415308 -0.17739438 0.8084643 -0.23183252 -0.80745935 -0.61549693 0.37308306
0.18921036 0.0018936638 -0.6877442 1.0480043 0.27279943 0.58782375 0.17258164 0.23511417
1.5897132 1.095457 -0.44913945 0.37262988 0.3009826 0.4660979 -0.36592558 0.0059429426
-0.7192311 0.545433 0.11278383 -0.08369914 0.597208 -0.08883498 -0.1654162 -0.32833964
0.040875375 -0.41684866 0.79480976 -0.22367427 0.20465824 0.8095345 -0.08978035 -0.37875628
0.41264683 -0.6076628 -0.41129574 0.6757439 0.8111733 0.04393071 0.04643426 0.43675512
0.34407434 0.3764052 -0.43096653 -0.038822252 0.13192405 -0.493188 -0.59480053 -1.35507
0.0032178313 0.5193103 -0.24873818 -0.017042294 -0.15090232 -0.43298587 0.65232044 1.3482959
-0.53214866 -0.2042114 0.29381874 0.357851 -0.083055735 0.06124753 -0.69636095 -0.2754204
0.28902632 0.7550567 -0.19106793 -0.14995864 -0.48311922 0.97392964 0.85941136 1.1082537
0.043433823 0.38400766 -0.16917378 -0.107376814 -0.083447106 -0.95462334 -0.11308906 0.424635
0.16446473 -0.20441045 -0.19749045 -0.4951332 -0.9141008 -0.7512411 0.6045049 0.06638698
-0.079743706 0.02347412 0.8440123 -0.7938624 -0.5341941 0.814863 -0.05526467 -0.34209323
0.32825032 -0.19307776 -0.0059638675 -0.59277546 0.05419226 0.3184332 -0.7309419 0.37764883
00000000: 003a f6bd f8c4 02be f0a6 08be 14d3 0a3f
00000010: 0955 9a3e ae11 36be 823c 0d3f 287e de3e
00000020: dd3a 90bf e9c8 1f3f 390a 3a3e d564 0abf
00000030: 13d5 a83e e1a1 103f 819d 3abe 1f20 b3bf
00000040: 8c5f 82be 4cb1 81bf cdc5 02bf 1e4b 9d3d
00000050: fc1d 17bf 361d 243d a66c 1dbe ae72 aabe
00000060: 86d5 5c3f 840d 8f3b b80f c03e 23b7 503f
00000070: cd09 a33e 9667 91be c7bb 2c3f 3ef7 e63e
00000080: b1fc b53e 4529 183d 847a 2fbe 2698 6ebe
00000090: dd32 dfbc a859 a63f 2224 2cbe a544 d43d
000000a0: 3958 ce3e 750c c83f eb96 023f 3129 c0be
000000b0: 4e4d bdbc 2fd0 5abf db03 133f 55e2 cf3e
000000c0: f5b8 36bd 9552 de3e 7914 92be c723 da3e
000000d0: 874e 413e ce28 31be e4a3 1dbf 84d3 1e3e
000000e0: 7e74 0ebe 5875 2a3f e109 ed3b 0963 edbd
000000f0: af4d 953e 6294 813e 1902 dbbd 0d73 33bf
00000100: a26d 97be f378 83bc 6fce 4f3f f25a 13bf
00000110: 2937 a73e abe5 b7bd fad1 93be e329 443f
00000120: ab91 733f a2a7 9bbf b60f 763e f4e3 15be
00000130: cc31 dbbd 9ab1 453f e903 e2be 446a abbd
00000140: 7aee 743e 33e3 83bf 7c55 943c e344 d5be
00000150: 63b3 243f 86b5 423e 637b 873e 7578 c3bc
00000160: fca4 62be 42d9 443f 87ea 853f 004d 9b3f
00000170: 06ff 18be ee83 343e 5f39 6abf ec23 03bf
00000180: fc9e 513e 2efb 853f ac96 143e bed5 fdbe
00000190: 7337 33bf 6b20 913e 8a31 8b3e 98a5 e7be
000001a0: 2c7e bb3e 4a99 99bd 53a6 3f3f 0619 3b3c
000001b0: 639f 0ebe a25d 11bf 68ee 31bd 3967 913f
000001c0: 6ad9 bc3e 521c 77be 79f4 803d eef2 a9be
000001d0: 5114 0dbf 817c d23e 2fdf 1d3f 0421 18bf
000001e0: 90c8 adbc 15cd 803e becf 54bf 679f 2b3e
000001f0: 7e62 ad3e ec30 083f 8926 acbe 8839 ef3e
00000200: 4959 2d3d 1c30 343f 6d83 28be 19b5 5e3f
00000210: 70e7 c6be 5c7a 483e 0d0e 2abe 4522 403e
00000220: bbb6 bb3d 97d8 8dbe 169e 633d 19fd 063f
00000230: 32ba a93e 1302 aebe 1fd6 e0be 2591 a53e
00000240: 264b 193f 364e d5bd dfa6 35be 84f7 4e3f
00000250: 8165 6dbe a8b5 4ebf 3591 1dbf be04 bf3e
00000260: 5cc0 413e d034 f83a 0110 30bf 0125 863f
00000270: 5eac 8b3e 9e7b 163f 3eb9 303e c5c1 703e
00000280: b97b cb3f ef37 8c3f 9bf5 e5be 58c9 be3e
00000290: 641a 9a3e 62a4 ee3e 995a bbbe 04bd c23b
000002a0: 881f 38bf 7fa1 0b3f 35fb e63d 746a abbd
000002b0: a0e2 183f 1def b5bd dd62 29be 221c a8be
000002c0: f06c 273d 306d d5be a778 4b3f de0a 65be
000002d0: ee91 513e a73d 4f3f c3de b7bd 58ec c1be
000002e0: 7246 d33e ca8f 1bbf 5b95 d2be 8dfd 2c3f
000002f0: 0ea9 4f3f b0f0 333d da31 3e3d 5e9e df3e
00000300: 832a b03e 2fb8 c03e a5a7 dcbe 1504 1fbd
00000310: 1917 073e 2383 fcbe d944 18bf ef72 adbf
00000320: 40e2 523b 85f1 043f 39b5 7ebe 489c 8bbc
00000330: 2386 1abe 53b0 ddbe 79fe 263f f694 ac3f
00000340: e53a 08bf cb1c 51be 696f 963e 3f38 b73e
00000350: 2019 aabd b1de 7a3d b644 32bf e703 8dbe
00000360: 42fb 933e 654b 413f 50a7 43be c28e 19be
00000370: 675b f7be 7453 793f 6202 5c3f 42db 8d3f
00000380: aae7 313d a79c c43e e43b 2dbe 60e8 dbbd
00000390: 51e6 aabd 3262 74bf 3d9b e7bd c269 d93e
000003a0: 7169 283e f950 51be f03a 4abe 1982 fdbe
000003b0: 8302 6abf 5651 40bf d5c0 1a3f e6f5 873d
000003c0: ab50 a3bd cc4c c03c 3111 583f 913a 4bbf
000003d0: f2c0 08bf dd9a 503f 355d 62bd d826 afbe
000003e0: 6d10 a83e 2db6 45be 8c6c c3bb 22c0 17bf
000003f0: b4f8 5d3d ad09 a33e 021f 3bbf 305b c13e
