cache/mid-midi/B01SprdhOaw_The Man That Got Away.npy (npy, 3200 bytes, 1 tensors)

array f4 [1, 768]
-0.7548114 -0.2104116 -0.49338105 0.46255964 -0.048493993 0.04869285 0.38745144 0.35065663
-1.1252619 0.4817654 -0.077809095 -0.36259988 0.10278195 0.7872569 0.30218616 -1.2082148
-0.2410839 -0.89359 -0.022187851 0.28638482 -0.59794843 0.040763367 -0.23497352 -0.24547917
0.9167298 -0.12709498 0.2642923 0.69202894 0.656025 -0.07181529 0.4464892 0.31476542
0.29524887 0.24575967 -0.34759372 -0.42603612 0.31186047 1.7327415 -0.20404468 -0.001727357
-0.043097787 1.242706 0.51652706 -0.75626326 0.21043314 -0.5637694 0.7217148 -0.09596329
0.21999346 0.8311811 -0.4752184 0.70356005 0.29555646 0.43308964 -0.6825451 0.23625194
-0.09130457 0.7121821 -0.114047065 0.40868786 0.09833244 0.5642115 0.2834757 -0.40721735
-0.64727527 -0.13643032 0.79667085 -0.60125905 0.2545621 -0.12611748 -0.34162378 0.47409618
0.6926006 -0.9536626 0.20227292 -0.15270256 -0.15599953 0.195414 -0.68014985 -0.17577706
0.2968426 -0.82703006 -0.39371955 0.066104084 0.32905972 0.31799915 0.26722863 0.23873952
-0.16495456 0.89843106 0.7163852 1.1538993 0.13253383 0.1460111 -0.53600204 -0.7156874
0.0023360238 0.7858316 0.1368447 -0.38978907 -0.0021131083 0.11764733 0.109596394 -0.5008873
0.49261847 0.21435268 0.2846585 -0.22219397 -0.044649966 -0.2957288 0.10189925 0.6114686
0.15729335 -0.107305564 -0.2577122 -0.52417743 -0.27392462 0.14984763 0.5467606 -0.8240562
-0.094520904 0.39534083 -0.34741938 0.47443923 -0.031010957 -0.098346405 -0.11599938 0.34508413
-0.29010627 0.5209676 -0.05155421 0.5753785 -0.46085712 0.21086574 -0.14177461 0.27562168
-0.032603502 0.15129651 0.12648566 0.15808286 0.29828364 -0.4890453 -0.51534885 0.35857376
0.11819195 -0.13571298 -0.46125767 0.4683921 0.008808988 -0.2152782 -0.0692636 0.05569398
0.5170881 0.16733807 -0.42823678 0.3848449 0.33261812 0.35171413 0.27328274 0.46787754
1.243719 0.7532773 -0.44478047 0.67811936 0.4324851 0.8509221 -0.361676 -0.2014954
-0.56270874 0.4860506 0.0067547373 0.019846559 0.49840477 0.19668588 -0.0858198 0.0056629768
0.21469925 -0.29329014 0.87536854 -0.032387223 0.29025882 0.6356335 -0.072804004 0.00710944
0.30066893 -0.50275415 0.10839816 -0.016535707 0.78100914 0.026509492 0.28840408 0.6184141
0.24321385 -0.20315835 -0.34872988 0.06586414 0.22759205 -0.4416862 -0.52160704 -0.74281317
-0.38416153 0.043274555 -0.82006097 0.15688032 0.12565637 -0.57994854 0.31929073 0.8611725
-0.040542778 -0.12385319 0.30793908 0.24265498 -0.118758686 -0.06350485 -0.44642255 -0.36045218
0.37613595 1.1535252 -0.23666604 -0.37387696 -0.4277271 0.5112864 0.9423938 0.4641359
0.5060413 0.5646332 0.06372196 0.31977063 0.01698823 -0.24339776 -0.054456275 0.046492476
0.34039652 -0.34126616 -0.6060059 -0.6790644 -0.99601597 -1.0818405 0.4233408 0.21334274
-0.34178767 0.1775281 0.86770284 -0.6391665 -0.15630947 0.7359137 -0.5043054 -0.36266518
0.3808467 -0.2162012 0.018441278 -0.27100274 -0.5165663 0.6589252 -0.41826117 0.94541574
00000000: 523b 41bf 2376 57be 719c fcbe 9ed4 ec3e
00000010: a3a1 46bd 2772 473d 0960 c63e 4489 b33e
00000020: 9508 90bf f4a9 f63e 605a 9fbd b1a6 b9be
00000030: 587f d23d ab89 493f 25b8 9a3e c8a6 9abf
00000040: b3de 76be 50c2 64bf 4cc3 b5bc 08a1 923e
00000050: 2613 19bf 7df7 263d e69c 70be e45e 7bbe
00000060: ceae 6a3f 3025 02be 5251 873e cf28 313f
00000070: 41f1 273f e513 93bd 3c9a e43e ef28 a13e
00000080: dc2a 973e 6ca8 7b3e cef7 b1be 6821 dabe
00000090: 2dac 9f3e 79ca dd3f 17f1 50be 7c68 e2ba
000000a0: 4e87 30bd fd10 9f3f 1e3b 043f 789a 41bf
000000b0: c97b 573e 3153 10bf 4dc2 383f 6788 c4bd
000000c0: f745 613e 49c8 543f d34f f3be 831c 343f
000000d0: 2d53 973e edbd dd3e 47bb 2ebf 07ec 713e
000000e0: e4fd babd 9151 363f 8291 e9bd 893f d13e
000000f0: 8562 c93d 2a70 103f ba23 913e cb7e d0be
00000100: d5b3 25bf 64b4 0bbe 9ff2 4b3f 1dec 19bf
00000110: f755 823e f124 01be 50e9 aebe bcbc f23e
00000120: 464e 313f 3b23 74bf a220 4f3e 0f5e 1cbe
00000130: 57be 1fbe 9c1a 483e 4d1e 2ebf e7fe 33be
00000140: c1fb 973e 3eb8 53bf 9c95 c9be 9461 873d
00000150: 847a a83e c9d0 a23e 31d2 883e 2278 743e
00000160: d9e9 28be 94ff 653f 0565 373f f9b2 933f
00000170: f3b6 073e ef83 153e 6e37 09bf 4a37 37bf
00000180: fa17 193b 422c 493f 0421 0c3e 6f92 c7be
00000190: 137c 0abb 15f1 f03d 1374 e03d 263a 00bf
000001a0: 7d38 fc3e 457f 5b3e c2be 913e d186 63be
000001b0: e2e2 36bd c469 97be 8eb0 d03d 3589 1c3f
000001c0: 8211 213e 05c3 dbbd daf2 83be 7e30 06bf
000001d0: d93f 8cbe a871 193e 81f8 0b3f 59f5 52bf
000001e0: 2d94 c1bd 1d6a ca3e f4e0 b1be b3e9 f23e
000001f0: b10a febc d769 c9bd 1591 edbd deae b03e
00000200: cf88 94be 225e 053f 822a 53bd 014c 133f
00000210: 77f5 ebbe 30ed 573e 5d2d 11be 491e 8d3e
00000220: 408b 05bd 79ed 1a3e 7585 013e 79e0 213e
00000230: a2b8 983e 2564 fabe e7ed 03bf fb96 b73e
00000240: 9f0e f23d 58f8 0abe f729 ecbe 17d1 ef3e
00000250: 9353 103c e371 5cbe 13da 8dbd 5f1f 643d
00000260: e35f 043f ac5a 2b3e da41 dbbe 640a c53e
00000270: ec4c aa3e e013 b43e b7eb 8b3e a58d ef3e
00000280: 2f32 9f3f c8d6 403f 44ba e3be 3b99 2d3f
00000290: b06e dd3e 08d6 593f 992d b9be cf54 4ebe
000002a0: ae0d 10bf a0db f83e d856 dd3b 4095 a23c
000002b0: e92e ff3e 0668 493e 4bc2 afbd 7e90 b93b
000002c0: 1fda 5b3e 202a 96be 2718 603f 77a8 04bd
000002d0: ce9c 943e e1b8 223f 441a 95bd 4ef6 e83b
000002e0: 47f1 993e 7fb4 00bf dbff dd3d e475 87bc
000002f0: 37f0 473f 6f2a d93c b3a9 933e 6350 1e3f
00000300: 0d0d 793e be08 50be b98c b2be c7e3 863d
00000310: e40d 693e b224 e2be 0a88 05bf 0129 3ebf
00000320: d2b0 c4be a940 313d 84ef 51bf 3ca5 203e
00000330: 10ac 003e 8277 14bf 137a a33e cd75 5c3f
00000340: 2f10 26bd bea6 fdbd 31aa 9d3e 8c7a 783e
00000350: c137 f3bd d50e 82bd 7f91 e4be 308d b8be
00000360: e494 c03e b7a6 933f 9558 72be cd6c bfbe
00000370: 0cff dabe aae3 023f b840 713f 38a3 ed3e
00000380: ec8b 013f cd8b 103f a980 823d fab8 a33e
00000390: e72a 8b3c 433d 79be 8b0d 5fbd e56e 3e3d
000003a0: 7448 ae3e 70ba aebe 3423 1bbf 2ad7 2dbf
000003b0: e7fa 7ebf c079 8abf 20c0 d83e 8576 5a3e
000003c0: cbfe aebe edc9 353e c621 5e3f 6aa0 23bf
000003d0: 970f 20be d764 3c3f 291a 01bf 40af b9be
000003e0: 57fe c23e d963 5dbe 2a12 973c dfc0 8abe
000003f0: b03d 04bf 52af 283f 5426 d6be c406 723f
