cache/mid-midi/b2nlbBE_l1Q_Serenade to Spring.npy (npy, 3200 bytes, 1 tensors)

array f4 [1, 768]
0	0xbf06b268	-0.52615976
1	0xbe8f721f	-0.28016755
2	0xbf152279	-0.58255726
3	0x3f1bf1b8	0.6091571
4	0x3ed9880b	0.42486605
5	0xbedc4e71	-0.43028596
6	0x3f523e08	0.821259
7	0x3e505f6e	0.20348904
8	0xbf1eb8d3	-0.6200077
9	0x3eecbae9	0.4623635
10	0x3e5d9e3a	0.2164239
11	0xbec2b2b7	-0.38026974
12	0xbe148331	-0.1450317
13	0x3f08ae60	0.53391075
14	0x3ef98fe9	0.48742607
15	0xbf69a749	-0.9127088
16	0xbe06a760	-0.13149786
17	0xbf33d9f3	-0.7025444
18	0xbf22f704	-0.63658166
19	0x3e9d9b21	0.30782416
20	0xbd7b7b76	-0.06139704
21	0x3e257d91	0.16161181
22	0xbf3e71e2	-0.7439252
23	0xbeeba0ad	-0.46021023
24	0x3f8a87d2	1.0822699
25	0xbf141412	-0.57843125
26	0x3f0ac64c	0.54208827
27	0x3f1c8575	0.6114114
28	0x3f85d20e	1.0454729
29	0xbea96277	-0.33082935
30	0x3e89b64a	0.26896888
31	0x3ecb956c	0.39762437
32	0x3ea6eaec	0.32601106
33	0x3e2f8cc0	0.17143536
34	0xbeb0e297	-0.34547874
35	0xbe0563f8	-0.13026416
36	0x3eb3dd4a	0.35129768
37	0x3f938c55	1.1527201
38	0xbded89bc	-0.11598536
39	0xbdaf41a5	-0.085574426
40	0x3eaa1a04	0.33222973
41	0x3fd70e44	1.6801229
42	0x3e2887e4	0.16458088
43	0xbea2928a	-0.31752425
44	0x3e8f1ccb	0.27951655
45	0xbe9b7ca1	-0.30368522
46	0x3e8bd038	0.27307296
47	0x3d9e0eab	0.077176414
48	0xbeaa58cf	-0.3327088
49	0x3f3296e2	0.6976148
50	0xbe2caa4f	-0.16861843
51	0x3f16cf98	0.5891051
52	0x3d9dadbd	0.076991536
53	0x3d166370	0.036715925
54	0xbf03c610	-0.51474094
55	0x3ec6aeb1	0.38805154
56	0xbe4cfc39	-0.2001809
57	0x3f249510	0.6428995
58	0x3e838c2d	0.25692883
59	0x3e1788eb	0.14798324
60	0x3ea1de4a	0.31614906
61	0x3ee2ab21	0.44271186
62	0xbe6cdbe0	-0.2313075
63	0xbebd3932	-0.369577
64	0xbea70c08	-0.32626367
65	0xbe89bfd0	-0.26904154
66	0x3f65efa5	0.89818794
67	0x3d550732	0.052008815
68	0x3e894e42	0.26817518
69	0xbe8934cf	-0.26798102
70	0xbe77fe44	-0.24218088
71	0x3e1cd75e	0.15316531
72	0x3f0deccd	0.55439454
73	0xbf8eb63a	-1.1149361
74	0x3e1843cc	0.14869612
75	0xbe2cefef	-0.16888402
76	0xbd905675	-0.0704774
77	0x3ec9bba4	0.3940097
78	0xbf58540c	-0.84503245
79	0xbc8f3693	-0.017482078
80	0x3d6f92e7	0.058489706
81	0xbf0360d8	-0.51319647
82	0x3ddc3b8a	0.10753544
83	0xbd03804a	-0.032104768
84	0x3f198a8f	0.5997705
85	0x3ea061ae	0.31324524
86	0x3dc44ab4	0.09584561
87	0xbeb891bf	-0.36048695
88	0xbe6daaa8	-0.23209631
89	0x3f2aac5d	0.66669255
90	0x3f5782bf	0.8418388
91	0x3f84a6c6	1.0363395
92	0xbe52e4bd	-0.20595069
93	0x3ec8f7c3	0.39251527
94	0xbf1d6e4f	-0.6149644
95	0xbefefd94	-0.4980284
96	0x3b691050	0.0035562702
97	0x3fa50abd	1.2893902
98	0xbd87f531	-0.066385634
99	0xbec04aed	-0.37557164
100	0x3e2634e6	0.16231117
101	0x3e91bf00	0.28466034
102	0xbcec105e	-0.028816398
103	0xbf427602	-0.75961316
104	0x3e2d48ad	0.16922255
105	0x3d993fdd	0.07482884
106	0x3f834558	1.0255537
107	0xbe814379	-0.2524679
108	0xbdc883db	-0.097907744
109	0xbe6c720f	-0.23090385
110	0xbdb5616d	-0.08856473
111	0x3f619a9c	0.8812654
112	0x3f0eabbc	0.55730796
113	0xbbe937de	-0.0071172556
114	0xbe9c7b36	-0.30562752
115	0xbed37323	-0.4129878
116	0xbd7c386f	-0.061577257
117	0x3e0afc8d	0.13572903
118	0x3ee857d0	0.45379496
119	0xbe98ad59	-0.29819754
120	0xbd61fd30	-0.0551731
121	0x3e22fa03	0.15915684
122	0xbf39cdc0	-0.72579575
123	0xbe395e65	-0.18102415
124	0x3e2a8bb5	0.16654857
125	0x3e3040b2	0.1721218
126	0xbf07929c	-0.52958083
127	0x3e163361	0.14668037
128	0x3da30686	0.079602286
129	0x3f57641d	0.84137136
130	0x3e948260	0.29005718
131	0x3f6f7b42	0.9354745
132	0xbf414318	-0.75493
133	0xbe48c8a4	-0.19607788
134	0xbeb14b60	-0.3462782
135	0xbe32c6c4	-0.17458636
136	0xbb5fcb4c	-0.0034148274
137	0xbd8c05e1	-0.06837059
138	0x3db9d8ca	0.09074552
139	0x3eea8907	0.4580767
140	0x3f79b884	0.97547174
141	0xbeb6d682	-0.3571053
142	0xbf2e9e4e	-0.68210304
143	0x3f242a71	0.6412726
144	0x3ec3db6f	0.38253352
145	0xbf31cb5a	-0.69450915
146	0xbef42fef	-0.4769282
147	0x3f14310b	0.57887334
148	0x3da970a1	0.082734354
149	0xbf03867f	-0.513771
150	0x3d84b596	0.06479947
151	0x3e476462	0.19471887
152	0xbd67b3f7	-0.056568112
153	0x3e353ebb	0.17699711
154	0xbdf519f6	-0.11967842
155	0x3f520b68	0.82048655
156	0x3e3d34e2	0.18477204
157	0x3ee91cd7	0.45529816
158	0x3e9753fd	0.29556265
159	0x3f046e95	0.51731235
160	0x3f67167f	0.902687
161	0x3f4ad6d8	0.79234076
162	0x3d1a5b11	0.037684504
163	0x3f2db2c4	0.678509
164	0x3f0f5c23	0.55999964
165	0x3f5ed881	0.8704911
166	0xbf0d8613	-0.55282706
167	0x3dfad351	0.12247337
168	0xbf28406d	-0.65723306
169	0x3eb763f1	0.35818437
170	0xbc20f4f1	-0.009824024
171	0xbd6a08c5	-0.05713727
172	0x3f3921fb	0.72317475
173	0xbe0645a8	-0.13112509
174	0xbe4698f1	-0.1939428
175	0xbeefc27d	-0.4682807
176	0x3ee29d50	0.44260645
177	0xbe7f21d3	-0.24915247
178	0x3f242490	0.6411829
179	0xbe57d610	-0.21077752
180	0xbdb91d3b	-0.090387784
181	0x3eec983a	0.4620989
182	0xbe9bfc3d	-0.3046588
183	0xbe7cdea2	-0.24694303
184	0x3edaaa37	0.4270799
185	0xbf848d30	-1.0355587
186	0xbdb03b6a	-0.08605082
187	0x3ee667e1	0.45001128
188	0x3f13f98d	0.5780266
189	0x3e0f8dea	0.1401898
190	0x3dc70ba5	0.09719018
191	0x3eca7f68	0.39550328
192	0x3eccdb6d	0.4001116
193	0x3ddc999b	0.107714854
194	0xbea09a7a	-0.31367856
195	0x3dbb6889	0.09150798
196	0x3e3fdd8f	0.18736862
197	0xbeda579e	-0.42644972
198	0xbecea7c7	-0.4036238
199	0xbf88849a	-1.0665467
200	0xbe4e9f73	-0.20178013
201	0xbda5858f	-0.08082115
202	0x3cdf8c4d	0.02728858
203	0x3eba61d4	0.36402762
204	0x3e11d8ab	0.14242809
205	0xbee27fcc	-0.44238126
206	0x3e769773	0.24081211
207	0x3f38b977	0.72157997
208	0xbd9cf85f	-0.076645605
209	0xbb5a8dea	-0.0033348748
210	0x3e8134c8	0.2523558
211	0x3f4c778d	0.7986992
212	0xbc27aded	-0.010234338
213	0xbe8d4b6a	-0.275966
214	0xbe1c1760	-0.15243292
215	0xbe4e9edc	-0.20177788
216	0x3ed33ca7	0.41257212
217	0x3f007115	0.5017255
218	0xbe5fd486	-0.21858415
219	0xbe3cd426	-0.18440303
220	0xbf255e0a	-0.6459662
221	0x3f010d27	0.50410694
222	0x3f106bff	0.5641479
223	0x3f0fd51d	0.5618456
224	0xbd85ecc5	-0.06539301
225	0x3ddcbae1	0.10777832
226	0xbebb017c	-0.3652457
227	0x3d72e09a	0.059296228
228	0xbdaca90b	-0.0843068
229	0xbf616528	-0.8804498
230	0xbdd08eed	-0.10183511
231	0x3e6f6c23	0.23381095
232	0xbe8610ad	-0.26184598
233	0xbca53cc9	-0.020170586
234	0xbf3b9e58	-0.7328849
235	0xbeb27caf	-0.3486075
236	0xbf0744e6	-0.52839506
237	0xbf3355c3	-0.70052737
238	0x3f28a807	0.6588139
239	0x3ea17d69	0.31540993
240	0xbe8f4a34	-0.279863
241	0xbcc59c6b	-0.024122437
242	0x3f3d5124	0.73951936
243	0xbf8d753e	-1.1051404
244	0xbdc1ac33	-0.094566725
245	0x3f395df6	0.72409
246	0x3d2ccf8e	0.042190127
247	0xbcddc2b1	-0.027070375
248	0x3e178b74	0.14799291
249	0xbe9f44b6	-0.3110711
250	0xbd63c7aa	-0.055610336
251	0xbf471519	-0.7776657
252	0xbe9d1fb8	-0.30688262
253	0x3e6c17e0	0.23055983
254	0xbeb8ecb8	-0.36118102
255	0x3f0ac5f0	0.5420828
