cache/mid-midi/B34qwRrkSvQ_Early Mornin' Rain.npy (npy, 3200 bytes, 1 tensors)

array f4 [1, 768]
-0.32576454 -0.10765123 -0.14261329 0.74832064 -0.07392523 -0.3520801 0.64988464 0.44905514
-1.0424511 0.202366 0.4909833 -0.96640265 0.016052563 0.7205988 0.60916907 -1.2882693
-0.15449716 -0.6513507 -0.23556446 -0.05260786 -0.31873524 0.58785397 -0.5612749 -0.71876824
0.8546002 0.028815577 0.12487614 0.6673713 0.5935629 -0.024844533 0.59742826 0.5015371
-0.15278813 0.16282775 -0.009945834 0.025330381 -0.47875315 1.4954314 -0.6793855 0.27987885
0.26817623 1.702775 0.7642258 -0.6678465 -0.8456606 -0.39079943 0.93753105 0.100350045
-0.38147384 0.7014408 -0.5713391 0.56426054 0.43920666 0.27086607 -0.31233838 -0.2532839
-0.30149186 0.4331777 -0.2809876 0.26887622 0.5302477 0.5221056 0.34365156 -0.25704014
-0.8353494 -0.17493473 0.9610617 -0.9343643 0.14036763 -0.4565812 -0.15433133 0.39650458
0.5398227 -1.2620264 -0.13718468 -0.15979221 -0.13134179 0.39725563 -0.6630819 -0.730197
0.14078574 -0.93299365 0.11080868 0.19576386 0.3646297 0.02127932 -0.37917072 0.165237
-0.13412817 0.4851786 1.0551237 1.1646479 -0.49431184 0.40405372 -0.7646762 -0.32907856
-0.044682708 1.302738 -0.17453387 -0.2211636 0.2727481 -0.07089685 0.118119396 -0.62638533
0.10398683 -0.027321845 1.1409936 -0.21478489 -0.25856498 -0.18433073 -0.28257728 0.490408
0.4704971 -0.3974307 -0.19523194 -0.72171706 -0.398274 0.05076079 0.67017704 -1.3066462
0.25283122 0.62482166 -0.2537504 -0.13881406 -0.103817 0.058673456 -0.43657857 0.9998171
-0.37336436 0.7789345 0.31177923 0.96805376 -0.8052348 0.39205608 -0.33636922 0.06964329
-0.27118686 0.34464258 0.15045837 0.71228087 0.839463 -0.7347969 -0.96995455 0.63047516
0.3836141 -0.31724137 0.00027814135 0.7522024 -0.40846312 -0.27377436 -0.094493404 0.39625862
0.27354798 0.36712265 -0.39033192 0.64421 0.71764225 0.67084825 0.51546144 0.47020683
1.0877861 0.7611493 -0.8363383 0.6205866 0.11326905 0.8929861 -0.61698896 0.0422218
-0.40986246 0.3699843 0.27283806 -0.5600733 1.0254108 -0.36533684 0.17650393 -0.07618867
0.11444732 -0.12767607 0.7803092 0.4182064 -0.2753137 0.65702605 0.002475597 -0.502818
0.30728188 -0.1843457 0.21446529 0.4704984 0.93584025 0.50319177 0.4946151 0.3702482
0.12046058 0.5270304 -0.14686203 -0.32301062 0.559019 -0.6913115 -0.53455025 -1.021994
-0.18511863 0.35642406 -0.52489537 0.002635613 0.09999414 -0.43053564 0.8532626 1.517101
-0.5303568 -0.37222296 0.92305166 0.4114328 0.28915033 0.039412294 -1.010429 -0.054371327
0.7690245 1.2031931 -0.103309214 -0.30952337 0.178058 0.9287822 1.2248677 0.76293
-0.09613943 0.9425063 -0.050494887 -0.17842779 0.469947 -0.49339303 -0.2820823 0.12581839
0.17348917 0.007881476 -0.5710936 -0.9721286 -1.0360944 -0.82243437 0.6383835 -0.17083243
0.12624119 -0.2757477 0.5786174 -0.9206381 -0.61754775 0.76471484 -0.5986098 -0.42898715
0.110933274 0.019645447 0.11473867 -0.22412425 0.30400106 0.25084117 -0.20570749 0.7568816
00000000: 9cca a6be 4078 dcbd 3809 12be f191 3f3f
00000010: 1c66 97bd d843 b4be d75e 263f 8eea e53e
00000020: 0a6f 85bf 0839 4f3e 2a62 fb3e 2a66 77bf
00000030: aa80 833c 2a79 383f 81f2 1b3f 02e6 a4bf
00000040: 8134 1ebe ebbe 26bf cf37 71be 577b 57bd
00000050: 4431 a3be 997d 163f b6af 0fbf 3201 38bf
00000060: 14c7 5a3f a50e ec3c 10bf ff3d d8d8 2a3f
00000070: bdf3 173f c386 cbbc 0ff1 183f bc64 003f
00000080: 7e74 1cbe 51bc 263e daf3 22bc a981 cf3c
00000090: 221f f5be 4c6a bf3f 35ec 2dbf 484c 8f3e
000000a0: 654e 893e 88f4 d93f 4da4 433f fdf7 2abf
000000b0: 377d 58bf dd16 c8be 0902 703f 5384 cd3d
000000c0: 8a50 c3be a091 333f 4743 12bf 6173 103f
000000d0: b2df e03e f5ae 8a3e d1ea 9fbe 6dae 81be
000000e0: 245d 9abe 78c9 dd3e 9bdd 8fbe 25aa 893e
000000f0: 50be 073f b6a8 053f 19f3 af3e c49a 83be
00000100: 75d9 55bf 1722 33be 2408 763f 8032 6fbf
00000110: 88bc 0f3e 03c5 e9be 0809 1ebe a602 cb3e
00000120: d231 0a3f 158a a1bf 247a 0cbe 92a0 23be
00000130: 767e 06be 1765 cb3e bcbf 29bf 31ee 3abf
00000140: 232a 103e acd8 6ebf a9ef e23d 5276 483e
00000150: beb0 ba3e f851 ae3c aa22 c2be e333 293e
00000160: e558 09be 5469 f83e 4b0e 873f 2f13 953f
00000170: 7116 fdbe 21e0 ce3e d2c1 43bf fc7c a8be
00000180: 3705 37bd 1ec0 a63f 02b9 32be b678 62be
00000190: a4a5 8b3e 5e32 91bd 95e8 f13d ca5a 20bf
000001a0: 0cf7 d43d 10d2 dfbc 140c 923f 92f0 5bbe
000001b0: a162 84be 32c1 3cbe f8ad 90be c216 fb3e
000001c0: ffe4 f03e 097c cbbe e2ea 47be 73c2 38bf
000001d0: 92ea cbbe 8cea 4f3d b990 2b3f 2f40 a7bf
000001e0: 1873 813e 50f4 1f3f 93eb 81be 4625 0ebe
000001f0: 029e d4bd 9453 703d 3a87 dfbe 03f4 7f3f
00000200: 9d29 bfbe 4068 473f 87a1 9f3e 5fd2 773f
00000210: de23 4ebf 93bb c83e 9638 acbe 24a1 8e3d
00000220: 01d9 8abe fe74 b03e c211 1a3e 0a58 363f
00000230: 0ce7 563f a61b 3cbf f14e 78bf d266 213f
00000240: 1169 c43e 766d a2be 80d3 9139 5690 403f
00000250: 1422 d1be 272c 8cbe c285 c1bd 69e2 ca3e
00000260: 7b0e 8c3e 80f7 bb3e 96d9 c7be f2ea 243f
00000270: 67b7 373f b6bc 2b3f 48f5 033f f3be f03e
00000280: 933c 8b3f aeda 423f 441a 56bf c3de 1e3f
00000290: 9bf9 e73d bd9a 643f fdf2 1dbf c4f0 2c3d
000002a0: 7ed9 d1be 956e bd3e 6eb1 8b3e f760 0fbf
000002b0: a940 833f 6e0d bbbe 72bd 343e ce08 9cbd
000002c0: 5b63 ea3d 84bd 02be 58c2 473f 261f d63e
000002d0: ebf5 8cbe dc32 283f a03d 223b aeb8 00bf
000002e0: 0d54 9d3e 1fc5 3cbe ca9c 5b3e 2be5 f03e
000002f0: 3a93 6f3f 2dd1 003f 313e fd3e 2c91 bd3e
00000300: 09b4 f63d 77eb 063f 0063 16be a661 a5be
00000310: df1b 0f3f caf9 30bf 49d8 08bf b3d0 82bf
00000320: bd8f 3dbe 377d b63e 8b5f 06bf 40ba 2c3b
00000330: bac9 cc3d 2b6f dcbe 6b6f 5a3f 5e30 c23f
00000340: 77c5 07bf 0294 bebe 1d4d 6c3f 52a7 d23e
00000350: 830b 943e c96e 213d bd55 81bf 78b4 5ebd
00000360: cade 443f 3b02 9a3f c893 d3bd d979 9ebe
00000370: d654 363e acc4 6d3f 77c8 9c3f 614f 433f
00000380: c0e4 c4bd 1848 713f bad3 4ebd c6b5 36be
00000390: e59c f03e 039e fcbe 176d 90be 89d6 003e
000003a0: 25a7 313e 4e21 013c 3133 12bf 6cdd 78bf
000003b0: be9e 84bf 0f8b 52bf 1a6d 233f b2ee 2ebe
000003c0: 5f45 013e cd2e 8dbe 4520 143f f0ae 6bbf
000003d0: 9c17 1ebf 5ac4 433f 7e3e 19bf 34a4 dbbe
000003e0: fc30 e33d 7def a03c 1cfc ea3d d480 65be
000003f0: 07a6 9b3e 416e 803e fca4 52be fec2 413f
