cache/mid-midi/B4-OxOmsqR0_Can't Pretend.npy (npy, 3200 bytes, 1 tensors)

array f4 [1, 768]
0	0xbe94b992	-0.2904783
1	0xbe6e0356	-0.2324346
2	0xbf1aefe0	-0.6052227
3	0x3e3f9458	0.18708932
4	0xbf0e116c	-0.55495334
5	0xbda107a3	-0.07862785
6	0xbe15e23d	-0.14637084
7	0x3f0fea0b	0.56216496
8	0xbe20558c	-0.15657634
9	0x3cfcaf85	0.030845413
10	0x3f4c8328	0.7988763
11	0x3d9704d5	0.073739685
12	0x3ee1e72d	0.44121686
13	0x3f9497ef	1.1608866
14	0x3e6f5d45	0.23375423
15	0xbfc1c7de	-1.513912
16	0xbef91bf0	-0.48654127
17	0xbf2db814	-0.67859006
18	0xbf17f0a9	-0.59351593
19	0xbcf68898	-0.03009443
20	0xbebaa4ed	-0.36453953
21	0x3e9c52d4	0.30531943
22	0xbf08d459	-0.53449017
23	0xbf60abdc	-0.87762237
24	0x3f968382	1.1758883
25	0xbd1f475d	-0.038886417
26	0x3f4951c7	0.7864041
27	0xbe474029	-0.19458069
28	0x3f581dfd	0.8442076
29	0xbe1fc813	-0.15603666
30	0x3ccbcf7a	0.024879206
31	0x3e1f84f6	0.15578064
32	0xbefe3807	-0.4965212
33	0x3f545880	0.8294754
34	0xbe8d2c08	-0.27572656
35	0xbe6fc096	-0.2341331
36	0xbe67e3f0	-0.22645545
37	0x3fde6d9b	1.7377199
38	0xbdda4e2e	-0.10659443
39	0x3ed3d157	0.4137065
40	0x3d9e59ba	0.07731958
41	0x3ff1aeb6	1.8881443
42	0x3f3848e7	0.7198624
43	0xbf1cf91d	-0.61317617
44	0x3acc586c	0.0015590317
45	0xbe30eee4	-0.1727863
46	0x3fa2905f	1.2700309
47	0x3eb297aa	0.34881335
48	0x3f0ac53e	0.5420722
49	0x3f55b11f	0.8347339
50	0xbdc3d040	-0.09561205
51	0x3e9a87be	0.30181688
52	0x3d1c32f4	0.03813453
53	0xbeacaba2	-0.33724695
54	0xbdab539f	-0.08365559
55	0x3f03e492	0.51520646
56	0xbeb1158d	-0.34586754
57	0x3f0a8179	0.5410381
58	0x3dce1e28	0.100643456
59	0x3ea11297	0.31459495
60	0x3c26071d	0.010133532
61	0x3f269270	0.65067196
62	0x3edee940	0.4353733
63	0xbf01d2d0	-0.507123
64	0xbf34fe86	-0.7070087
65	0x3e1e5715	0.15462907
66	0x3f53433e	0.8252448
67	0xbed2f2b5	-0.41200796
68	0xbe4f4763	-0.20242076
69	0xbe863632	-0.26213223
70	0xbe916aad	-0.284017
71	0x3eed8d96	0.46397084
72	0x3f42daba	0.76115
73	0xbf606881	-0.8765946
74	0x3df9a8f5	0.12190429
75	0x3e41822c	0.18897313
76	0xbd9a6025	-0.07537869
77	0x3e54d54f	0.20784496
78	0xbe9847bb	-0.29742226
79	0xbedcc711	-0.43120626
80	0x3e4594fd	0.19295116
81	0xbf062411	-0.5239878
82	0xbecc919c	-0.3995484
83	0x3e913220	0.28358555
84	0x3f5fe918	0.8746505
85	0xbd901edd	-0.07037137
86	0xbf06fd55	-0.52730304
87	0x3d2e5159	0.042558048
88	0xbe8afab6	-0.27144402
89	0x3efa96a3	0.48943052
90	0x3fa5d2fb	1.2955011
91	0x3facb935	1.3494021
92	0xbec8a6ca	-0.3918975
93	0x3c0c21c5	0.008552973
94	0xbf06ac4b	-0.5260665
95	0xbee7d924	-0.45282853
96	0x3ebfbb94	0.37447798
97	0x3f60df42	0.87840664
98	0x3e944105	0.28955856
99	0x3c455dc4	0.012046281
100	0x3ea92cf5	0.33042112
101	0x3db5c1a0	0.08874822
102	0xbec6c632	-0.38823086
103	0xbf5c6e6e	-0.86106
104	0xbe408910	-0.18802285
105	0xbe00e559	-0.12587489
106	0x3f56e017	0.83935684
107	0x3e72f3dd	0.23725839
108	0x3f2479bf	0.6424827
109	0xbefe178d	-0.49627343
110	0xbeca03a2	-0.39455897
111	0x3f2ef8a3	0.6834814
112	0x3df2af9a	0.118498996
113	0x3d51c10f	0.051209506
114	0xbd76a734	-0.06021805
115	0xbf00f286	-0.5037006
116	0xbedc5f89	-0.43041638
117	0xbe3539aa	-0.17697778
118	0x3eb6014f	0.35547873
119	0xbf265c45	-0.6498454
120	0xbe0493df	-0.12947033
121	0x3e9f004c	0.31054914
122	0xbe085e97	-0.13317333
123	0xbe84f19f	-0.25965592
124	0x3e0a000a	0.13476577
125	0xbe463ec2	-0.19359878
126	0xbdc64af8	-0.09682268
127	0x3f2e1f99	0.68016964
128	0xbea2769c	-0.31731117
129	0x3f5344d7	0.82526916
130	0x3dba25db	0.090892516
131	0x3fb8ad4a	1.4427884
132	0xbec7b37e	-0.3900413
133	0x3e8ef9b1	0.27924874
134	0x3e126284	0.14295393
135	0xbcbc53fc	-0.022989266
136	0xbe9f05c0	-0.31059074
137	0x3eb142a4	0.34621155
138	0x3c5cd102	0.013477566
139	0x3e4f3790	0.20236039
140	0x3ed5ad56	0.41733807
141	0xbf5680c1	-0.8379021
142	0xbf1a0377	-0.60161537
143	0x3dea90c8	0.11453396
144	0x3f26ced7	0.6515936
145	0x3ddc4412	0.10755171
146	0xbb3535ad	-0.0027650401
147	0x3ec53cdd	0.38522997
148	0xbd92e480	-0.07172489
149	0xbec4f278	-0.3846624
150	0xbeb523e1	-0.35378936
151	0x3e9d567a	0.3073004
152	0x3e61a334	0.22034913
153	0x3dba7add	0.091054656
154	0xbf31081e	-0.6915301
155	0x3f7dbaee	0.9911336
156	0x3c706445	0.014672344
157	0x3eaa671d	0.33281794
158	0x3f07f7b4	0.5311234
159	0x3eb34a8a	0.35017806
160	0x3f9b49e5	1.2131926
161	0x3f2a65a0	0.6656132
162	0xbeb5ba74	-0.35493815
163	0x3db4e429	0.088325806
164	0x3e7efe61	0.24901725
165	0x3f293e37	0.6611056
166	0xbea96005	-0.3308107
167	0xbb547427	-0.0032417865
168	0xbf485592	-0.7825557
169	0x3ee3f5ea	0.44523555
170	0x3eb0eed3	0.34557208
171	0x3d652181	0.055940155
172	0x3ef91b72	0.48653752
173	0xbc96e02c	-0.01841744
174	0x3e901da2	0.28147608
175	0x3f63abb9	0.889339
176	0x3ec9bc29	0.39401367
177	0x3d1bff5d	0.03808533
178	0x3f08c310	0.5342264
179	0xbed9e8fb	-0.42560562
180	0x3e412837	0.18862997
181	0x3f179791	0.59215647
182	0x3e1d205c	0.15344375
183	0x3dcc2d38	0.09969562
184	0x3f251bf0	0.64495754
185	0xbf78d1a3	-0.9719488
186	0x3dfd8ba8	0.12380153
187	0x3dfd0f3b	0.123564206
188	0x3f8be6bb	1.0929788
189	0x3dfe5b7c	0.12419793
190	0x3f05f6a1	0.5232945
191	0x3ee697fb	0.45037827
192	0x3e4e8a89	0.20170034
193	0x3eefa10d	0.4680256
194	0xbf2ed750	-0.6829729
195	0xbedc6fba	-0.4305399
196	0x3f177364	0.5916045
197	0xbf046e0e	-0.5173043
198	0xbf2ab188	-0.6667714
199	0xbeed6585	-0.46366516
200	0x3e7ea79c	0.24868625
201	0x3d27e9db	0.040994506
202	0xbec7f92f	-0.390573
203	0xbc16876c	-0.0091875605
204	0x3f40e2ce	0.75346076
205	0xbf38129b	-0.7190339
206	0x3f099ae5	0.53751975
207	0x3f406a64	0.7516234
208	0xbec07c6f	-0.37594935
209	0x3db0a020	0.086242914
210	0x3e1895e8	0.14900935
211	0x3f0b0b48	0.5431409
212	0xbe21d29b	-0.15802996
213	0x3e890a26	0.26765555
214	0xbec52489	-0.38504437
215	0xbe4c9bdb	-0.19981329
216	0x3f4c9652	0.7991687
217	0x3f75e1ce	0.96047676
218	0xbe823a9f	-0.2543535
219	0xbe04edc9	-0.12981333
220	0x3d90ab7f	0.0706396
221	0x3f1a1f3a	0.602039
222	0x3f7015fb	0.9378354
223	0x3f012e48	0.50461245
224	0xbccf6c10	-0.025320083
225	0x3e826951	0.25470975
226	0x3f1abe26	0.60446393
227	0x3c8ae9e1	0.016957225
228	0x3e91980c	0.28436315
229	0xbe1fa6dc	-0.15590996
230	0xbd0ad207	-0.033891704
231	0xbd503207	-0.05082896
232	0x3eb9a28c	0.36256826
233	0xbe5be064	-0.21472317
234	0xbf4ac49c	-0.7920625
235	0xbf305d45	-0.6889232
236	0xbf154219	-0.5830398
237	0xbf85b84c	-1.0446868
238	0x3f57a3b0	0.8423414
239	0x3f3e1d6b	0.7426364
240	0x3d83dbd6	0.06438415
241	0xbedefc90	-0.43552065
242	0x3f38460d	0.7198189
243	0xbf420238	-0.75784636
244	0xbe268489	-0.16261496
245	0x3f6883e7	0.90826267
246	0x3d851fde	0.06500219
247	0xbf2e059d	-0.67977315
248	0x3db7a036	0.08966105
249	0xbef1d6a7	-0.4723408
250	0xbea1bdc4	-0.31590092
251	0xbecd88d7	-0.40143463
252	0xbdfd68eb	-0.12373527
253	0x3f3c716e	0.7361058
254	0xbf3ec142	-0.7451364
255	0x3d513b7c	0.05108212
