cache/mid-midi/rdpBZ5_b48g_Wake Me Up When September Ends.npy (npy, 3200 bytes, 1 tensors)

array f4 [1, 768]
00000000: f463 f9be 39b2 1abe 1f43 10bf 912d b33e
00000010: 5f35 d43d fdbc e5be dfa0 ea3e 0864 9b3e
00000020: 92d2 acbe 96c8 983e b133 c33e 1b06 4abd
00000030: fd65 05bf 5696 5c3f 0d23 fa3e 11ac 88bf
00000040: 3800 f3be faa0 debe 06a9 2bbf b7ec 453e
00000050: c717 f13c c66a fd3b c31b 47bf b28d 9ebe
00000060: 5f97 923f 94a5 0ebf ddc2 523f 7c22 b13e
00000070: ae1a 663f e273 6abd 1a2f 0ebe c106 d33e
00000080: e158 23be c36f b93e 5b35 21bf f0dd 31be
00000090: 19f9 133e 65a6 973f 7083 8bbe 6ddf 6b3d
000000a0: ca99 063f d3f4 b43f 8749 043f e2f2 aabe
000000b0: 4303 d73e b3dd 05be 70c3 e73e 8889 0c3e
000000c0: 2845 acbd 70ab 283f 62ec 8a3e 3069 16bc
000000d0: d954 82be 4a18 20bf a140 85be ad4a 3c3f
000000e0: 862b e0bd a5bd 263f 7b68 6c3e 543f c33d
000000f0: 3f96 ce3e 9de5 c23e 07e0 42be 748f 65be
00000100: 52e1 d7be 7742 8fbe 3432 8b3f b9b1 193d
00000110: 915c 59be 13dd c9be ca37 6abe 0921 fb3e
00000120: b281 2e3f 46b1 3bbf 6004 9cbe a1c4 46be
00000130: 6d1b 2fbe 1137 803d 909a 14bf 74cd e7bd
00000140: ba3a 38bd de36 d8be 05bc d43d d798 cdbd
00000150: ca51 573f 00f0 183e 52b7 a53c af57 01bf
00000160: 57d0 aebe 4ed7 b93e 9f79 033f 39a3 653f
00000170: c1a2 a8be 84eb 213d 33e5 21bf 539e 12bf
00000180: fdc4 d93d c631 913f 0fd6 6f3e d7e3 54be
00000190: 93c8 823d 4da9 ca3e 2429 ad3d fa7f 86be
000001a0: 36d6 363e 76d8 023e 5ab5 643f 73bc e0bc
000001b0: 90d5 603e fdbf 80be 6e4e 9fbe 9625 733f
000001c0: 2ace 913d 9bc0 a23e acfe 4bbe 48ce 00bf
000001d0: dd35 2dbd ec57 163c 04e5 003f 7173 0dbd
000001e0: a87e 23be cfc5 c33c c065 5ebf 7ecd e3be
000001f0: 2c30 dcbd c544 b23d 7971 42be 129f 333e
00000200: 2cfe fb3d 4922 6f3f 4584 f13d d7ff 593f
00000210: 0278 9ebf c7e9 84be d7dc acbe c163 11be
00000220: 413c 173e d0fd 823e 5baa ca3d 0388 113f
00000230: e1cb 2f3f 5065 4ebe 8e70 3cbf 378f 0b3f
00000240: 464b 283f 1132 acbd 564e 08bf 334d 3d3f
00000250: dcf4 f2bd c646 65bf 9b63 aebe d89e 2b3e
00000260: 54d5 34be c4ae 973e b19b afbe 939f 493f
00000270: cc9c 9ebe a78c 003f ada8 953c 868b f73e
00000280: 2710 633f c83b 7c3f f41b 8c3e 541c 0e3f
00000290: 41c9 0c3f 4772 173f c5eb c7be 90bd 063e
000002a0: 6aa3 f5be 2dc9 713e b15d 04bc f559 1d3e
000002b0: f819 213f a50f 72be 9dce 8fbd 2d37 4a3e
000002c0: f84b 273f 54db 13be 50cd 2d3f e352 04bf
000002d0: eb36 bfbd a3b0 383f ec0a abbe 3909 e9be
000002e0: 5a0a 263f e208 51bf 2c74 5c3a 233d d03e
000002f0: 5a5b 3d3f 0024 bdbd f21d 113e a00f dd3e
00000300: 0ee0 163f eb3f 413e 405e 23bf 396e 6dbe
00000310: 3bc6 d23e 4151 fdbe 75c6 a6be 27ee 76bf
00000320: 51e8 8dbd 6580 893e 953a 27bd 1567 9b3e
00000330: fdd2 abbc b64d 06bf 171b a53e 1099 3e3f
00000340: e974 a5be bba7 8abe b748 933d 3459 3f3f
00000350: 2d2d ce3d 3a35 7a3d 8bca 1fbe 2098 2fbf
00000360: 6cca 8e3e 2255 213f b173 31bd 4829 52be
00000370: c1c6 c8be ff44 043f b4f7 133f f3c5 123f
00000380: 2153 ae3d c482 06be c291 b5bd 3eff 783e
00000390: f458 93be c049 7cbf 3132 8abe 2c90 a33e
000003a0: 36a2 063e e0f5 dcbd 96f5 55bf d331 07bf
000003b0: 97df 96be 5751 23bf 5173 203f c165 e33e
000003c0: 7385 97be 15e3 eb3c c4c4 f03e 5bd7 83bf
000003d0: d687 99be 4a30 183f 5ecb a93e 1fcd 1dbf
000003e0: 30a7 b8bc ae36 92bf 05ce dcbd 4253 10bf
000003f0: 29da a8be ada9 e73e a657 a1be bae1 4e3e
-0.4870907 -0.15107049 -0.5635242 0.34995702 0.10361742 -0.4487075 0.4582586 0.30349755
-0.33754402 0.29840535 0.38125375 -0.04932223 -0.52108747 0.86166894 0.48854867 -1.067751
-0.47461104 -0.4348219 -0.67054784 0.19328581 0.029430283 0.0077336757 -0.77776736 -0.3096748
1.1452445 -0.557214 0.8232859 0.34596622 0.8988446 -0.05723942 -0.13885155 0.4121609
-0.15951873 0.3621808 -0.6297204 -0.17369819 0.14450492 1.1847655 -0.27248716 0.057586122
0.52578413 1.4137214 0.51674694 -0.3338843 0.41994676 -0.13072853 0.45266294 0.13724339
-0.08411628 0.6588659 0.2713347 -0.009180352 -0.2545536 -0.6253706 -0.2602587 0.73551446
-0.109458014 0.65133125 0.23086731 0.09533563 0.40349004 0.38065806 -0.19030772 -0.22418004
-0.42164093 -0.27980396 1.0874696 0.037523005 -0.21226718 -0.3942648 -0.22872844 0.4904864
0.6816665 -0.7331737 -0.30472088 -0.19410945 -0.17100306 0.06260503 -0.58048344 -0.11318484
-0.04497788 -0.4222936 0.103874244 -0.100389175 0.84109175 0.14935303 0.020229015 -0.5052442
-0.34143326 0.36297077 0.51357454 0.89702183 -0.3293667 0.039531246 -0.63240355 -0.57272834
0.10633276 1.1343315 0.234215 -0.20790039 0.06385913 0.3958229 0.084551126 -0.26269513
0.17855152 0.12777886 0.8933922 -0.02743361 0.21956468 -0.25146475 -0.31114525 0.94979227
0.07119401 0.3178757 -0.19921368 -0.5031476 -0.042287696 0.009176236 0.5034945 -0.03453392
-0.15966284 0.023898033 -0.8687401 -0.44492716 -0.107513756 0.08704523 -0.18988599 0.1754115
0.12304339 0.9341169 0.117928065 0.85156006 -1.2380373 -0.25959608 -0.33762237 -0.1419821
0.14769079 0.2558427 0.09895774 0.5684816 0.6867047 -0.20155835 -0.73609245 0.54515404
0.6573986 -0.08407987 -0.5324453 0.7394592 -0.118631095 -0.89561117 -0.34060368 0.16759813
-0.17659503 0.29625523 -0.3429847 0.78759116 -0.30979002 0.5021462 0.018268907 0.48348635
0.8869652 0.9852872 0.27365077 0.55511975 0.5499459 0.5915875 -0.39047065 0.1315825
-0.47976238 0.23611899 -0.008078978 0.15366347 0.6293025 -0.2363878 -0.0702183 0.1974761
0.65350294 -0.14439136 0.67891407 -0.51688975 -0.09336647 0.72144526 -0.3340677 -0.4551485
0.64859545 -0.8165418 0.0008409645 0.40671644 0.73967516 -0.09235382 0.1417158 0.43175983
0.5893563 0.18872039 -0.6381569 -0.23186578 0.41166863 -0.49476054 -0.32573286 -0.9645714
-0.069290765 0.2685577 -0.040827353 0.30352083 -0.02097463 -0.5246233 0.3224723 0.74452305
-0.32315758 -0.27081093 0.07191604 0.7474549 0.1006721 0.061085917 -0.15604608 -0.685915
0.2788881 0.6302053 -0.043323223 -0.2052356 -0.39214137 0.5166778 0.5779984 0.57333297
0.08511949 -0.1313582 -0.08865692 0.24316117 -0.28778803 -0.98550034 -0.26991418 0.31945932
0.13147816 -0.107890844 -0.8357786 -0.528104 -0.2946746 -0.6379599 0.6267596 0.4441357
-0.29594 0.028794805 0.4702512 -1.0300096 -0.29986447 0.59448683 0.3316297 -0.61641115
-0.022540659 -1.1422937 -0.107814826 -0.5637704 -0.32978943 0.4524664 -0.31512183 0.20203295
