cache/mid-midi/rX-b1Ksetcc_Miss Otis Regrets.npy (npy, 3200 bytes, 1 tensors)

array f4 [1, 768]
00000000: c479 f3be 9115 8dbe 1da6 9cbe 1c8f 763e
00000010: f06b c7be db8f 24be d5f4 c63d def2 143e
00000020: 231f 46bf 8b41 b83e 9827 2b3e 2311 93be
00000030: 26ec ba3e f7cd 2c3f b348 053e 7f8e adbf
00000040: 4d50 a8be ec12 6dbf 83b8 49be 3c1d e13e
00000050: 37aa 00bf ba99 01be f500 47be 71b2 5bbe
00000060: d281 453f 41f7 9bbe 9432 823e 4c6e 993d
00000070: a526 1c3f c01f 983e 1d2b 2a3e 5606 473e
00000080: 4ee3 283e fdcb fb3e e4b4 e0be 079a debe
00000090: b507 8f3e 3268 c93f 3908 e4be 1f10 73be
000000a0: 4620 ebbd 8faf 9e3f ea6f 423f 10d2 1ebf
000000b0: 3c06 b13e eea6 15be 2136 3f3f 52d9 06bd
000000c0: 2cdd 053f 3614 5e3f 315c a5bc e4ce b03e
000000d0: 9e18 733e 1d44 7fbd e908 e0bd 49dc 1a3f
000000e0: 52e2 d0bb b391 633f eba7 03be b028 f93d
000000f0: 88a5 063f bc4a 0e3f 8117 c73e d15c f2bd
00000100: 55a7 a2be 5429 09be 2dcf 8e3f 2142 0ebf
00000110: d6e0 75be f598 fabd b802 7bbe 47f2 a73e
00000120: 242b 2e3f d97b 0cbf 7a65 023c a533 843d
00000130: 7123 dfbd 3e9c 7e3c 2afa 62bf 4958 a43c
00000140: ad1a ab3d 317c c2be 5e52 44be 6af3 7dbd
00000150: 81c5 b63e 8e1d 683e 0dd0 10be fe10 f83e
00000160: 8239 27be 08c4 223f 6862 373f aeec 843f
00000170: d99d 3a3e 723d 463d d368 07bf 36b4 3cbf
00000180: 4cf8 2ebd bd46 543f fdb6 873e d49e 4bbe
00000190: 34c4 833e 872b c03d b2fd e73d c8f4 99be
000001a0: ec6f f03e 7544 913d dee4 953e eac3 a5be
000001b0: 274a b43e 04c1 1cbf 8562 033e dbe1 483f
000001c0: 3466 a2be 3755 e13e 4d7b 5dbe 3e36 e2be
000001d0: f5b7 ecbe 639c f43e 129c b73e feec 61bf
000001e0: f161 32bd 8b8b cb3e 7e76 9ebe a365 103f
000001f0: 755c 083d 5524 a2be eb9c 90be 97fe 983e
00000200: 3ebf f0be 0fba 6a3f 3e1d dcbe 8eea 5e3f
00000210: 65aa 4cbf bb25 183f f056 2cbe 2085 9d3e
00000220: 3572 1c3e 6301 ee3e 2a8b 1b3e 365b 93ba
00000230: 5bd7 47bd 0bfd c7be f5b5 02bf 44af ba3d
00000240: f055 55bc 71ed e93e 86a7 19bf 5d8f ef3e
00000250: b336 f23d 740a fbbd f69e 093d 6291 65bd
00000260: 5d9a 863e 46ed d73e c1d2 cfbe f8a0 ea3e
00000270: 7494 f63e a6cc 393f c086 4ebd 14af 193f
00000280: 3ac9 833f 12eb 193f 9991 33bd 73f2 b93e
00000290: cdd9 963e f671 533f 6b8e c3bd 9427 87be
000002a0: d4ed 21bf 9a61 b03e 3f85 0ebe ca74 543e
000002b0: f98a 7d3e c461 033e a3c2 233e e842 383f
000002c0: 462a 9a3e faca 36be 2e6a f63e c233 bbbc
000002d0: d604 453e a1db 143f ca06 243c be3e 823e
000002e0: c0f9 873e 5b9c edbe 4134 fb3e e34e b53e
000002f0: 98eb 723f abc2 8dbd 1208 3d3f 2ce5 b53e
00000300: 8c5c 5f3e 7f35 663e 379c 5cbe 820e 97be
00000310: a62b aa3e 753d b7be f20b 2cbf cbea 46bf
00000320: 4154 473d 22f0 1bbe c32b 82bf 31f8 7abd
00000330: 5361 3e3e 0fa7 ecbe 24d8 173e 49c4 0d3f
00000340: ea6d 31be a151 96be aed8 a33e c3b6 a43e
00000350: deae c0be 4d66 c43d a0e7 9cbe 2a1c 29bf
00000360: 4a98 1f3f 3dd8 813f de3d f1be 2c17 d2be
00000370: 89e2 f5be 4e31 043f 7e1d 2e3f a6b5 c73e
00000380: 8f53 1b3f 798e cf3d 7047 293c 233f 323f
00000390: 56d0 22be ae65 38be df0c d0bd 374c 113f
000003a0: 698d 1f3f bdec 2dbe 6516 2cbf cda5 19bf
000003b0: 899c 4abf 99ee a1bf 6d19 e03e 28df 0d3f
000003c0: d79a 1b3e 4837 69bd e476 3e3f 2483 efbe
000003d0: f1f1 09be cdb9 f53e f8ce 81bd 5dcc 0ebf
000003e0: 25c4 033e 2f0c abbe a6ee 10be 6637 1dbe
000003f0: 53a9 09bf a413 303f 0fff 1ebf 8af2 343f
-0.47553837 -0.27555516 -0.30595484 0.2407803 -0.38949537 -0.16070502 0.09714667 0.14545771
-0.7739126 0.35987505 0.16714323 -0.28724012 0.36508292 0.6750178 0.13016014 -1.3559111
-0.32873765 -0.92607 -0.19699292 0.43967617 -0.5025973 -0.12656298 -0.19433959 -0.21454789
0.77151215 -0.30462077 0.25429213 0.074917406 0.60996467 0.29711723 0.16618009 0.1943601
0.1649296 0.49179068 -0.4388801 -0.4347689 0.27935567 1.5734923 -0.44537523 -0.23736618
-0.11480765 1.2397326 0.7595202 -0.6203928 0.3457507 -0.1461446 0.7469197 -0.032922097
0.52290606 0.8674959 -0.020185562 0.34532845 0.2373986 -0.062320817 -0.109391995 0.6049238
-0.0063746357 0.88894194 -0.12857024 0.12165964 0.5259633 0.55582786 0.3888512 -0.118341096
-0.3176829 -0.13394672 1.1156975 -0.55569655 -0.2401155 -0.122362055 -0.24512756 0.3280203
0.6803458 -0.54876477 0.007958764 0.06455163 -0.10895432 0.015540181 -0.8866297 0.020061629
0.083546974 -0.37985376 -0.19172046 -0.061999716 0.3569756 0.22667524 -0.14141865 0.48450464
-0.16330531 0.6358037 0.7163453 1.0384729 0.18224277 0.048398443 -0.52894324 -0.7371248
-0.042717263 0.8292044 0.26506796 -0.19884807 0.2573563 0.09383302 0.113276854 -0.30069566
0.4696039 0.07093135 0.29276174 -0.32376033 0.35212824 -0.6123202 0.12830551 0.7846963
-0.317186 0.44010326 -0.21629067 -0.44182009 -0.46234098 0.47775564 0.3586126 -0.88252246
-0.043550435 0.397549 -0.30949777 0.56405085 0.0332913 -0.31668344 -0.2824472 0.29881737
-0.47020906 0.9169015 -0.4299106 0.8707665 -0.799475 0.5943257 -0.16830039 0.3076563
0.15277942 0.46485433 0.15189806 -0.0011242393 -0.048789363 -0.39060244 -0.51058894 0.091154605
-0.013020977 0.45688966 -0.60021245 0.46789065 0.11826839 -0.12257853 0.033598863 -0.05604685
0.26289645 0.42173213 -0.4059048 0.45825934 0.48160136 0.72577894 -0.050421476 0.60032773
1.0295784 0.60124314 -0.043840025 0.36317787 0.29463044 0.82595766 -0.095486484 -0.26397383
-0.6325352 0.34449464 -0.13918017 0.20747676 0.24760045 0.12830263 0.15992217 0.7197709
0.30110377 -0.17850867 0.48127884 -0.022851828 0.19240126 0.5814763 0.010011384 0.25438493
0.26557732 -0.46408352 0.49063304 0.35411748 0.9489074 -0.069218956 0.7384044 0.35526407
0.21812648 0.22481345 -0.21543966 -0.29503256 0.33236426 -0.35789075 -0.6720573 -0.77702016
0.048664335 -0.15228322 -1.0169605 -0.06127185 0.18591814 -0.46221206 0.14828545 0.5537763
-0.17327085 -0.29359153 0.3200125 0.32170686 -0.37633413 0.09589825 -0.30645466 -0.660586
0.6234175 1.0144116 -0.47117513 -0.41033304 -0.48024395 0.51637733 0.6801375 0.39005774
0.60674375 0.101345964 0.010331973 0.6962759 -0.15899786 -0.18007538 -0.10158705 0.5675692
0.6232515 -0.1698484 -0.6722167 -0.60018617 -0.79145104 -1.2650939 0.43769398 0.55418634
0.15195785 -0.056937486 0.7440016 -0.4677974 -0.134712 0.47993317 -0.06338304 -0.55780584
0.12867792 -0.33407733 -0.14153537 -0.15353164 -0.53773993 0.6877997 -0.6210794 0.70682585
