cache/mid-midi/w3TMe98FJDw_Bags' Groove.npy (npy, 3200 bytes, 1 tensors)

array f4 [1, 768]
-0.31151447 -0.18205747 -0.37473074 0.3297053 -0.005022008 -0.04417178 -0.10633859 0.19073766
-0.6864059 0.3288825 0.56546223 -0.86841416 0.42543867 0.5875622 -0.03959523 -1.6823944
-0.23565584 -0.7230871 -0.1646485 0.27173918 -0.3300454 0.19394441 -0.35944405 -0.29833624
0.5918467 -0.063215025 0.11550906 0.5628985 0.3915486 0.37011057 0.2139866 0.24886154
0.16019227 0.6088661 -0.29085025 -0.31662038 -0.15070584 1.7018421 -0.604375 0.10634594
-0.44221848 1.3385125 0.8636398 -0.7954006 0.05052978 -0.1887884 0.9712779 -0.017198604
0.4965794 0.43506444 -0.22769971 0.08085497 0.26786685 -0.16751698 0.11799349 0.54352194
-0.03918597 1.0106524 -0.13414471 0.07467296 0.267179 0.18572669 0.19464403 -0.5761909
-0.6993789 0.041409545 0.8873942 -0.9214047 0.10574605 0.09789679 0.28003338 0.45652726
0.59551513 -0.74327976 0.18939452 -0.04748799 -0.1097157 0.56116235 -0.6357404 -0.35024226
0.15984643 -0.580434 0.033329725 -0.21054101 0.4609164 0.7522526 -0.31430614 0.57212037
-0.458329 0.6602104 1.2634072 1.3308781 0.07323959 0.050860938 -0.56049883 -0.44013435
0.10251886 1.1111954 0.2751783 -0.37124813 0.32155544 0.2227052 0.18545227 -0.30999655
0.83515775 -0.27988127 0.526243 -0.05110415 0.33936864 -0.98711985 0.14021857 1.0522833
-0.08481435 0.46319553 -0.41423938 -0.32851642 -0.3942715 1.1118919 0.2862008 -1.21629
-0.03688716 0.41271514 -0.24458629 0.48831704 0.33790147 0.06416553 -0.0065482627 0.31716555
-0.17636482 1.0528859 -0.6718611 0.5784811 -0.7754961 0.94027525 -0.051827583 0.10656825
-0.08069434 0.40708533 0.33567497 -0.08009325 0.009619014 -0.513807 -0.28878877 0.189236
0.35235813 0.44133034 -0.3673219 0.28520373 -0.079840675 -0.09448979 -0.2638738 0.07515861
0.40980336 0.13514307 -0.4573342 0.47040406 0.81409645 0.9503871 0.093656495 0.7802314
1.2828156 0.86679137 -0.3667771 0.68557316 -0.033039868 0.89502376 -0.11346414 -0.12319207
-0.6679632 0.70679337 -0.16124918 0.15019752 0.34382346 0.057063855 0.52610224 0.077909485
0.12318849 0.10997963 0.6039756 -0.09868399 0.48656377 1.0477624 0.3213861 0.062462166
0.35288006 -0.33959523 0.44210646 0.62138706 1.2786336 -0.027383013 0.57364607 0.40210286
0.04784707 0.44946823 -0.17220603 -0.106729686 -0.07940874 -0.5665851 -0.86208814 -0.85195565
-0.2954719 -0.01596858 -1.0909497 -0.06951417 -0.13743928 -0.23373237 0.12601066 0.9478374
-0.091960505 -0.09665704 0.8263219 -0.09840798 0.082803756 0.2957337 -0.5981761 -0.6037636
0.72266805 0.9779813 -0.49032456 -0.2802037 -0.31927517 0.60467565 0.96365696 0.5043881
0.31130612 0.4952292 -0.079451114 0.55601877 -0.13112476 0.19188824 -0.10253727 0.48763198
0.5673299 -0.297653 -0.7164897 -0.41331145 -0.8168744 -1.4575197 0.73254365 0.48513326
0.5613376 -0.26227406 0.74546593 -0.31942928 -0.11061222 0.8530354 0.045124885 -0.5523292
0.15050747 -0.3728371 -0.24380894 -0.35336187 -0.39718243 0.8530409 -0.98910964 0.7875549
00000000: d37e 9fbe 466d 3abe b5dc bfbe 22cf a83e
00000010: a88f a4bb 78ed 34bd 0cc8 d9bd bc50 433e
00000020: 4cb8 2fbf 4963 a83e 22c2 103f 6450 5ebf
00000030: 19d3 d93e 7a6a 163f 9c2e 22bd b358 d7bf
00000040: c44f 71be 3c1c 39bf 9e99 28be 6621 8b3e
00000050: b6fb a8be 5d99 463e 0d09 b8be 87bf 98be
00000060: 4483 173f e176 81bd 0490 ec3d 1e1a 103f
00000070: 0f79 c83e 227f bd3e 4e1f 5b3e 8fd5 7e3e
00000080: 7109 243e a6de 1b3f 53ea 94be 111c a2be
00000090: a252 1abe f6d5 d93f 52b8 1abf e6cb d93d
000000a0: 766a e2be 6154 ab3f 7f17 5d3f 609f 4bbf
000000b0: 51f8 4e3d bf51 41be aba5 783f 16e4 8cbc
000000c0: a83f fe3e c4c0 de3e 1d2a 69be 4a97 a53d
000000d0: d825 893e 9289 2bbe 92a6 f13d 4124 0b3f
000000e0: 7881 20bd 0f5d 813f 3b5d 09be 23ee 983d
000000f0: b0cb 883e 232f 3e3e c450 473e 3f81 13bf
00000100: 7f0a 33bf 0e9d 293d 442c 633f 2ee1 6bbf
00000110: 6391 d83d 1d7e c83d 8960 8f3e f1bd e93e
00000120: ae73 183f 9547 3ebf a3f0 413e c482 42bd
00000130: a0b2 e0bd 56a8 0f3f e2bf 22bf f452 b3be
00000140: c8ae 233e 5397 14bf c084 083d 1098 57be
00000150: 3cfd eb3e a093 403f bcec a0be 7b76 123f
00000160: 19aa eabe 8c03 293f 54b7 a13f 375a aa3f
00000170: a3fe 953d 8f53 503d da7c 0fbf 4a59 e1be
00000180: 68f5 d13d a73b 8e3f 2ce4 8c3e 3c14 bebe
00000190: eaa2 a43e d50c 643e 33e7 3d3e deb7 9ebe
000001a0: e6cc 553f 994c 8fbe dcb7 063f 9652 51bd
000001b0: bac1 ad3e e3b3 7cbf 7595 0f3e 38b1 863f
000001c0: 25b3 adbd f727 ed3e 2f17 d4be 4e33 a8be
000001d0: f4dd c9be 7952 8e3f e988 923e 64af 9bbf
000001e0: fe16 17bd 664f d33e d474 7abe b104 fa3e
000001f0: 6c01 ad3e 3869 833d cf92 d6bb 8663 a23e
00000200: fb98 34be f7c4 863f 17ff 2bbf 5617 143f
00000210: ea86 46bf e1b5 703f 2949 54bd 7440 da3d
00000220: 1343 a5bd 7d6d d03e 97dd ab3e ee07 a4bd
00000230: 1299 1d3c db88 03bf 1fdc 93be 15c7 413e
00000240: 4968 b43e 0df6 e13e 9e11 bcbe 3906 923e
00000250: 8283 a3bd dd83 c1bd 771a 87be c2ec 993d
00000260: bfd1 d13e f262 0a3e b527 eabe cdd8 f03e
00000270: a068 503f 924c 733f face bf3d 3fbd 473f
00000280: 4d33 a43f 0ae6 5d3f 35ca bbbe b981 2f3f
00000290: d054 07bd 4720 653f e35f e8bd 204c fcbd
000002a0: a3ff 2abf 69f0 343f 811e 25be 61cd 193e
000002b0: a109 b03e cabb 693d a3ae 063f 028f 9f3d
000002c0: 3f4a fc3d 003d e13d 259e 1a3f d51a cabd
000002d0: e31e f93e 141d 863f b88c a43e 54d8 7f3d
000002e0: b2ac b43e 6ddf adbe c75b e23e 3913 1f3f
000002f0: 44aa a33f 5752 e0bc 78da 123f 6de0 cd3e
00000300: 4afb 433d b320 e63e c756 30be 1895 dabd
00000310: 0da1 a2bd b90b 11bf cfb1 5cbf c419 5abf
00000320: 1848 97be 8ad0 82bc 3da4 8bbf 725d 8ebd
00000330: e2bc 0cbe 8a57 6fbe f008 013e 79a5 723f
00000340: ca55 bcbd 20f4 c5bd d589 533f 1f8a c9bd
00000350: 0495 a93d 686a 973e 1222 19bf 4090 1abf
00000360: c600 393f fc5c 7a3f d20b fbbe dc76 8fbe
00000370: 0978 a3be 06cc 1a3f 39b2 763f 941f 013f
00000380: 8463 9f3e af8e fd3e 44b7 a2bd 3f57 0e3f
00000390: 9245 06be 5a7e 443e 0fff d1bd e6aa f93e
000003a0: 883c 113f f965 98be de6b 37bf 8f9d d3be
000003b0: ae1e 51bf 0190 babf fb87 3b3f 6363 f83e
000003c0: d2b3 0f3f c948 86be dbd6 3e3f 3c8c a3be
000003d0: a988 e2bd 8760 5a3f dfd4 383d 7265 0dbf
000003e0: a11e 1a3e 81e4 bebe 0da9 79be d9eb b4be
000003f0: 7f5b cbbe e360 5a3f 4a36 7dbf 339d 493f
