cache/mid-midi/W4ga_M5Zdn4_Turn! Turn! Turn!.npy (npy, 3200 bytes, 1 tensors)

array f4 [1, 768]
0	0xbdf0e1b2	-0.11761798
1	0xbe48c5db	-0.19606726
2	0x3dd82e9c	0.10555765
3	0x3ead6fea	0.33874446
4	0x3e9eb964	0.31000817
5	0x3e6e7f24	0.23290688
6	0x3e60b9da	0.21945897
7	0x3e92bed3	0.28661212
8	0xbf8b75ad	-1.0895287
9	0x3f31ccb7	0.69452995
10	0x3eee250d	0.46512643
11	0xbeca0d77	-0.39463398
12	0x3de32118	0.110902965
13	0x3f284b42	0.65739834
14	0x3c4239b0	0.011854574
15	0xbfbae68b	-1.4601606
16	0xbea77a0a	-0.32710296
17	0xbf8dc897	-1.107684
18	0xbe9c3c23	-0.3051463
19	0x3e063861	0.13107444
20	0xbeb616cc	-0.35564268
21	0xbe83845f	-0.2568693
22	0x3c3f1c0e	0.011664404
23	0xbec431bc	-0.38319194
24	0x3f985dcf	1.1903628
25	0xbe0c0d48	-0.13676941
26	0x3ef08b1a	0.46981126
27	0x3f7cd675	0.98764735
28	0x3eb02e2b	0.34410223
29	0xbdb8a576	-0.09015934
30	0x3ed31672	0.41228062
31	0x3e1bf07d	0.15228458
32	0x3ed74331	0.4204345
33	0x3e1e10df	0.15436123
34	0xbe9d13f5	-0.30679289
35	0xbe5b24aa	-0.21400705
36	0x3e48c300	0.19605637
37	0x3f944ae5	1.1585356
38	0xbede38e7	-0.43402788
39	0xbd2a90fa	-0.041642167
40	0x3ea8623c	0.32887447
41	0x3fb26cbf	1.3939437
42	0x3f027c8c	0.50971293
43	0xbedc750d	-0.43058053
44	0xbe5fb0a7	-0.21844731
45	0xbf737cb7	-0.95112175
46	0x3f3c7df5	0.73629695
47	0x3e55e467	0.2088791
48	0x3e159677	0.14608179
49	0x3f05caf6	0.5226282
50	0xbe93482f	-0.2876601
51	0x3f2e2947	0.68031734
52	0x3e3c1300	0.18366623
53	0xbec10fde	-0.37707418
54	0xbf0b17be	-0.543331
55	0x3e42b768	0.19015276
56	0xbe2d41cb	-0.1691963
57	0x3f0f637c	0.56011176
58	0xbc42da30	-0.01189284
59	0xbe9303da	-0.28713876
60	0x3e51cfa5	0.20489366
61	0x3f4aff6d	0.79296
62	0xbd97d7cd	-0.074142076
63	0xbf3010e9	-0.687758
64	0xbec2fb0b	-0.38082156
65	0x3dc1bb6b	0.09459575
66	0x3f1e2731	0.6177855
67	0xbeefab60	-0.46810436
68	0x3e431457	0.19050728
69	0xbd8af1f4	-0.0678443
70	0xbea16697	-0.31523582
71	0x3f5231dc	0.8210733
72	0x3f3575bc	0.70882773
73	0xbf949e71	-1.1610852
74	0x3e908cb0	0.28232336
75	0xbe25796b	-0.16159599
76	0xbe06a4ba	-0.13148776
77	0x3f4b02e7	0.79301304
78	0xbf0e6290	-0.55619144
79	0xbe839df5	-0.2570645
80	0x3d8bf48f	0.06833755
81	0xbf7d815e	-0.99025524
82	0xbd8e646d	-0.069527484
83	0xbeff9d06	-0.49924487
84	0x3f4d0a8e	0.8009423
85	0x3f265a63	0.6498167
86	0x3ecfa5ed	0.4055628
87	0x3e260e55	0.16216405
88	0xbd309bbc	-0.04311727
89	0x3f4d43b4	0.8018143
90	0x3f99f901	1.2029115
91	0x3f88006b	1.0625128
92	0xbdec725d	-0.115452506
93	0xbe3005bf	-0.17189692
94	0xbf482fb8	-0.78197813
95	0xbf1d30e3	-0.6140272
96	0x3e2a4d63	0.16631083
97	0x3f689e1b	0.9086625
98	0x3ef38bbc	0.47567546
99	0xbe667058	-0.22503793
100	0xbf50b76a	-0.8152987
101	0x3e9b03b6	0.3027627
102	0x3ec1bf9a	0.37841493
103	0xbea9373b	-0.3304995
104	0x3f0e023e	0.5547217
105	0xbe965467	-0.2936127
106	0x3f2a914b	0.6662795
107	0xbdabbfb7	-0.08386176
108	0xbda2c6ab	-0.07948049
109	0xbed480a3	-0.41504392
110	0x3e1a21de	0.15051982
111	0x3f9537da	1.165767
112	0x3ebe898d	0.37214318
113	0xbeba65a7	-0.3640568
114	0x3e2d169e	0.16903159
115	0xbeb8c61a	-0.3608864
116	0xbefce240	-0.49391365
117	0x3ef704c6	0.4824583
118	0x3ea19b4e	0.315638
119	0xbec6a4de	-0.3879766
120	0x3e29d99a	0.16586915
121	0x3e865b43	0.26241502
122	0xbefd3108	-0.4945147
123	0x3e0affb6	0.13574108
124	0x3ebced16	0.36899632
125	0x3e98db59	0.2985485
126	0xbef7e07c	-0.48413455
127	0x3f0cf95a	0.5506798
128	0x3e1dc7b1	0.15408207
129	0x3f153ea6	0.5829872
130	0xbf125b71	-0.5717078
131	0x3f2d00a3	0.67579097
132	0xbe8633b5	-0.26211324
133	0x3e405180	0.1878109
134	0xbd7cdf02	-0.061736114
135	0x3e36a431	0.17836072
136	0x3e5a4bf0	0.2131803
137	0xbeb4d6e7	-0.35320207
138	0x3ea4edeb	0.32212767
139	0x3d42f5e5	0.047597785
140	0xbe2e0c69	-0.16996922
141	0xbcf02659	-0.02931516
142	0xbe6ed1dc	-0.23322242
143	0x3e82fbb9	0.25582674
144	0x3f0c7125	0.54860145
145	0x3e0ae753	0.13564806
146	0x3dc9d9f6	0.09856026
147	0x3f2aa2fc	0.66654944
148	0xbea36ff3	-0.31921348
149	0xbf255076	-0.645759
150	0xbeeb1d42	-0.4592076
151	0x3ebc96a2	0.36833674
152	0x3e4d69ad	0.20059843
153	0xbcc03ab3	-0.02346549
154	0xbf44a803	-0.76818866
155	0x3f628905	0.88490325
156	0x3eccfca5	0.40036502
157	0x3f3d9609	0.7405706
158	0x3e1fc8f8	0.15604007
159	0x3ebb7c82	0.3661843
160	0x3fe57e72	1.7929213
161	0x3f73cc73	0.9523384
162	0xbed945e0	-0.42436123
163	0x3e2ade32	0.16686323
164	0x3ef3b2f1	0.4759746
165	0x3e964e07	0.29356405
166	0xbe4a6071	-0.19763352
167	0xbe5679e3	-0.20944934
168	0xbf1dffe1	-0.61718565
169	0x3f109f2f	0.56492895
170	0x3e07083f	0.1318674
171	0xbe9db34b	-0.30800852
172	0x3f02991e	0.5101489
173	0x3d421cc6	0.04739072
174	0x3d17d2c6	0.037066244
175	0xbeb0b052	-0.34509522
176	0xbe0bf75a	-0.13668576
177	0xbe2ec15e	-0.17065951
178	0x3f28ae30	0.6589079
179	0xbe790a53	-0.24320345
180	0x3ee55534	0.44791567
181	0x3f240741	0.6407357
182	0x3d94e78d	0.07270727
183	0xbece2bd2	-0.40267807
184	0x3e69454c	0.22780341
185	0xbf3075c3	-0.6892969
186	0xbf039574	-0.5139992
187	0x3eddf8cd	0.43353882
188	0x3f2838eb	0.6571185
189	0xbe3d891e	-0.18509337
190	0x3d9625da	0.07331438
191	0x3ed52dfe	0.41636652
192	0x3ec8e09c	0.39233863
193	0x3e0cbbb0	0.13743472
194	0xbeef8243	-0.4677907
195	0xbe10ed91	-0.14153124
196	0xbc2752f6	-0.0102126505
197	0xbe6f4d91	-0.23369433
198	0xbf11559a	-0.5677124
199	0xbf84b5f9	-1.0368034
200	0x3e7f9a04	0.24961096
201	0x3ed27b41	0.4110966
202	0xbeffd682	-0.49968344
203	0xbbac7760	-0.005263254
204	0xbc95da37	-0.01829253
205	0xbf000048	-0.5000043
206	0x3f33097d	0.6993635
207	0x3fa48044	1.2851644
208	0xbf2eb573	-0.6824562
209	0xbec10883	-0.37701806
210	0x3dfe62e9	0.12421209
211	0x3eb6f335	0.35732427
212	0xbee9fdbb	-0.45701393
213	0x3e3765b0	0.17909884
214	0xbf35d43b	-0.71026963
215	0xbeab087c	-0.3340491
216	0x3c79cb88	0.01524628
217	0x3f1ef65b	0.6209466
218	0xbed2fd84	-0.41209042
219	0xbd62fc98	-0.055416673
220	0xbeafdc57	-0.34347793
221	0x3f3e878a	0.74425566
222	0x3f2efbfb	0.6835324
223	0x3fa27417	1.2691678
224	0x3e8bd374	0.27309763
225	0x3effffe2	0.4999991
226	0xbe1c8668	-0.15285647
227	0x3e0bef13	0.13665418
228	0xbe9a7da0	-0.3017397
229	0xbf42709b	-0.7595307
230	0xbe6d6a92	-0.23185185
231	0x3eeaa725	0.45830646
232	0x3e8813aa	0.26577502
233	0xbe1fe021	-0.15612842
234	0x3d8f7d6c	0.07006344
235	0xbf0e21d6	-0.5552038
236	0xbf96e751	-1.1789342
237	0xbf619baf	-0.8812818
238	0x3f23a659	0.639257
239	0x3e78a360	0.24281073
240	0x3dd8e501	0.10590554
241	0x3e16d800	0.14730835
242	0x3f727471	0.94708925
243	0xbf4c45f5	-0.79794246
244	0xbf0364f3	-0.5132591
245	0x3ec95538	0.3932283
246	0xbce1d7b3	-0.027568674
247	0xbe7513de	-0.2393336
248	0x3e91dc29	0.2848828
249	0xbf2eeb58	-0.68327856
250	0xbe766989	-0.24063696
251	0xbf464ae6	-0.77458036
252	0xbe97e982	-0.2967034
253	0x3ecedcaf	0.40402743
254	0xbf1f9c95	-0.623483
255	0x3e82521f	0.25453278
