cache/mid-midi/W4jaNWQUeRU_Get Out And Get Under The Moon.npy (npy, 3200 bytes, 1 tensors)

array f4 [1, 768]
0	0xbf113311	-0.56718546
1	0xbdddd9b0	-0.10832536
2	0xbedfb174	-0.43690073
3	0x3f4e0b70	0.804862
4	0xbe1e4bf9	-0.15458669
5	0xbe61ccc2	-0.22050765
6	0x3f390e6d	0.72287637
7	0x3ea05e19	0.3132179
8	0xbf909154	-1.1294351
9	0x3ea0d54d	0.31412736
10	0x3db3cae8	0.08778936
11	0xbf578fd1	-0.8420382
12	0x3e5726f9	0.2101096
13	0x3f42e03b	0.761234
14	0x3bd503bd	0.00650069
15	0xbf7f7dc2	-0.99801266
16	0xbebd6f10	-0.36998796
17	0xbf4abf1b	-0.79197854
18	0xbe95ae7f	-0.29234692
19	0xbd3b3859	-0.045708034
20	0xbed28813	-0.4111944
21	0x3e4f1ce2	0.20225862
22	0xbf23c81d	-0.63977224
23	0xbef03b12	-0.46920067
24	0x3f18bfdd	0.5966776
25	0x3e4d7cb4	0.20067102
26	0x3eaee21a	0.34156877
27	0x3eec14cd	0.4610962
28	0x3ee3f7cf	0.44525
29	0xbeb267c4	-0.34844792
30	0x3ef20098	0.47266078
31	0x3eff025e	0.49806494
32	0x3e728f5a	0.23687497
33	0x3cc32db0	0.023825496
34	0xbdd51b13	-0.104055546
35	0xbde550cb	-0.11197051
36	0xbd0a6c13	-0.033794474
37	0x3fc10258	1.507884
38	0xbeb106c1	-0.34575465
39	0x3e7a4655	0.24440892
40	0x3e820f42	0.25402266
41	0x3fb9f1fb	1.4526972
42	0x3f1f005f	0.6210994
43	0xbf390976	-0.7228006
44	0xbde7b4d4	-0.11313787
45	0xbf2dfc45	-0.6796306
46	0x3f5db06e	0.86597335
47	0x3e83e068	0.25757146
48	0xbe8bbf00	-0.2729416
49	0x3f732d96	0.94991434
50	0xbe8e6d97	-0.27817985
51	0x3f123020	0.5710468
52	0x3e4053c7	0.18781959
53	0x3ece5dc1	0.40305904
54	0xbec10335	-0.3769776
55	0x3d95d977	0.07316869
56	0xbeaf66d6	-0.34258145
57	0x3ef9df3f	0.48803136
58	0xbd8812ba	-0.06644197
59	0x3edc9776	0.43084306
60	0x3ec0dc12	0.376679
61	0x3e618169	0.22022022
62	0x3e555bf9	0.20835866
63	0xbed38838	-0.41314864
64	0xbf2e4210	-0.68069553
65	0xbe9c839e	-0.30569166
66	0x3f8fb8cd	1.1228272
67	0xbf2fe44b	-0.6870772
68	0x3cd4a8c8	0.025959387
69	0xbf080dba	-0.53145945
70	0xbecef176	-0.40418595
71	0x3f301eeb	0.6879718
72	0x3f57db6d	0.8431919
73	0xbfabcb38	-1.3421392
74	0xbd1988a5	-0.03748383
75	0xbe109fbe	-0.14123437
76	0xbeaffc6c	-0.3437227
77	0x3ec6de1d	0.38841334
78	0xbf425d7e	-0.7592391
79	0xbeee6758	-0.4656322
80	0x3e215e65	0.15758665
81	0xbf4ba635	-0.79550487
82	0xbe43e950	-0.1913197
83	0x3d10a1b9	0.03531048
84	0x3e97e443	0.29666337
85	0xbe3ed18f	-0.18634628
86	0xbc991efd	-0.018691534
87	0xbdd60b77	-0.104514055
88	0xbe73bf66	-0.23803481
89	0x3f32b2c1	0.69804007
90	0x3f77e39a	0.9683167
91	0x3f816fbe	1.0112226
92	0xbe27e74e	-0.1639683
93	0x3e9a8c89	0.30185345
94	0xbf899a28	-1.075017
95	0xbf533f4d	-0.82518464
96	0x3d537c67	0.05163231
97	0x3f8faccb	1.1224607
98	0xbcc2aebf	-0.023764966
99	0xbed4f8b9	-0.4159601
100	0x3d9f0e8a	0.07766445
101	0xbcb32931	-0.021870228
102	0x3dd96dc6	0.10616641
103	0xbf4385a3	-0.7637579
104	0x3ea30e8f	0.31847045
105	0x3ea883d9	0.32913092
106	0x3f510867	0.81653446
107	0xbe975620	-0.29557896
108	0xbe732479	-0.23744382
109	0xbeaf3cfd	-0.34226218
110	0xbe0687a0	-0.13137674
111	0x3f1d5a51	0.61465937
112	0x3ec27641	0.37980846
113	0xbef3a1e3	-0.47584447
114	0xbe3e56dc	-0.18587822
115	0xbf0be490	-0.54645634
116	0xbed01dee	-0.40647835
117	0x3e106aa2	0.14103177
118	0x3f25cb0e	0.6476296
119	0xbf3d4616	-0.7393507
120	0xbd945a84	-0.07243827
121	0x3ec6b9fd	0.38813773
122	0xbee287aa	-0.44244128
123	0x3e914adc	0.28377426
124	0xbe5e4fbc	-0.21710104
125	0x3d957785	0.07298187
126	0xbe417b62	-0.18894723
127	0x3f37ffed	0.71874887
128	0xbe546485	-0.2074147
129	0x3f2ca9b1	0.6744643
130	0x3ee47b51	0.44625333
131	0x3f87d4bf	1.06118
132	0xbf6224e0	-0.88337517
133	0x3dd47b6a	0.10375102
134	0xbeb49dcd	-0.35276642
135	0x3df1842c	0.11792788
136	0xbe0fb174	-0.14032537
137	0x3e649438	0.22322166
138	0x3d8199bb	0.0632815
139	0x3f43f585	0.7654651
140	0x3f64caed	0.8937214
141	0xbf04f759	-0.5193992
142	0xbf3e64c1	-0.7437249
143	0x3ee3936d	0.44448414
144	0x3ecbca62	0.39802843
145	0xbe90bdb8	-0.28269744
146	0xbf08566a	-0.5325686
147	0x3f242305	0.64115936
148	0xbe718895	-0.23587258
149	0xbf09f7a0	-0.5389347
150	0xbeae8296	-0.34084004
151	0x3e810d0c	0.25205266
152	0x3e17ab66	0.14811477
153	0xbd024cb8	-0.031811446
154	0xbe7c37fc	-0.24630731
155	0x3ee93bca	0.45553428
156	0x3dd2ecc1	0.102990635
157	0x3f0fad5a	0.5612389
158	0x3e89c030	0.2690444
159	0x3eae1b54	0.34005225
160	0x3f86b30e	1.0523393
161	0x3f502a56	0.813146
162	0xbf37727b	-0.7165906
163	0x3f10f166	0.56618345
164	0x3eace100	0.3376541
165	0x3f48924d	0.7834824
166	0xbf3c7c11	-0.7362681
167	0xbd1ebc51	-0.03875381
168	0xbf1a2f67	-0.6022858
169	0x3efbd459	0.49185446
170	0x3e7b1ffc	0.2452392
171	0xbe8bda11	-0.2731481
172	0x3f41ec49	0.7575117
173	0xbd0afc92	-0.033932276
174	0x3da1c1e0	0.07898307
175	0xbe8bdc93	-0.27316722
176	0x3e758697	0.23977123
177	0xbe771170	-0.24127746
178	0x3f322b8a	0.69597685
179	0x3eb29a1b	0.34883198
180	0xbcaf9862	-0.021434966
181	0x3f1f25a8	0.62166834
182	0xbd0a3038	-0.03373739
183	0xbebd8eb7	-0.37022945
184	0x3ea5cbbb	0.32381997
185	0xbeb6c0ca	-0.3569396
186	0x3d8d30fc	0.06894109
187	0x3df41d1d	0.119196154
188	0x3f552ea4	0.8327429
189	0x3e9c4c72	0.30527073
190	0x3e76c08c	0.24096888
191	0x3eac0717	0.3359916
192	0x3f0822b2	0.5317794
193	0x3b1556dd	0.002278737
194	0xbeac0daf	-0.3360419
195	0xbe12cf2f	-0.14336847
196	0x3ef4c261	0.4780455
197	0xbecfd35f	-0.4059095
198	0xbf05ff7d	-0.5234297
199	0xbf8d4bed	-1.1038796
200	0xbe61eb56	-0.2206243
201	0x3e8557aa	0.26043445
202	0xbe822fd4	-0.25427115
203	0x3dc7e2e3	0.09760072
204	0xbd5d8d5b	-0.054089885
205	0xbef4879a	-0.47759706
206	0x3f22ad3f	0.635456
207	0x3f90d545	1.1315085
208	0xbe2d4743	-0.16921715
209	0xbe976d6d	-0.29575673
210	0x3f28fdfc	0.6601255
211	0x3dd02299	0.10162849
212	0x3e9b5c58	0.3034389
213	0xbe44d51d	-0.19221921
214	0xbf09915a	-0.53737414
215	0x3cc55879	0.024090039
216	0x3f2876dd	0.6580637
217	0x3f7ded54	0.9919026
218	0xbe3444a3	-0.17604308
219	0xbe63572a	-0.22201219
220	0xbe579a8a	-0.21055046
221	0x3f4c425a	0.79788744
222	0x3f9d5ea4	1.2294507
223	0x3f2c2ff5	0.67260677
224	0xbb3b59d9	-0.002858749
225	0x3f2aab49	0.6666761
226	0x3d73d686	0.059530757
227	0xbe3a8deb	-0.182182
228	0x3e6f4c44	0.23368937
229	0xbf2e1ca2	-0.6801244
230	0xbd5a22d2	-0.053255863
231	0xbd90ac3c	-0.07064101
232	0x3e9d96a9	0.30779007
233	0xbe2e2833	-0.17007522
234	0xbf01610c	-0.50538707
235	0xbf29415a	-0.66115344
236	0xbf3b6aae	-0.73209655
237	0xbf5dc571	-0.86629397
238	0x3f04c0f7	0.5185694
239	0xbd975b23	-0.0739043
240	0xbe9da3cf	-0.3078904
241	0xbc04c570	-0.008103713
242	0x3f1d0f74	0.61351705
243	0xbf499e00	-0.78756714
244	0xbf0e952c	-0.5569637
245	0x3f7f9e88	0.99851274
246	0xbeba8700	-0.36431122
247	0xbebdf8d1	-0.37103894
248	0x3f055ec1	0.5209771
249	0x3e157be0	0.14598036
250	0x3e9a0307	0.30080435
251	0xbe5c2238	-0.21497428
252	0x3d0429a0	0.03226626
253	0x3f07ec3d	0.53094846
254	0xbe5b99c6	-0.21445379
255	0x3f29ed81	0.6637803
