cache/mid-midi/W7aPp-4z-uw_Y Viva Espana.npy (npy, 3200 bytes, 1 tensors)

array f4 [1, 768]
00000000: 6e32 44be 3ca1 843d bab9 bbbe fbd3 4b3f
00000010: a084 883e 5986 e5be 981d 3a3f 6394 123f
00000020: 988d 58bf c1a4 373f d093 373e 6f80 d0be
00000030: d322 dc3e b931 153f 1bd3 1dbe f415 b4bf
00000040: 785b 59be ef65 66bf 411d 41bf 3c5e c33d
00000050: 1149 3cbf f9bc 6b3e 30ca a3be f130 d3be
00000060: 432d 823f 7d81 93bd 6337 013f f91a 303f
00000070: 2d5e f83e 607c 92be 57f6 e03e 08c7 fa3e
00000080: 6aa9 9a3d 294d 96bd a353 bbbd 9680 0bbe
00000090: e15c bc3d 25ee 9b3f 45f4 f0bd 5cf5 263e
000000a0: 0537 d73d d9df c63f e321 223f fb20 c8be
000000b0: 202c f33a 6cb7 47bf 7b19 303f 35a8 f43e
000000c0: 3a4b debc 155c 013f 0c3f 19bd bcd2 933e
000000d0: 79b7 da3d 1dcb ecbe 3cc9 9cbe 6a5c cc3e
000000e0: 23fe 87be 4e5e 563f 7fee be3e 2228 11bd
000000f0: 919a 783e 1424 6a3e b8ed d1be 933d 55bf
00000100: 63e9 b1be 307a 063e 7292 4f3f 7b30 fcbe
00000110: cc6c 633e 1285 a7be fb46 f5bd df68 3a3f
00000120: 054b 773f a829 93bf 1a35 183e 3204 13be
00000130: d281 ddbc fb1d 163f 81c3 bbbe 8ab5 0b3e
00000140: fbbe 7f3e 87e9 50bf 6252 0d3e 4837 c2be
00000150: c89b ff3e a52b 5f3e fbad 46be 4331 a7bd
00000160: 05d4 c1be df8c 423f fb23 8f3f 97dc a63f
00000170: 610a 053e 5206 833d 7715 4fbf cd4f 94be
00000180: 9d1c 973e 34bd a23f 1805 423e 48de 64be
00000190: c3e5 a8be 41d9 263f 9de4 413e 1e6a 01bf
000001a0: 2d02 813e b4a7 273e 85ed 4d3f 160c 4c3e
000001b0: 683a 733e 0c86 41bf 59bc a1be 66fc 8c3f
000001c0: c082 803e 56c4 16be 421b 76be ad4a cdbe
000001d0: d0d8 e0be 38c2 ea3e 5372 003f ac08 22bf
000001e0: 3af5 93be 48a3 123e 916f 50bf 856d 6e3e
000001f0: be75 9f3e 09bc f73e ba07 3fbe a2a8 923e
00000200: 7b28 143d e6b6 5b3f 3f2d 47be 3a4c 3b3f
00000210: 9d0c f0be 597e de3d 0f34 80be 280a d23d
00000220: e9d9 c83d 6ff9 51bd e3da 47bd 9f23 043f
00000230: f1b2 183f 5316 a0be 4397 d7be decd 4a3e
00000240: 8c18 623f 8ff7 62bd d932 efbe b824 3e3f
00000250: 6d3c 6fbe 72dd 5abf d432 2abf 7bab 903e
00000260: 342a 713d 27fd 32bc ff9e 42bf 1b15 863f
00000270: b249 233e 7880 173f 6d64 983e a32e 183e
00000280: a98c cd3f 2a3b 6b3f 831b 27be 24f6 8c3e
00000290: ff02 803e 9deb 1a3f a0b7 a6be c71d 92bd
000002a0: 72de 44bf 0133 0b3f 740c b03d 6107 073e
000002b0: 0065 e63e fdbf 84bd bc74 abbd c0c9 8e3b
000002c0: cc83 163e 6597 8ebe 8bca 603f bef1 58be
000002d0: 3a8b a23d 3691 733f cb47 eabd ea1b 7cbe
000002e0: 7fe9 853e d35c 27bf 0588 91be 9260 e23e
000002f0: 6359 9f3f f99a 893c f832 293b 3fc2 ce3e
00000300: 3043 ec3e af63 0b3f c864 8cbe d216 6ebe
00000310: 5826 413e 4b09 b9be 614a 2dbf a7e5 c2bf
00000320: 8900 10be 4a88 553e 7fbf 8dbe 414f 0bbe
00000330: 9227 963d 09d9 a0be a5ef d83e 5ebd 843f
00000340: ea78 bbbe 03b2 593e 74bb cc3e 0eb7 4c3e
00000350: 44f4 123e 98ea 07be 7633 bebe 907d 8dbe
00000360: 03bb 1b3f 3b06 2f3f 188d 17be 7089 1dbd
00000370: 2b92 83be 5919 6f3f cb29 7a3f cf93 2b3f
00000380: 25b9 933d 14ad 613e b9b2 07be d9dd 54be
00000390: a78c 65bd 6fd3 78bf b15f 66bd 3ba1 df3e
000003a0: d92f 493e 163b 4bbe 6799 edbe ccfe fbbe
000003b0: f4cb f1be b4c9 33bf ccb6 cd3e 1b5d 3d3e
000003c0: 3871 8c3d cdd8 bebd 3dbf 2c3f 4a20 3abf
000003d0: 77e0 e1be 0ccd 7f3f 7535 153e dbb3 24bf
000003e0: 970a a23e fee8 7dbe 9686 b5bd 098d cbbe
000003f0: f40a cc3c 2934 8e3e f26d 72bf 1250 3e3e
-0.19159862 0.064760655 -0.36665136 0.7962033 0.26663685 -0.44829062 0.72701406 0.5725767
-0.84591055 0.7173577 0.1792748 -0.40722987 0.4299532 0.58278996 -0.15412562 -1.40692
-0.21226299 -0.8999929 -0.7543526 0.09539458 -0.7354899 0.23021306 -0.31990194 -0.41248277
1.0170063 -0.07202432 0.5047514 0.68791157 0.4850935 -0.28610516 0.43937942 0.48979974
0.075518444 -0.07338936 -0.09146812 -0.1362327 0.09197403 1.2182051 -0.11765341 0.16304535
0.10508541 1.5537063 0.6333296 -0.39087662 0.0018552579 -0.78014255 0.6878888 0.47784582
-0.02713548 0.5053113 -0.03741364 0.28871715 0.10679526 -0.46248713 -0.3062228 0.39914256
-0.26561078 0.8373765 0.37291333 -0.035438664 0.24277712 0.22865325 -0.41001678 -0.8329708
-0.34748372 0.13132548 0.8108283 -0.49255738 0.22209471 -0.32718712 -0.11976429 0.7281627
0.96598846 -1.1497087 0.14864007 -0.14357069 -0.027039442 0.58639497 -0.36672595 0.1364347
0.24975197 -0.81606334 0.13800958 -0.379328 0.4992354 0.21793993 -0.19402306 -0.08163693
-0.3785707 0.759962 1.1182855 1.3036069 0.1299224 0.0639769 -0.8089213 -0.28967133
0.29514018 1.271399 0.18947256 -0.22350419 -0.32987794 0.65175253 0.18934865 -0.50552547
0.25196972 0.16372567 0.8044055 0.19926485 0.23752749 -0.75595164 -0.3158901 1.1014526
0.25099754 -0.14723334 -0.24033836 -0.40096036 -0.43915415 0.45851302 0.50174445 -0.6329448
-0.2889803 0.143201 -0.81420237 0.23283966 0.31144518 0.48385647 -0.18655291 0.28644282
0.036171418 0.85825956 -0.19450854 0.7316319 -0.46884623 0.10863943 -0.25039718 0.102558434
0.09807188 -0.05126327 -0.04879273 0.51616853 0.5964804 -0.31267032 -0.4210759 0.19805095
0.88318706 -0.05541187 -0.4671848 0.7427478 -0.23362894 -0.8549415 -0.6648381 0.2825583
0.05887814 -0.010924614 -0.7602386 1.0475191 0.15946081 0.591804 0.2976412 0.1486154
1.6058551 0.9188715 -0.16319089 0.2753154 0.25002286 0.6051577 -0.3256197 -0.07134586
-0.76901925 0.543747 0.08596125 0.13186409 0.44998932 -0.06481931 -0.08371875 0.0043575466
0.14698714 -0.2784988 0.87809056 -0.21185967 0.079367116 0.9514345 -0.11439475 -0.24620023
0.26154706 -0.65376014 -0.28424087 0.44214302 1.2449154 0.01679753 0.0025817733 0.40382573
0.4614501 0.5444898 -0.2742064 -0.23250893 0.18862283 -0.36139902 -0.6769162 -1.5226334
-0.14062704 0.20852771 -0.27685162 -0.13604452 0.07331766 -0.31415585 0.42370334 1.037029
-0.36615688 0.21259312 0.39986765 0.19991705 0.14350992 -0.13273084 -0.37148637 -0.2763486
0.6083223 0.6836888 -0.14799917 -0.03846115 -0.25697455 0.9339805 0.9772002 0.67022413
0.07213048 0.2203868 -0.13251771 -0.20787753 -0.05604234 -0.9719762 -0.056243602 0.43677697
0.19647159 -0.19846758 -0.464061 -0.49217832 -0.47225916 -0.7022965 0.40178525 0.18492548
0.06857532 -0.09318695 0.67479306 -0.7270552 -0.44116566 0.9992225 0.14571173 -0.6433694
0.31648704 -0.2479591 -0.08863561 -0.3975604 0.024907567 0.2777417 -0.94699013 0.18585232
