cache/mid-midi/w7zn1r_bvaU_A Tree in the Meadow.npy (npy, 3200 bytes, 1 tensors)

array f4 [1, 768]
-0.33856815 -0.003143314 -0.21348539 0.41413713 0.23469608 0.1547283 0.4158166 0.33896905
-1.2847492 0.5739574 0.24422386 -0.5806099 0.35015061 0.79233795 -0.15333374 -1.3953227
-0.23311734 -1.061665 -0.33309612 0.09652133 -0.4276955 0.12407889 -0.21203971 -0.49095178
0.99425524 -0.032863937 0.19804467 0.900774 0.21008207 -0.12702465 0.5177719 0.36580318
0.32060546 0.33094278 -0.13918638 -0.313804 -0.084103756 1.5410026 -0.21470582 0.17851472
0.15974799 1.5938053 0.7029218 -0.6066122 0.10717052 -1.0119362 0.762349 0.4366102
0.4179658 0.6896732 -0.6624025 0.6208573 0.19315912 -0.21378992 -0.64353997 0.1707629
-0.23957425 0.6266747 0.0020616208 0.03194084 0.042542495 0.5706537 0.03937503 -0.8492675
-0.6483684 0.12036551 0.6874429 -0.8237593 0.1274243 0.21413442 -0.26167578 0.6139637
1.0504197 -1.3316001 0.42739445 -0.11312191 -0.060754925 0.74720746 -0.49768132 -0.26768732
0.22026223 -1.10076 -0.26668057 -0.23020808 0.57920456 0.50552934 0.30207497 0.35706827
-0.15295275 0.80372125 1.4492191 1.2617992 -0.15428872 0.07084052 -0.6324815 -0.5479737
0.19016257 0.9621477 0.28036645 -0.279981 -0.5351554 0.20466794 0.30811536 -0.54691666
0.36155578 -0.098525025 0.57117385 -0.017117972 -0.0826525 -0.41211012 0.08045627 0.8148178
0.20525503 -0.28940853 0.06731615 -0.3274482 -0.62897533 0.58230954 0.6140708 -0.9455951
0.22048669 0.4751512 -0.58559114 0.12760691 0.3001253 0.36992267 -0.33651608 0.61654025
0.026296161 0.8046463 -0.57497823 0.8114566 -0.12542573 0.44559523 -0.07745468 0.10369866
0.1722984 -0.19111164 0.16366152 0.24049829 0.059245232 -0.3369559 -0.2432266 0.06101811
0.56938064 0.15790822 -0.3292877 0.6919457 -0.36226043 -0.7083355 -0.49817815 0.46601486
0.2764917 -0.2209893 -0.60628945 0.9894689 0.6059148 0.6758035 0.21358725 0.45540756
1.8121983 0.90362763 -0.5425858 0.25790918 0.24721819 0.38885403 -0.32381952 -0.078471825
-0.82620424 0.7289808 0.2783837 0.18947248 0.5195781 0.06295092 0.06547861 -0.26598257
0.033416234 -0.27774322 0.80711293 -0.28195742 0.23252362 0.7527254 -0.11318218 -0.35071397
0.42736647 -0.70850444 -0.3471204 0.6783401 0.84647584 -0.10834982 -0.03164483 0.488116
0.2666759 0.3272482 -0.47359174 -0.05679575 -0.008155292 -0.42521855 -0.561814 -1.1560209
-0.011650488 0.46763727 -0.46096033 -0.017179266 0.15485139 -0.3082582 0.74144226 1.2344725
-0.64355606 -0.17021297 0.29378375 0.19987255 -0.22723503 0.38369143 -0.710618 -0.300226
0.40003282 0.9743814 -0.47092062 -0.0962697 -0.44116244 0.8602519 1.091133 1.2997822
0.24616717 0.5050137 -0.09099336 0.15704747 -0.20617612 -0.71436596 0.06680355 0.30646437
0.2882944 -0.29237995 -0.21708228 -0.48317012 -1.1887933 -1.1635393 0.84405303 0.14735375
0.043438792 0.14756191 0.81585884 -0.663446 -0.32832703 0.7809533 -0.17526482 -0.32986432
0.3165038 -0.47470984 -0.16244651 -0.6096525 -0.12872845 0.25604275 -0.81024283 0.330325
00000000: ce58 adbe 0f00 4ebb ea9b 5abe c809 d43e
00000010: 2b54 703e 1871 1e3e eae5 d43e 5a8d ad3e
00000020: a972 a4bf dfee 123f d215 7a3e daa2 14bf
00000030: f146 b33e a9d6 4a3f 8503 1dbe ef99 b2bf
00000040: 50b6 6ebe a4e4 87bf 938b aabe faac c53d
00000050: e8fa dabe 131d fe3d f020 59be 085e fbbe
00000060: 8387 7e3f 569c 06bd 39cc 4a3e 2099 663f
00000070: c11f 573e c012 02be b38c 043f 8e4a bb3e
00000080: 6626 a43e 5571 a93e e086 0ebe ebaa a0be
00000090: 973e acbd 933f c53f d8db 5bbe 90cc 363e
000000a0: fa94 233e d001 cc3f aff2 333f f04a 1bbf
000000b0: 387c db3d 2087 81bf 4e29 433f 5f8b df3e
000000c0: 9dff d53e 6c8e 303f 3693 29bf 81f0 1e3f
000000d0: 81cb 453e bfeb 5abe 09bf 24bf 78dc 2e3e
000000e0: f452 75be c16d 203f 421c 073b 66d4 023d
000000f0: 0a41 2e3d 5c16 123f b647 213d 9869 59bf
00000100: 79fb 25bf 3182 f63d 42fc 2f3f e4e1 52bf
00000110: 847b 023e 0e46 5b3e 5efa 85be ba2c 1d3f
00000120: 2774 863f df71 aabf 72d3 da3e 76ac e7bd
00000130: 28da 78bd fd48 3f3f 16d0 febe 500e 89be
00000140: 6c8c 613e b4e5 8cbf 5b8a 88be abbb 6bbe
00000150: c046 143f 5f6a 013f 92a9 9a3e a7d1 b63e
00000160: a59f 1cbe adc0 4d3f 0380 b93f a382 a13f
00000170: ddfd 1dbe d614 913d 4fea 21bf 0148 0cbf
00000180: fab9 423e 504f 763f 318c 8f3e ab59 8fbe
00000190: f2ff 08bf 7994 513e 4cc1 9d3e bb02 0cbf
000001a0: d71d b93e 7dc7 c9bd 7338 123f fd3a 8cbc
000001b0: b745 a9bd 1900 d3be 42c6 a43d e697 503f
000001c0: 602e 523e 5b2d 94be 0ddd 893d 4aa7 a7be
000001d0: 8704 21bf 3d12 153f be33 1d3f 8512 72bf
000001e0: 43c7 613e 0547 f33e 4de9 15bf 63ab 023e
000001f0: 06aa 993e 8166 bd3e d64b acbe 95d5 1d3f
00000200: 0c6b d73c 4dfd 4d3f c631 13bf 9fbb 4f3f
00000210: 9a6f 00be 0f25 e43e 8fa0 9ebd f75f d43d
00000220: fe6e 303e c5b2 43be e396 273e 2f45 763e
00000230: 21ab 723d 7c85 acbe 6510 79be 20ee 793d
00000240: eec2 113f b1b2 213e 6698 a8be 5a23 313f
00000250: 337a b9be 7a55 35bf 3511 ffbe 8099 ee3e
00000260: 5290 8d3e 054b 62be c935 1bbf d54d 7d3f
00000270: 3b1d 1b3f 7501 2d3f 9eb6 5a3e 2e2b e93e
00000280: 1df6 e73f 2454 673f e7e6 0abf ac0c 843e
00000290: c426 7d3e e017 c73e accb a5be d6b5 a0bd
000002a0: 1f82 53bf 7c9e 3a3f 4f88 8e3e 1305 423e
000002b0: 1203 053f 69ec 803d a619 863d de2e 88be
000002c0: 76df 083d 5c34 8ebe f49e 4e3f b95c 90be
000002d0: ac1a 6e3e 9db2 403f 0fcc e7bd c890 b3be
000002e0: c7cf da3e 8c60 35bf c4b9 b1be b2a7 2d3f
000002f0: a4b2 583f 83e6 ddbd 029e 01bd 57ea f93e
00000300: be89 883e 138d a73e 9e7a f2be a9a2 68bd
00000310: c69d 05bc 3fb6 d9be 0bd3 0fbf 7ef8 93bf
00000320: b0e1 3ebc 276e ef3e fe02 ecbe 88bb 8cbc
00000330: 5d91 1e3e 05d4 9dbe 29cf 3d3f 3203 9e3f
00000340: 17c0 24bf 4f4c 2ebe d36a 963e 64ab 4c3e
00000350: 4db0 68be 3473 c43e 10eb 35bf 39b7 99be
00000360: 1ad1 cc3e 0f71 793f 821c f1be 0c29 c5bd
00000370: 0be0 e1be 7839 5c3f 3faa 8b3f 435f a63f
00000380: 3f13 7c3e 9448 013f ba5a babd 0dd1 203e
00000390: d51f 53be b0e0 36bf 4dd0 883d e6e8 9c3e
000003a0: 539b 933e d3b2 95be d14a 5ebe 1362 f7be
000003b0: 612a 98bf dbee 94bf dc13 583f e7e3 163e
000003c0: e0ec 313d 781a 173e 20dc 503f 99d7 29bf
000003d0: 7b1a a8be 8eec 473f 9f78 33be fae3 a8be
000003e0: c90c a23e 2b0d f3be 6158 26be 3012 1cbf
000003f0: 64d1 03be 0918 833e 136c 4fbf 5c20 a93e
