cache/mid-midi/W9FiUwC-LX0_Empty Arms.npy (npy, 3200 bytes, 1 tensors)

array f4 [1, 768]
0	0xbf412d3f	-0.75459665
1	0xbe980433	-0.29690704
2	0xbedabd89	-0.4272273
3	0x3f1a471f	0.6026477
4	0x3e0d31f0	0.13788581
5	0x3ea9ed73	0.33188972
6	0x3e405e10	0.18785882
7	0x3e49dc74	0.19713002
8	0xbf628b0e	-0.8849343
9	0x3f1924ff	0.59822077
10	0x3d88507e	0.06655978
11	0xbf15ef85	-0.585686
12	0x3e876143	0.26441392
13	0x3f22f63f	0.6365699
14	0x3ed6e196	0.41968983
15	0xbfa3ad05	-1.2787176
16	0xbd8ffc5b	-0.07030555
17	0xbf51b7d1	-0.81921107
18	0xbd4dabab	-0.050212543
19	0x3ed7b88e	0.42132992
20	0xbc811817	-0.015758557
21	0xbe0895f2	-0.1333845
22	0xbd94af0e	-0.072599515
23	0xbe790c3c	-0.24321073
24	0x3f6e144a	0.9299971
25	0xbd313e6a	-0.043272413
26	0x3daa8784	0.08326629
27	0x3f9565ee	1.1671731
28	0x3ec84848	0.39117646
29	0xba9bd472	-0.0011888875
30	0x3e9fcb7e	0.3120994
31	0x3eb6ce9a	0.357045
32	0x3ed7f25a	0.42177087
33	0xbe6c8bf6	-0.23100266
34	0xbe8117f3	-0.25213584
35	0xbea72fd1	-0.3265367
36	0x3e0d029c	0.13770527
37	0x3fc2b272	1.5210707
38	0xbeda0a5d	-0.42586032
39	0xbeefe762	-0.4685622
40	0xbca07c4a	-0.019590516
41	0x3fb7a873	1.4348282
42	0x3f23cc4d	0.63983613
43	0xbef08905	-0.46979538
44	0xbe325eb0	-0.17418933
45	0xbf28f8d3	-0.66004676
46	0x3f5b1bd0	0.85589314
47	0xbe7095f3	-0.23494701
48	0x3e457f13	0.19286756
49	0x3f44aac6	0.7682308
50	0xbf14f00d	-0.5817879
51	0x3f5642a4	0.83695436
52	0x3ebbf718	0.36711955
53	0x3db4008b	0.08789166
54	0xbf27c127	-0.655291
55	0x3d398fe2	0.045303233
56	0xbe5ca14d	-0.21545906
57	0x3e9fbae2	0.31197268
58	0x3dc7bca2	0.09752776
59	0x3e77c540	0.24196339
60	0x3e11642d	0.1419837
61	0x3f214c95	0.6300748
62	0x3ddcb2fe	0.107763276
63	0xbeb583ab	-0.35452017
64	0xbf3d40ad	-0.7392681
65	0xbdaae381	-0.08344174
66	0x3f0d39c1	0.5516625
67	0xbf447a65	-0.7674926
68	0x3ea924c9	0.33035877
69	0xbe91d227	-0.28480646
70	0xbe5fa5c9	-0.21840586
71	0x3ee4ff3c	0.44725978
72	0x3f250f29	0.6447626
73	0xbf911745	-1.1335226
74	0x3cb9899d	0.022648627
75	0xbe911137	-0.28333446
76	0x3dfcfe4c	0.12353191
77	0x3ed5ec20	0.41781712
78	0xbf350586	-0.70711553
79	0xbec32352	-0.38112885
80	0xbda14377	-0.07874196
81	0xbf1e47d4	-0.6182835
82	0x3e413f48	0.18871796
83	0xbe09d31b	-0.13459437
84	0x3e0a9016	0.13531527
85	0x3f2a6981	0.66567236
86	0x3f01e959	0.50746685
87	0xbe09423c	-0.13404173
88	0xbd9893e2	-0.074500814
89	0x3f3ade09	0.7299505
90	0x3f399079	0.7248607
91	0x3f93f1f8	1.1558218
92	0x3e169d38	0.14708412
93	0x3e4f2c1b	0.20231669
94	0xbf1d7afd	-0.6151579
95	0xbf20f3c5	-0.6287196
96	0x3d17c05d	0.037048686
97	0x3f6bef9e	0.921625
98	0x3e45f7ee	0.19332859
99	0xbe383638	-0.17989433
100	0xbe75499b	-0.2395386
101	0xbd3fd964	-0.04683818
102	0x3e47887b	0.19485657
103	0xbee79ac9	-0.4523528
104	0x3f1574f9	0.5838161
105	0xbd180f10	-0.03712374
106	0x3f23df10	0.6401224
107	0xbf0cca03	-0.54995745
108	0xbe9fa40b	-0.31179842
109	0xbe8e52b2	-0.27797467
110	0x3e3437be	0.17599389
111	0x3f4359d7	0.7630896
112	0x3e2f6d32	0.17131498
113	0xbdc2e505	-0.09516338
114	0xbe2b3916	-0.16720995
115	0xbf2d10df	-0.6760387
116	0xbe443722	-0.19161656
117	0x3ec0c46f	0.37649867
118	0x3d7c8052	0.061645813
119	0xbf38088c	-0.7188804
120	0x3ea2a4a6	0.31766242
121	0x3e4aaf44	0.19793421
122	0xbeab9dac	-0.33518732
123	0x3e9c560d	0.30534402
124	0xbcdfe896	-0.027332585
125	0x3d720023	0.05908216
126	0xbecb1027	-0.3966076
127	0x3ede71ac	0.434461
128	0x3e2abee2	0.16674379
129	0x3f181e84	0.59421563
130	0xbea58fa8	-0.32336164
131	0x3f05a659	0.5220695
132	0xbf166cb3	-0.5875961
133	0x3e1fecc1	0.15617658
134	0xbe21904c	-0.15777701
135	0x3e540b13	0.2070735
136	0x3e8a3739	0.26995257
137	0xbdd4fb20	-0.10399461
138	0x3d480522	0.04883302
139	0x3e7998bb	0.24374668
140	0x3d707f5c	0.05871521
141	0xbd2f3cf0	-0.042782724
142	0xbe85618b	-0.26050982
143	0x3e92643d	0.285921
144	0xbd97a603	-0.07404711
145	0xbe190021	-0.14941455
146	0xbe86a3b9	-0.26296785
147	0x3f3a78bf	0.72840494
148	0xbe8c27cd	-0.27374116
149	0xbd9a3da5	-0.07531289
150	0xbeaaa5c2	-0.33329588
151	0xbbd51bbb	-0.00650355
152	0x3eda1308	0.42592645
153	0x3d74f3b6	0.059802733
154	0xbe6ebcfe	-0.23314282
155	0x3ebb4570	0.36576414
156	0x3ef91b51	0.48653653
157	0x3e9f06ae	0.31059784
158	0x3ef87b48	0.48531556
159	0x3ee147bc	0.4400004
160	0x3fa4b597	1.2867917
161	0x3f6ea651	0.9322253
162	0xbd49597d	-0.04915761
163	0x3f460cc1	0.7736321
164	0x3f165ff2	0.5874015
165	0x3f1451cd	0.5793732
166	0xbecc4245	-0.3989431
167	0xbe8ef72b	-0.2792295
168	0xbeda0d00	-0.42588043
169	0x3f1afb72	0.60539925
170	0x3c902175	0.017594079
171	0xbede8a6f	-0.4346499
172	0x3edb576a	0.4284013
173	0x3d8df535	0.06931535
174	0x3d864bb9	0.06557412
175	0xbdac131b	-0.084020816
176	0x3d2825f6	0.041051827
177	0xbe8b2fc6	-0.27184886
178	0x3f8334b7	1.0250462
179	0x3e1ccc69	0.15312351
180	0x3e8cc008	0.27490258
181	0x3f12f01b	0.5739762
182	0x3dfa001b	0.12207051
183	0xbe885e18	-0.26634288
184	0x3dfd65c0	0.12372923
185	0xbec4d6a4	-0.38445008
186	0xbecddad7	-0.40206024
187	0x3e997e12	0.29978997
188	0x3f5747a3	0.84093684
189	0x3d0b8d88	0.03407052
190	0x3e687703	0.2270165
191	0x3f1fcf46	0.6242565
192	0x3e5fbc32	0.21849135
193	0x3cd8ad44	0.026449807
194	0xbe92a51c	-0.28641593
195	0x3dbdb760	0.09263492
196	0x3eedddb3	0.46458206
197	0xbeed3a96	-0.4633376
198	0xbf1ca551	-0.6118975
199	0xbf6e0cc9	-0.9298826
200	0xbeaaebd6	-0.33383054
201	0x3ba3a058	0.0049934797
202	0xbf85874d	-1.0431916
203	0xbe6504d9	-0.2236513
204	0xbe6dd7c9	-0.23226847
205	0xbe94aeef	-0.29039714
206	0x3ef3097e	0.4746818
207	0x3f8e3a32	1.111151
208	0xbe916a24	-0.2840129
209	0xbdc225fb	-0.094799004
210	0x3e6a4f9f	0.22881936
211	0x3eb4805c	0.3525418
212	0xbe87e60d	-0.26542702
213	0xbeb26d38	-0.34848952
214	0xbf4efa08	-0.8085027
215	0xbec17744	-0.37786305
216	0x3ee7bce1	0.4526129
217	0x3f872fb9	1.0561439
218	0xbebe91b8	-0.3722055
219	0xbe3adf76	-0.18249306
220	0xbd9de724	-0.07710102
221	0x3ebd59c4	0.36982548
222	0x3f64beab	0.89353436
223	0x3f5a3bbc	0.852474
224	0x3f0c39f7	0.5477595
225	0x3f5b813d	0.85744077
226	0xbd93004c	-0.07177791
227	0x3e536155	0.20642598
228	0x3e08599b	0.13315432
229	0xbe8f4d41	-0.27988628
230	0xbcd37ac6	-0.025815379
231	0x3e75c371	0.24000336
232	0x3e8c8991	0.27448705
233	0xbe1f345d	-0.15547319
234	0xbe9ae2fa	-0.30251294
235	0xbf0f7319	-0.56035
236	0xbf96c6cd	-1.1779419
237	0xbf82b7dd	-1.0212361
238	0x3eaa72e2	0.33290774
239	0x3e39cb03	0.18143849
240	0x3e405e94	0.18786079
241	0x3e3dd20a	0.18537155
242	0x3f8dcd0c	1.10782
243	0xbf1c2f2a	-0.61009467
244	0xbe8ae2fc	-0.271263
245	0x3ed765b1	0.42069772
246	0xbf0026cf	-0.5005922
247	0xbe0c6484	-0.13710219
248	0x3f299af1	0.66252047
249	0xbf20cce4	-0.6281264
250	0x3d3b9850	0.045799553
251	0xbe514713	-0.20437269
252	0xbf1649e0	-0.58706474
253	0x3f36b3eb	0.71368283
254	0xbf09d9cb	-0.5384795
255	0x3f3800a1	0.7187596
