cache/mid-midi/W9S3YMmIFdw_Ein bichen Frieden.npy (npy, 3200 bytes, 1 tensors)

array f4 [1, 768]
000000 71 99 ec be b1 85 b5 bd 77 ee ed be 88 75 00 3f
       -0.46210817 -0.0886339 -0.46470997 0.5017934
000010 dd 85 9d be 5f c1 e7 be 3a fb 26 3e 5a 34 0b 3f
       -0.30766192 -0.45264718 0.16306773 0.5437676
000020 3f 50 ac bf 62 6a eb 3e 09 1e bc 3e 40 56 3b bf
       -1.3461989 0.459796 0.36741665 -0.7317848
000030 67 0a 4d 3f 2e be 02 3f 71 af f2 be 40 03 a3 bf
       0.80094 0.5107144 -0.47399476 -1.2735367
000040 a9 a8 05 bf 2d b4 12 bf 2b 52 5f be 77 c9 03 be
       -0.5221048 -0.57306176 -0.21808688 -0.12869821
000050 84 a8 d9 be 04 f0 b2 3e 9f 27 b3 be 0b 94 96 bf
       -0.4251138 0.34948742 -0.34991166 -1.1763929
000060 e8 cc 37 3f 9c 07 70 be 32 6f c3 3e 90 65 46 3f
       0.7179704 -0.23440403 0.38170773 0.7749872
000070 a0 80 ae 3d 09 40 55 bd 00 44 48 3f 97 7d 14 3e
       0.08520627 -0.05206302 0.7822876 0.14501034
000080 f7 80 f1 3e 03 14 b6 3e c7 27 95 3d fc 66 82 be
       0.47168705 0.35562143 0.072829776 -0.25469196
000090 58 a2 28 be e8 e6 91 3f 42 9c a6 be 5b 48 58 3e
       -0.16468179 1.1398592 -0.3254109 0.21121351
0000a0 9e 7a 24 be 82 3d de 3f a9 9e 14 3f 90 6f 85 bf
       -0.160624 1.7362521 0.58054596 -1.0424671
0000b0 58 5b e3 3e 5c 9e 83 bf 3d f4 1a 3f b7 bd f5 3e
       0.44405627 -1.0282702 0.6052893 0.47996303
0000c0 84 3f c3 3e 4e d8 22 bd f5 53 7e be 8f 99 2d 3e
       0.38134396 -0.039757065 -0.24836715 0.16953109
0000d0 10 81 d4 3e 73 17 85 3d 45 bf 0c bf db a5 bf 3e
       0.41504717 0.06498613 -0.54979354 0.37431225
0000e0 9b 77 d9 be 4d b8 04 3e d5 36 67 be ee 86 e0 3e
       -0.42474064 0.1296093 -0.2257951 0.43852943
0000f0 ee ed f1 3e ce 5a 64 3e ec 88 8f be 7c 2f 26 bf
       0.47251838 0.22300264 -0.2803415 -0.64916205
000100 e3 da 9e be 9f 27 81 be f1 ad b2 3f 4a 7c b8 be
       -0.31026372 -0.2522554 1.3959333 -0.36032325
000110 25 28 e3 3d 67 39 5c be 10 7c 08 3f bb 65 e9 3e
       0.11091641 -0.21506272 0.53314304 0.45585427
000120 15 d7 70 3f 5f 8f ac bf b1 4c f7 bd 54 ca 8a 3e
       0.9407819 -1.3481253 -0.120751746 0.2710749
000130 9a 9f e8 be f3 8a fd 3e 54 e9 25 bf 13 af 07 be
       -0.45434266 0.49520072 -0.64809155 -0.1325038
000140 e2 f4 aa 3e f6 00 54 bf 3b 52 b8 bd 26 24 29 3e
       0.33389956 -0.82813966 -0.09000059 0.16517696
000150 eb df 10 3f 72 12 92 3e 58 6c 4a 3e b5 fe 80 bc
       0.5659167 0.28529698 0.19767892 -0.015746454
000160 ac 4e a6 be 03 9c ba 3e 64 dd 51 3f 83 42 a1 3f
       -0.32481897 0.36447152 0.8197844 1.2598423
000170 35 09 d5 bd 7e d5 94 3d eb 17 c7 be 1a 16 60 be
       -0.10402147 0.07267283 -0.38885435 -0.21883431
000180 2c e8 0b 3e 94 dc 98 3f 4a 51 ac 3e a1 5f aa be
       0.13662785 1.1942315 0.3365577 -0.33276084
000190 6e 9b a9 be a1 e9 9d 3e a4 99 07 3d 40 a5 11 bf
       -0.33126396 0.30842307 0.033105507 -0.56892776
0001a0 ac 09 84 3e fd 56 70 be 83 5c 34 3f 9b c2 0d be
       0.2578863 -0.23470683 0.7045366 -0.13843767
0001b0 bb 3c 11 bf 8c 03 6b be a4 65 ad bd 0d 60 32 3f
       -0.5673329 -0.22950572 -0.08466652 0.6967781
0001c0 7c 6f a1 3e c6 99 31 be 08 3b 17 be a3 88 17 bf
       0.31530368 -0.17343816 -0.14768612 -0.59192866
0001d0 7c 96 2d bf b9 10 ab 3e 8b e2 1a 3f 09 59 a0 bf
       -0.67807746 0.33411196 0.6050193 -1.2527171
0001e0 95 e2 93 be 21 98 dd 3e 21 28 0b bf fa b6 3f bc
       -0.28883806 0.43280128 -0.54358107 -0.01170134
0001f0 cf 30 7b 3e 32 c3 2e 3f bc 54 15 bf a1 40 ff 3e
       0.24530338 0.68266594 -0.5833242 0.49853995
000200 b4 45 3e bf 91 8f 8c 3f 3e f8 ea bc 44 ff f7 3f
       -0.7432511 1.0981313 -0.028682824 1.9374776
000210 04 c5 04 bf fd 2b 23 bd 5c 09 91 be 76 e6 18 3e
       -0.5186312 -0.039836872 -0.28327453 0.14931664
000220 c5 b8 af be e9 f3 1d bd 31 32 4c be 35 74 3d 3e
       -0.34320655 -0.03856269 -0.19941022 0.1850136
000230 c9 31 36 3f ed 92 f6 be 19 0b 52 be b1 0c be 3d
       0.71169716 -0.4815897 -0.20512046 0.092797644
000240 97 4b 09 3f 48 9a 90 3e b4 6d f5 be 87 b8 30 3f
       0.53630966 0.28242707 -0.4793526 0.69031566
000250 fc 4e 4d bf bc bc 05 bf 3a 50 99 3d de 6d 1c 3f
       -0.80198646 -0.5224111 0.07486005 0.61105144
000260 5a 34 bc 3d 43 1a 19 3e 4a 0a af be 73 3d 7a 3f
       0.09189673 0.14951424 -0.34187537 0.97750014
000270 ff ce 22 3f 3d f0 71 3f cf 78 a6 3d 9e 12 d9 3e
       0.635971 0.945072 0.08128511 0.42397016
000280 f0 ea b4 3f 9e 7f 2d 3f b1 4b fe be 86 3a f4 bd
       1.4134197 0.67772853 -0.49667123 -0.11925225
000290 4f 67 d0 3e 55 43 81 3e 6b 32 de bd b1 55 94 3e
       0.40703818 0.25246683 -0.1084946 0.28971627
0002a0 9f ad 8e bf 2a 18 78 3d 3a a1 a6 3e 13 40 12 3f
       -1.1146735 0.06056992 0.3254488 0.5712902
0002b0 52 0e 7c 3f f5 0d e8 be 7c f2 b4 3d 8f 7e 58 3e
       0.9845935 -0.45323148 0.08835313 0.21142028
0002c0 1c 0a e4 bd a1 2b f9 be 97 a1 94 3e b9 1e f3 3e
       -0.11134741 -0.486661 0.29029533 0.47484377
0002d0 ad 6b 62 3e cc fb 90 3e c7 84 65 bf e2 62 25 bf
       0.22111388 0.28317106 -0.8965573 -0.6460401
0002e0 b1 4c 2c bb db 1c c8 be 12 e7 39 3e e9 3c 63 3f
       -0.0026290829 -0.39084515 0.18154553 0.88764817
0002f0 18 19 3b 3f 09 3e ec 3e 06 43 90 be b8 77 fc 3e
       0.73085165 0.4614108 -0.28176135 0.49310088
000300 cb 07 72 be bc 49 d6 3e 87 74 c2 be 56 bf 04 bf
       -0.23635785 0.4185313 -0.37979528 -0.51854455
000310 d6 93 b7 3e 2a 01 f1 bc 3a f6 52 bf ea de 8b bf
       0.35854977 -0.0294195 -0.8240696 -1.0927403
000320 1a 34 38 3e 25 34 47 3f 0e 0e c2 bd 81 08 f7 ba
       0.17988625 0.7781394 -0.09475337 -0.0018847139
000330 48 d1 20 3b 03 77 ca be d8 d1 49 3f cd cb 9a 3f
       0.0024538804 -0.39543924 0.7883582 1.2093445
000340 6d b6 9c be ec 22 89 be cf e4 cd 3e 09 f8 8b 3d
       -0.3060793 -0.26784456 0.4021363 0.06834418
000350 4c 58 37 3e eb da 28 3e 06 25 2c bf 9a 3b b3 3b
       0.17904776 0.1648976 -0.67243993 0.0054697515
000360 4c 9d 6b 3e 47 1f 67 3f 2a c8 a0 be 49 f0 28 bf
       0.23009223 0.902821 -0.31402713 -0.65991646
000370 b1 9b 8c 3c 1c cd 80 3f ed 72 8b 3f ad ef a9 3f
       0.017164083 1.0062594 1.0894448 1.3276268
000380 e6 ce ca bc 78 4b 56 3e fa 96 81 be 2c fc bd bd
       -0.02475686 0.20927227 -0.25310498 -0.092766136
000390 f9 a9 0d be b1 f6 cd be a9 d9 13 3e 46 5a 84 3e
       -0.1383437 -0.40227273 0.144385 0.25850123
0003a0 b8 85 12 3f c3 fc be bd 82 10 19 bc a0 9f e5 be
       0.5723529 -0.09325554 -0.009342315 -0.44848347
0003b0 8f 9d b5 be b1 7b 74 bf c6 63 0c 3f 54 e5 b1 3d
       -0.3547177 -0.9550124 0.5483974 0.08686319
0003c0 54 7e b7 3c c7 71 96 be 62 bf 19 3f 05 b9 63 bf
       0.022399105 -0.2938368 0.6005765 -0.8895419
0003d0 c2 da 19 bf 88 cd d9 3e 2b ee 91 be fc 22 2c be
       -0.6009942 0.4253962 -0.2850202 -0.1681022
0003e0 94 13 ef 3d 97 f5 b4 3e f8 c8 61 3b 59 25 10 bf
       0.11673656 0.3534362 0.0034452062 -0.5630699
0003f0 43 64 00 3f c9 f7 af 3e d4 62 23 bf a0 30 0f 3f
       0.5015299 0.34368733 -0.63822675 0.5593357
