cache/mid-midi/yqM0cjN-b3o_She Wears Red Feathers.npy (npy, 3200 bytes, 1 tensors)

array f4 [1, 768]
-0.2906772 -0.02432189 -0.32980978 0.18674597 -0.39524916 0.09280217 -0.11644958 0.12132147
-0.88922423 0.48897913 0.25812948 -0.57708585 0.48595217 0.6517258 -0.023030087 -1.5522293
-0.41221082 -0.95746255 -0.048417605 0.11796869 -0.45445213 -0.29104802 -0.123833835 -0.22497931
0.5890682 -0.12315861 0.27468964 0.21173677 0.4178827 0.38298568 0.27366087 0.31697834
0.3591855 0.65512633 -0.2810242 -0.30956516 0.27789313 1.4056572 -0.4017157 -0.27774453
-0.12727186 1.1555482 0.9081328 -0.57997733 0.17667201 -0.2123162 0.86532897 -0.0668805
0.47941524 0.5500383 0.011342076 0.22535382 0.2031309 -0.20801057 0.08386653 0.46533078
-0.060991466 0.90540946 -0.22217904 0.030463167 0.469933 0.5127638 0.11830034 -0.42444527
-0.58821434 -0.06931851 0.90308356 -0.5240469 -0.044011142 -0.031170951 -0.005585052 0.64571303
0.4202186 -0.60910887 -0.10361067 0.005535573 -0.23059557 0.3352923 -0.53429735 -0.22690772
0.2713204 -0.56405586 -0.14089546 -0.29147112 0.44440067 0.36371434 -0.18454346 0.7572873
-0.20066035 0.76582485 0.78492266 0.91199654 0.22405995 -0.07722278 -0.53725576 -0.52669495
-0.077656806 0.63132936 0.54542583 -0.43073547 0.14905985 0.1724834 0.28704166 -0.24910937
0.6265223 -0.0022428464 0.4368993 -0.23362958 0.21492557 -0.6022787 0.36189535 0.986181
-0.3127772 0.15726534 -0.18467686 -0.48409414 -0.5091582 0.86264443 0.31237045 -1.085705
0.13502857 0.29376283 -0.36313513 0.49154434 0.30465108 -0.020466762 -0.1394775 0.1795196
-0.34221312 0.8336609 -0.61305034 0.6985014 -0.85513854 0.45370132 -0.24848703 0.4045631
0.1474917 0.38413948 0.37280402 0.050058503 -0.39254805 -0.41150236 -0.14837435 -0.052421004
0.04225283 0.6337667 -0.44575098 0.23229371 -0.36589065 -0.14770007 -0.1929758 -0.10273895
0.2777509 0.1874373 -0.581546 0.4776395 0.909477 1.0733068 -0.22223255 0.6637651
1.2704443 0.67920244 -0.40942872 0.6060111 0.21345711 0.70224124 0.1648639 -0.2605979
-0.3742385 0.3637732 -0.031333886 0.23382442 0.2750805 0.10102412 0.16479203 0.4603349
-0.23119564 -0.09354434 0.40381023 0.0072207227 0.43022856 0.722936 0.10882151 0.059266374
0.027306749 -0.2384985 0.47690126 0.5094628 1.0071496 -0.062330663 0.73676836 0.32850534
0.16505168 0.30733025 -0.08796547 -0.17565338 -0.06747302 -0.13988705 -0.5697374 -0.9131668
-0.16812344 -0.049214307 -1.1313615 -0.02610947 0.010228621 -0.31052396 0.1837673 0.8779255
-0.18690364 -0.49940637 0.49095497 -0.015913423 -0.37060577 0.112092026 -0.5398488 -0.59383154
0.49429867 0.83487326 -0.54508823 -0.34733826 -0.3974415 0.40770957 0.78553003 0.70266837
0.62605375 0.25421867 -0.33265057 0.6478226 -0.3985236 -0.1712337 -0.035822656 0.7376429
0.82306886 -0.293515 -0.36114863 -0.39078677 -0.91734606 -1.3743391 0.48059243 0.5409676
0.42657068 0.0624071 0.77728575 -0.452009 -0.25149748 0.5485784 -0.009905597 -0.52797085
0.16776283 -0.40125063 -0.38883707 -0.32973185 -0.47599483 0.7227229 -0.72289956 0.70736885
00000000: a4d3 94be b33e c7bc d4dc a8be 563a 3f3e
00000010: 195e cabe 100f be3d 1e7d eebd 6477 f83d
00000020: 33a4 63bf 795b fa3e 8c29 843e e6bb 13bf
00000030: b9ce f83e 81d7 263f 98a9 bcbc 73af c6bf
00000040: 4c0d d3be 441c 75bf 8a51 46bd 9299 f13d
00000050: f3ad e8be 3f04 95be 989c fdbd fa60 66be
00000060: 2ccd 163f 953a fcbd 1fa4 8c3e 86d1 583e
00000070: b9f4 d53e b316 c43e 471d 8c3e fc4a a23e
00000080: 29e7 b73e 5cb6 273f 67e2 8fbe 537f 9ebe
00000090: 0248 8e3e 93ec b33f aead cdbe 8834 8ebe
000000a0: 8e53 02be 01e9 933f 647b 683f 6579 14bf
000000b0: 82e9 343e 6b69 59be 3386 5d3f a5f8 88bd
000000c0: ea75 f53e 4fcf 0c3f 1dd4 393c 27c3 663e
000000d0: 8c01 503e b900 55be 37c2 ab3d d63f ee3e
000000e0: 30d2 79bd eac8 673f e782 63be e48d f93c
000000f0: 0f9b f03e 7d44 033f 7347 f23d e450 d9be
00000100: 3795 16bf ddf6 8dbd 7c30 673f f027 06bf
00000110: 0745 34bd 395a ffbc d002 b7bb 734d 253f
00000120: e426 d73e 8fee 1bbf d531 d4bd c063 b53b
00000130: 3f21 6cbe 6fab ab3e b6c7 08bf 7f5a 68be
00000140: 82ea 8a3e f765 10bf e646 10be b43b 95be
00000150: 7c88 e33e c438 ba3e f6f8 3cbe 95dd 413f
00000160: e879 4dbe 190d 443f b1f0 483f 9b78 693f
00000170: f96f 653e fa26 9ebd 9889 09bf 7bd5 06bf
00000180: 880a 9fbd cd9e 213f 07a1 0b3f 5c89 dcbe
00000190: 25a3 183e 7d9f 303e 20f7 923e 8716 7fbe
000001a0: c463 203f b8fc 12bb 44b1 df3e 983c 6fbe
000001b0: 7315 5c3e f02e 1abf 594a b93e 5c76 7c3f
000001c0: 5524 a0be 2a0a 213e ee1b 3dbe 30db f7be
000001d0: 3158 02bf 44d6 5c3f 05ef 9f3e 62f8 8abf
000001e0: ee44 0a3e 1568 963e d9ec b9be b3ab fb3e
000001f0: 3afb 9b3e e9a9 a7bc 31d3 0ebe fcd3 373e
00000200: 8f36 afbe cd6a 553f def0 1cbf fdd0 323f
00000210: 5cea 5abf 8a4b e83e 6273 7ebe e522 cf3e
00000220: 1008 173e eead c43e 2be0 be3e 250a 4d3d
00000230: 0ffc c8be 70b0 d2be 72ef 17be 68b7 56bd
00000240: 4e11 2d3d 893e 223f 7939 e4be 67de 6d3e
00000250: 0556 bbbe b03e 17be 739b 45be cc68 d2bd
00000260: 5e35 8e3e 90ef 3f3e 33e0 14bf 2a8d f43e
00000270: 7cd3 683f 1e62 893f ee90 63be 82ec 293f
00000280: eb9d a23f 36e0 2d3f a4a0 d1be 8b23 1b3f
00000290: 8094 5a3e 15c6 333f 15d2 283e 176d 85be
000002a0: 309c bfbe 7b40 ba3e f657 00bd ab6f 6f3e
000002b0: 5ad7 8c3e bce5 ce3d 3ebf 283e 04b1 eb3e
000002c0: 8dbe 6cbe 2d94 bfbd 37c0 ce3e d09b ec3b
000002d0: eb46 dc3e 5512 393f d0dd de3d 4cc1 723d
000002e0: 67b2 df3c f338 74be 672c f43e 276c 023f
000002f0: 47ea 803f 704e 7fbd da9c 3c3f da31 a83e
00000300: 4f03 293e 645a 9d3e 3e27 b4bd 7bde 33be
00000310: 4b2f 8abd 8d3e 0fbe 4fda 11bf 4dc5 69bf
00000320: 8d28 2cbe f194 49bd 74d0 90bf 87e3 d5bc
00000330: f295 273c fffc 9ebe 7f2d 3c3e babf 603f
00000340: ab63 3fbe 31b2 ffbe 735e fb3e de5c 82bc
00000350: 0ac0 bdbe 8190 e53d 8833 0abf 5805 18bf
00000360: b714 fd3e 41ba 553f e78a 0bbf 52d6 b1be
00000370: 747d cbbe 4fbf d03e 7f18 493f 13e2 333f
00000380: 0f45 203f f328 823e 2d51 aabe b4d7 253f
00000390: 490b ccbe e357 2fbe c7ba 12bd 2ad6 3c3f
000003a0: a4b4 523f 9947 96be 79e8 b8be 3415 c8be
000003b0: 31d7 6abf 58ea afbf 3610 f63e da7c 0a3f
000003c0: 7967 da3e 969e 7f3d 33fc 463f b96d e7be
000003d0: 47c4 80be a26f 0c3f 164b 22bc 1929 07bf
000003e0: 05ca 2b3e b970 cdbe a715 c7be 9dd2 a8be
000003f0: 98b5 f3be 5e04 393f f20f 39bf 2016 353f
